synthesizer/g2p/models/RU/decoder_e10.pth (torch, 581083 bytes, 8 tensors)

emb.weight f4 [50, 128]
00000000: f4b7 913f e4fa 2bbf aca3 a73c 6865 51bf
00000010: 9505 46be 9c02 b23f 7039 96be ee3d b4bf
00000020: 5d8e 603e 4f85 1bbf 9563 7a3f 80c4 c63e
00000030: c547 153f 2d3b c53e 501f a03f 5d0f 3fbe
00000040: fc2d 86bf fd55 d3bf 14d6 433f b800 bcbe
00000050: 248e af3f 9f79 513f 46c2 cb3e 3495 bcbe
00000060: 6cc8 a23f d3da 5c3f 26cd 2e3f 7c6c c0be
00000070: ebc4 dabe 739f 883f 01d5 283e 6940 8cbf
00000080: b695 7cbf 3f7e 66be 7e5a 4a3f 801f 023f
00000090: afe0 383f 18b5 00bd 2f9a a83e 4679 853f
000000a0: fb12 06be 3e73 4c3f ccb2 b3bf baea 0440
000000b0: 5ef1 ba3e 1645 38bf 3246 703e b0a2 213f
000000c0: 8609 4a3f e6a0 c03f 8a9b e63e 753b f23e
000000d0: 05c8 833e 2c0f 9ebe 86d9 833f b8f4 1ebf
000000e0: 96b5 ab3e 9b67 82bf c649 02bf 0bdb 903f
000000f0: 1337 a53f 8db8 20bf e1c5 1b3f 6935 ccbe
00000100: 3e5b 5f3f e094 40bf 8b8a 1bbf 863a b6bf
00000110: 1cce 1640 ebee 823c ffd1 143e e76b 15bf
00000120: 0e4b 7c3f 2427 d7be c9aa 273e b86c 03bf
00000130: 865d 6cbb f290 333f af6e 823f 7e48 92bf
00000140: 10bb 82bd ec96 d23e 2389 3dbf 8518 0bbe
00000150: 731f db3e c67d e13e ec07 4b3f c955 b5be
00000160: f18c 5cbe 01d8 81bf b335 26bf 4c95 f1be
00000170: a05f 193e 2724 92be 2a21 39bf 7884 883f
00000180: 89ec 0140 57b2 bd3f 3288 2dc0 36f8 48be
00000190: e274 d73f 702e 5abf e0b7 a9bd 800a 1d3f
000001a0: c7a8 7ebe 83b0 ee3d 8e94 1340 9ff4 2d3e
000001b0: e179 be3c ce58 53bf 0cd8 7c3d d146 7b3e
000001c0: ffdd ec3d 27b0 9ebc 24c7 2c3f 527e 8cbf
000001d0: 267f b33f 90e3 60bf 358f 8ebe d055 8ebf
000001e0: 791e ae3f 097d 0ebe 4c81 2940 2a46 d9bf
000001f0: f6c2 66bf 0f7a 65bf 578f 873f 8ba6 433f
00000200: 4b3a c73f bd12 4cbf 3cad bf3f 1509 4b3f
00000210: fee2 893f 1daf 1cc0 5cc2 acbe 78e7 1b40
00000220: ee1e 29c0 3eee 58c0 7b55 51c0 ad9b 46c0
00000230: 76af 68c0 c63b 25c0 e2d1 00c0 4549 01c0
00000240: 17d4 04c0 6edc 3040 7a75 5a3f 554d 4cbf
00000250: 5645 e63d e054 1ebf a278 f6bf 4bf4 1740
00000260: 3ca8 dabf 18f7 c43f 03de 94bd 60d2 68c0
00000270: 3f79 3740 7931 eebf 918c f4bf e30c 49c0
00000280: 79df c33f ed2c a4bf 0182 c7bf 81b5 0ac0
00000290: 707a ef3f 1648 0a3f 70e8 053f 10b6 4abe
000002a0: 243e 8ebe f868 1840 5a72 59bf 6f7a 1740
000002b0: a653 7ebf f325 0f3f f3de e5bf 019e 0040
000002c0: 8ff3 d13f 22e5 103f e959 1140 9bf5 b6bf
000002d0: 0da6 1240 6a88 0140 4985 a8bf 9792 0240
000002e0: caab b93f b503 89bf e577 b83f ddfb 0f3f
000002f0: 6ee8 bb3f 42dc 1a40 5e0f 0fc0 9705 eb3e
00000300: 088c fbbf 8c5a 0dc0 df9c 0940 1a4a 57c0
00000310: 098a 5240 b0a4 1b3f 8187 1bc0 cc5b 10c0
00000320: 87b9 23bd 6732 0f3f a51b 18c0 1e4f 3bbf
00000330: 6e14 3abf c71f d93f 4e8a 4940 c9d7 333d
00000340: abff cb3f d8ea 1440 54ce dbbf 7207 1040
00000350: 4a60 5fc0 6cf4 0ac0 6811 be3e 1c0a 91bf
00000360: 86b6 dbbe 0bae 1e3f 6a74 9d3f 6132 3f3f
00000370: c977 1940 0dd4 7b3f f99b 3abf 3b3a b43f
00000380: ed68 edbf ddfb 61be 57ab 1bc0 e7a6 05bf
00000390: d76f 92c0 8de2 5c40 268b 0240 5c8f 6c3e
000003a0: e30c 1bc0 3ad3 1ec0 e3dc 2bc0 1a94 3340
000003b0: 42e7 d93f 446b cdbf 15e8 3d40 1318 4ac0
000003c0: 1c3f b83f 9d89 1ebe 8133 023f c35c 6fbf
000003d0: 930b 08c0 4814 0740 b446 d8bd 4605 4840
000003e0: 0a20 48c0 ace9 a13f c224 d93d 9b3b 263f
000003f0: 9337 9cbf 18ca 193e a9ee cdbf 9a89 95bf
1.1384263 -0.67179704 0.020463787 -0.8179536 -0.19338067 1.3907046 -0.29340696 -1.40814
0.21929307 -0.6075029 0.978082 0.38821793 0.58312637 0.3852171 1.2509556 -0.18658204
-1.0482783 -1.6510617 0.7649853 -0.36719298 1.3715253 0.81826204 0.39796656 -0.36832583
1.2717414 0.862714 0.6828178 -0.37582767 -0.4272836 1.067366 0.16487505 -1.0957156
-0.9866594 -0.22509097 0.7904433 0.50829315 0.7221784 -0.031422704 0.32930133 1.0427635
-0.13093178 0.79863346 -1.403894 2.0768266 0.36512274 -0.71980417 0.23464277 0.63138866
0.7892078 1.5049102 0.45040542 0.47310987 0.2573854 -0.3087095 1.0300758 -0.6209216
0.33536977 -1.0187868 -0.5089382 1.1316847 1.2907432 -0.627816 0.60848814 -0.398845
0.872486 -0.75227165 -0.60758275 -1.423661 2.35633 0.015983066 0.14533232 -0.5836777
0.98552024 -0.4202205 0.16373743 -0.51337767 -0.0036066487 0.70143044 1.0190028 -1.1428373
-0.063833356 0.4113077 -0.7403738 -0.13583572 0.4279743 0.4404127 0.7930896 -0.3541701
-0.2153814 -1.0144044 -0.6492569 -0.47184217 0.14977884 -0.28543207 -0.7231623 1.0665426
2.030062 1.482005 -2.7114377 -0.19625935 1.6832545 -0.8522711 -0.082870245 0.61344147
-0.24869071 0.11654761 2.305942 0.16987847 0.023251476 -0.8255738 0.061729476 0.24538733
0.1156578 -0.019371105 0.67491364 -1.097605 1.4023178 -0.8784723 -0.27843633 -1.1119938
1.360305 -0.13914885 2.6485167 -1.6974537 -0.90141237 -0.8963937 1.0590619 0.76426
1.5564665 -0.7971609 1.4974742 0.79310733 1.0772398 -2.448188 -0.33742034 2.4360027
-2.6425128 -3.3895411 -3.2708423 -3.1032517 -3.6357093 -2.5817733 -2.0128102 -2.020097
-2.075445 2.763454 0.85335505 -0.798055 0.112436935 -0.6184826 -1.9255564 2.3742855
-1.7082591 1.5387907 -0.07268908 -3.6378403 2.8667753 -1.8608848 -1.9105397 -3.1414115
1.5302573 -1.282621 -1.5586549 -2.1673281 1.870924 0.54016244 0.52307796 -0.19796014
-0.27781785 2.3814068 -0.8494011 2.3668478 -0.9934639 0.5591728 -1.7958664 2.0096438
1.6402453 0.5659963 2.2711127 -1.4293703 2.291385 2.023951 -1.3165675 2.0401971
1.4505551 -1.0704256 1.4411589 0.5624369 1.4680307 2.4196935 -2.235313 0.45902702
-1.9652109 -2.2086515 2.1501997 -3.3638978 3.289675 0.6079817 -2.4301455 -2.2556028
-0.039971855 0.5593628 -2.3766873 -0.731676 -0.72687423 1.6962823 3.1490664 0.04390696
1.5937399 2.3268337 -1.7172341 2.2504544 -3.490252 -2.1711683 0.37122655 -1.133121
-0.42912692 0.6198432 1.2301152 0.7468625 2.397936 0.9837044 -0.72894245 1.408027
-1.8547646 -0.22068734 -2.4323328 -0.522078 -4.5761523 3.4513276 2.039743 0.23101562
-2.4226615 -2.4816422 -2.6853569 2.8059144 1.7023699 -1.604836 2.9672902 -3.1577194
1.439426 -0.15482183 0.5085984 -0.9350092 -2.1257064 2.1106129 -0.105603606 3.1253219
-3.1269555 1.2649436 0.10602714 0.649347 -1.220446 0.15018499 -1.6088458 -1.1682618

attn_combine.weight f4 [128, 256]
00000000: 7054 1e3d 7b8b aebd fec6 143e 37fd 8cbc
00000010: 8b74 243d 7d04 3ebe 381c e93c 1273 093d
00000020: f609 cebd e2b7 9a3d b551 593d ddae dc3d
00000030: f794 a4bd 9644 cb3d e86b d03c 9939 603e
00000040: dcca 383d 2d75 9b3c 0349 1e3c fe17 a9bc
00000050: 6b62 b13d 9ae9 e23d bb58 133d df36 63ba
00000060: 931f 19be 4fca dbbd f3f2 e6bd 3c6b 01bd
00000070: ca4f 99bd 55d4 b23c c02c 21be 0c44 48bc
00000080: 5956 c2bd e973 7fbd 4ce4 073e 2c84 633d
00000090: 1e6e 113d 0b5b 96bd f8d1 c43d dda2 5b3d
000000a0: c95d f33c 1b32 2c3d ebc3 edbd 9228 1b3e
000000b0: 2b3f 4f3a 7bca c43d 77ab 333d b25e 013b
000000c0: a267 82bd 94bf 6ebc 80bc e43c 5fa1 b63d
000000d0: 63bc d53b c737 0ebe aad1 a5bc 33f9 c73d
000000e0: e813 42bd 76d8 163e c269 9dbc 3828 15bd
000000f0: 343c d1b9 8d9f 0bbe 198c 25bd 608e 723c
00000100: 343c 633e 6a6b d9bc 9916 cdbd c3af 0cbe
00000110: bc68 173e 6766 723d 6a5b 573d 8744 563e
00000120: 2a30 54bd 1447 1ebe a7dc a53d 8e6a 413d
00000130: 45a3 363d b3b1 22be 33ce 4f3c 506b 14be
00000140: c033 82bc d045 3d3e 093e c8bc b3ed 2d3d
00000150: 21dd db3d 2bbb c0bc bafd 3f3e 3eeb 7ebd
00000160: 0a6f 5e3d 5011 b0bd a36e d5bd 53c9 963e
00000170: 7d12 d93d 875f 603a 3b7b 47be 6e6d fcbc
00000180: 7411 5abd 494b 213e 5a74 abbd 9b60 383e
00000190: adf8 063e e655 41be bfd1 d43d 3cdf 503d
000001a0: de7f 1c3e a203 17bd 3ba7 a53c 5c3c 0dbb
000001b0: 2ccf 4a3c f9ee a83d 5b8e 133e de55 b03d
000001c0: 2fc2 db3d 43ac 953d f654 21be f9ea 113e
000001d0: 29de 373d c114 d1bc 0a7e d6bb 708a 8e3d
000001e0: e963 893d 225c 173d fea7 2fbd 464e 563e
000001f0: 87e6 833e 3d67 193e 97d4 c93c c58a 80be
00000200: 24dd ff3c c9ea b53b f1de 193d d057 e7bc
00000210: 8674 80bd b642 e5bc 64d8 ae3d 91df bd3b
00000220: 54d6 903c 0f43 12bd 0dc7 a3bd 3607 cebc
00000230: f706 9abd b280 c8bc acb4 e2bd bc58 97ba
00000240: b315 373d 46a1 713d f2ac 123e 018a 863a
00000250: f202 4dbd 2383 e5bc 0535 5e3d 77db 783d
00000260: 61e6 02bd 2e96 50bb 518c 373c 23c1 a43d
00000270: 23e0 f23d adfd 9cbc 5328 53bd a634 eebc
00000280: 0091 97bd 7d05 68bb cb94 0fbc 980f 9e3d
00000290: 87e0 d9bc 5a24 f83c fa77 543d 6b3a 6c3c
000002a0: d1ea 30bc 7b96 85bb 3462 7c3d c738 a93d
000002b0: 30ed 06bc a5e6 e5bc 985b 91bd 6415 3dbd
000002c0: 8923 413d 3db0 8a3b c6e5 1b3c dc92 ec3c
000002d0: 2d77 c9bd f9fa babd 6622 773d af5f a0bd
000002e0: 3546 28bd 08fb f3bc edac 0b3d c1be 76bd
000002f0: 96b9 c53c 9344 9cbd af79 47bd 9d91 f4bd
00000300: 73af 4b3c 5650 0cbc d7c2 c2bc 7b4e 91bc
00000310: be4c 8dbd ae86 483c f5c5 e9bd 5698 ed3c
00000320: 3f87 0b3e 09ee 563c 7922 433d 32fa 7f3d
00000330: 84ec e63c de9a aebc fbb5 2fbd 5ecb a83d
00000340: 14c6 a9bc f780 72bc 7075 80bd 2327 553c
00000350: 89b2 7bbd 26eb 913d cff9 2ebc 7423 cc3d
00000360: 0367 a7bd dc33 743d 9ec1 223c 70e0 693d
00000370: 3af5 883c 475c a13c 5b70 28bd d240 bd3d
00000380: e541 d4bc 103f 143c 6598 0f3d 820a 853c
00000390: 6a09 e03c 1c57 203d 3887 8b3d e560 8cbc
000003a0: f33a febc b43e 36bd f252 4c3d af4b 5f3d
000003b0: a81e f3bc bc4c dabc f3b8 953d b1a6 293d
000003c0: 08db 9c3d 5b1d bf3b 3523 e5bc be47 38bc
000003d0: e5a9 de3c 92a2 553d 15d0 7a3d 5668 0fbb
000003e0: 0f66 c9bd 5cdf 97bc 9db5 063d c149 633d
000003f0: 4c4d 74bc efac db3d d041 983c c758 e93d
0.038654745 -0.085226975 0.14529034 -0.017210586 0.040150207 -0.185564 0.028455839 0.033557005
-0.10060494 0.07554604 0.053056438 0.1077554 -0.08036225 0.09925191 0.025442079 0.21896972
0.045115337 0.018976772 0.009660962 -0.020641323 0.0866135 0.11079712 0.03597329 -0.0008667539
-0.14953451 -0.10731947 -0.11276808 -0.031596407 -0.07485922 0.021829763 -0.15739727 -0.012223255
-0.09489126 -0.0623664 0.13270682 0.05554597 0.035505407 -0.07341584 0.09610361 0.053622115
0.029707806 0.04203997 -0.11609634 0.15152195 0.0007905836 0.096089326 0.043864693 0.001974028
-0.06367423 -0.014572043 0.027921915 0.08917498 0.0065227016 -0.13888465 -0.020241577 0.09764328
-0.047382265 0.14731011 -0.019215468 -0.03641531 -0.0003990844 -0.13635083 -0.04041681 0.014804453
0.22190934 -0.026540477 -0.10014076 -0.13738923 0.14786047 0.05917969 0.052577414 0.20924579
-0.051803745 -0.15456802 0.08098727 0.04722076 0.0445893 -0.158881 0.012683439 -0.14494061
-0.015893817 0.18483663 -0.024443643 0.042463016 0.10735536 -0.023526749 0.18749133 -0.062236063
0.054305114 -0.08597052 -0.10421493 0.29450473 0.105992295 0.00085591566 -0.19480602 -0.030813899
-0.0532393 0.15751375 -0.08371802 0.18005602 0.131808 -0.18880424 0.103915684 0.050994143
0.15283152 -0.0368687 0.020221343 -0.002155087 0.012378495 0.082487054 0.14409773 0.08610128
0.10730397 0.07308247 -0.15755066 0.14249791 0.044889603 -0.025522592 -0.0065457867 0.069599986
0.067085095 0.0369531 -0.04288482 0.20928296 0.25761816 0.14980789 0.024637504 -0.25105873
0.031233378 0.00555167 0.03756613 -0.028240114 -0.06272225 -0.027985912 0.08537367 0.0057944735
0.017680325 -0.035708483 -0.0799695 -0.025149923 -0.0752086 -0.02447543 -0.11069617 -0.0011546831
0.04469843 0.058991693 0.14323786 0.0010264517 -0.050051637 -0.028016632 0.054249782 0.060756173
-0.031957988 -0.0031827795 0.011202888 0.080446504 0.11859157 -0.01916393 -0.051552128 -0.02907784
-0.074007034 -0.0035403662 -0.008763502 0.07717818 -0.02659632 0.030290771 0.05187223 0.014418225
-0.010798172 -0.0040767766 0.06161709 0.082627825 -0.008235261 -0.028064081 -0.07097548 -0.046162978
0.04715303 0.004232435 0.0095152315 0.028878622 -0.09837184 -0.091299005 0.06033554 -0.0783075
-0.04108258 -0.029782787 0.03410046 -0.06024051 0.024136346 -0.07630267 -0.04870003 -0.11941836
0.012431967 -0.008564075 -0.023774548 -0.017737618 -0.06899403 0.012239141 -0.114147104 0.029003303
0.13625811 0.013118275 0.047640298 0.062494464 0.028188951 -0.02131408 -0.04289816 0.08241914
-0.020724334 -0.014801255 -0.062723994 0.013009819 -0.06144956 0.07124929 -0.010679676 0.099677
-0.08173945 0.05961977 0.009933857 0.057098806 0.016718496 0.019697322 -0.041122776 0.09240879
-0.025910327 0.009048238 0.035057444 0.016240362 0.027348239 0.039145574 0.068129 -0.017136047
-0.031033969 -0.044493392 0.04988379 0.054515537 -0.029677704 -0.026647918 0.07310667 0.041418735
0.076589644 0.005832357 -0.02797089 -0.011247573 0.027180621 0.052156992 0.0612336 -0.0021882257
-0.09833919 -0.018539123 0.032888044 0.05549026 -0.014911007 0.10726344 0.01858607 0.11393886

attn_combine.bias f4 [128]
00000000: 718f ab3d 6450 ccbd 009c d03d 1851 55bd
00000010: 5d2d 9e3d 7c79 3e3c 4055 b8bd 96a3 6e3d
00000020: 0eff 65bc 8b53 143d da1b 39bd c7de 8c3a
00000030: d288 a63c dd55 3b3d 2260 8a3c 5202 8abb
00000040: 96e9 773d 6aa3 a03b 46e2 c4bd 1d1f 35bd
00000050: 55ff 2ebd 4a49 31bc 31da 063c c852 5bbd
00000060: 2e32 973d 035c 883c 243f c9bb 286e 14bd
00000070: c9e0 e8bd fb86 113d e371 ffbc e3b4 eebc
00000080: 9cb4 3e3c d527 f1bd 2ec4 06bc 08fb 283d
00000090: 076c a73d 14c8 033d b359 34bd 88ab 07bd
000000a0: e0bb 14bd 3027 0a3c 2dd3 203d 1d43 e53c
000000b0: 79e9 223d afc1 39bc e60b 50bd 7b32 053d
000000c0: e003 763c dd07 81bd fc2d 213d b49f cabb
000000d0: 92a0 bfbc 6854 bcbd 9da8 adbd 3c22 90bd
000000e0: 5f13 d43c 5506 aa3c 9ce3 3cbd b415 9d3d
000000f0: bb7b 8f3c b629 5a3d e173 00bd 0f2c 6a3d
00000100: bc3d 7dbd 86d0 0d3c 8fea 5cbd 46e0 fc3c
00000110: 4761 bf3b c7fe adbc a9aa 383d d727 74bc
00000120: cc23 49bd d6c6 313a f5d2 cf3c 4bc6 1a3d
00000130: 85a9 823d d080 3ebd bf54 51bd b162 8bbc
00000140: bb2e 303d e605 4a3d 2221 5dbd ebd2 a63c
00000150: 4989 85bd f485 83bd 9128 733b f706 3e3d
00000160: 0f95 853c 1c85 093d ccee f23c e018 dabd
00000170: 0d52 5b3b 33e6 e1bc f908 a9bd ef14 663d
00000180: b81f 623d 8a5e 553c 4690 483c bdca 623b
00000190: ee7a 88bd eb0c 05bc 0707 bebc e2b5 a1bc
000001a0: 5876 2ebd a277 5abc 9f1d 83bc c23c 94bd
000001b0: dd2d 36bb 5782 4bbd e0f3 583b 99e7 2c3d
000001c0: 4177 443d 6a2f 9abd 7157 973d 5362 a13c
000001d0: ffe3 cd3c d913 0bbd 24d1 7a3d 56da 3bbd
000001e0: 9785 a93c 6012 27bd 5be1 85bc a0ba 0abc
000001f0: 7212 c43d 03d5 b0bd b853 863c 39b9 a7bb
0.08376969 -0.09976271 0.10186005 -0.05207929 0.07723496 0.011625644 -0.09000635 0.058261476
-0.014037861 0.036212485 -0.045192577 0.0010747545 0.020328913 0.045736182 0.016891543 -0.0042117024
0.0605255 0.004902293 -0.09613471 -0.044219125 -0.042723972 -0.010820696 0.008230732 -0.053545743
0.07382618 0.016645437 -0.00614156 -0.036237866 -0.11370999 0.035529118 -0.031182235 -0.029138988
0.01163974 -0.117751755 -0.008225484 0.041255027 0.081749015 0.03217323 -0.044030856 -0.03312257
-0.036311984 0.008432195 0.039263893 0.027986104 0.039773438 -0.011337682 -0.050792597 0.032518845
0.015015572 -0.06300328 0.039350495 -0.006183589 -0.023391996 -0.09195787 -0.08479426 -0.0703778
0.025888143 0.020754972 -0.046115503 0.07670155 0.017515054 0.053262435 -0.03136051 0.057170924
-0.061826453 0.008655673 -0.05393463 0.03086866 0.005840454 -0.021239651 0.04508463 -0.014902077
-0.049106404 0.0006781643 0.025369147 0.037786763 0.063799895 -0.046509564 -0.05110621 -0.017014833
0.043013316 0.04932203 -0.053986676 0.020364245 -0.06520326 -0.06422034 0.0037103037 0.04639336
0.016306428 0.03357421 0.029654883 -0.10649276 0.0033465654 -0.027575588 -0.082536645 0.056172308
0.05520603 0.013023028 0.012241429 0.0034605705 -0.06664072 -0.008120756 -0.02319671 -0.019740049
-0.04259333 -0.013334187 -0.016005335 -0.07238151 -0.0027798333 -0.04968485 0.0033104345 0.042213056
0.047965292 -0.07528575 0.07389725 0.019700205 0.025133131 -0.033954475 0.06123461 -0.04586252
0.020693583 -0.04078901 -0.01634281 -0.008467346 0.09573831 -0.08634379 0.016397342 -0.005118516

rnn.weight_ih_l0 f4 [384, 128]
00000000: 75a4 8abc 9c7b 7ebd 502f febd 6592 a03d
00000010: de90 853c 9f8b 343c a544 093e 6926 2b3d
00000020: 38fe 0f3e 374e ffbd f88b 493e 6c7a 3ebe
00000030: 089f 823b 1f19 02bd 7454 40bc bc7c 63bd
00000040: a1ce 09be a597 2dbd c6df 9fbc fd26 b13d
00000050: 3ae2 863d e4b2 323e 585b 7e3c e3f4 27be
00000060: 3334 dabd 0f59 0bbe 14b7 39bd ca66 1a3d
00000070: 93e3 c13d 9d3a 1d3d b940 04bd 24d7 a73d
00000080: 1a3f 253d 010f 81bc a64d fd3d 7266 8dbc
00000090: c6fc b4bd 470a 133e bc11 a23c b959 d13d
000000a0: a494 093e b91d 813d c989 cebd 7dfd 2ebd
000000b0: a65d 8bbb f2b4 9abe 62f3 cf3d 1247 cd3d
000000c0: f4d1 0e3e ef67 163e c544 b9bd 240f f53c
000000d0: 0ac2 383c db81 9abc 62c9 3dbd b00d 283e
000000e0: bc98 0abe c60b 19be 49f5 14bc 4b04 01bd
000000f0: 193f 32bd 6e6c 253e 885d aabc 8d69 053c
00000100: 287d 983d bca7 17bd d178 3f3d eecd b2bd
00000110: 03a1 29be 2fa4 de3a 7bb1 b03a 6da1 5bbd
00000120: 3087 ffbc e33d aebc 5114 173e 98e8 923d
00000130: b490 f33c 950c 9b3c 1dba 74bd c200 ea3d
00000140: 2514 e43d 3326 8b3b 17a3 283e b3bb 87bd
00000150: 2554 05bd 66f2 5abd 61b1 243e 1544 c9bc
00000160: b2bb b53d ee1b 5abd fb13 203e 57ce 83bc
00000170: 9e61 98bd 4999 84bd 3516 4f3e 3a53 5abc
00000180: 38f1 ac3d 04e2 e63d 2a10 063d e42e 27bd
00000190: 1521 bbbc c55e a93c 06c0 5bbd 12fb ec3d
000001a0: 5a22 a23d d893 a0bd d190 a9bc 1c2f edbd
000001b0: afc2 653e 6d17 013e fe55 ba3c 7ce1 8b3d
000001c0: b884 2dbe ce8a df3c 69bb f8bc a4cd 02be
000001d0: b352 14bd 6637 0b3b b14e 53bc 6894 e6bd
000001e0: 4430 cdbd bcfd 29bd 74b4 a3bb 298d 61be
000001f0: a598 08bd fca3 67bd dc6c c43d 28ab 393d
00000200: 3c71 b9bd b260 1bbe a461 cdbc 3da9 753d
00000210: 2fa5 2abb c710 34bc ae6a 1ebe 5c33 46bd
00000220: 4da2 dfbc dbc9 783c 383f 13be 879f c53d
00000230: c7d3 343d 89b9 e43c 8b50 c33d 4759 523d
00000240: 8525 22be bedb ce3d a19f 9fbc 1fa1 3b3d
00000250: ba7c fbbc 090f 4c3d 856a bdbd 4999 a8bc
00000260: cf9b 983d 951b 3fbc c4b2 01be 2dee 183d
00000270: 5059 0fbd 0844 a73b 6dc3 3cbd ed8e 3e3c
00000280: e1c4 863c 4d77 3cbd 2cd1 dc3d 3550 abbd
00000290: 1df5 21bd db31 05bd 5b5d b3bd 22d2 a83d
000002a0: 5b43 53be ce3d 9a3d dc4f 29bd b091 673b
000002b0: 1aba 08bd 6b90 e63d 93b7 69bc 48f3 9a3d
000002c0: 7b87 82bd ddc8 b8bd 4f32 983c 6497 fdbc
000002d0: f6ee 883c 7d1e bbbc 7298 3fbd 77ee ccbd
000002e0: d16a f2bd f30e 893d 4846 0d3e b0fd 73bd
000002f0: 6936 823d 683d 0a3e c452 223e c4e0 50bd
00000300: 0998 57bd 5aef d9bc 1ade a4bc a976 4e3c
00000310: 758b 1d3e 56ed 7b3c bf7b 5d3d 5088 fb3b
00000320: d163 8c3c 66c4 2a3d bc70 083d 1745 d73c
00000330: 9cda e53d 4416 1e3d d9bd f3bd c9ea 05b9
00000340: 5901 063b a8ff b6bd 8b40 683d 0743 eb3c
00000350: 37db 403d 3d7c 06be 0242 7e3c 378f 503d
00000360: 0290 923d b7a3 a93d 05a8 3bbe fa33 a63d
00000370: 5e9f 723c 21ed c4bd b052 88bd e201 ddbb
00000380: 7c39 053e 93a3 81bd bf26 d63c 2a5a 97bd
00000390: f630 2e3d efee 28be 666c fdbd ea5e e6bc
000003a0: 7a7b 95bd 6eb8 923d abad e3bd ab2b 043c
000003b0: 659f 193d f028 3abd a622 053e 6a99 823d
000003c0: 3aaf 89bd 2a18 c73c 229f d3bc 009a 19bc
000003d0: 104b f33d fb74 8fbc b703 143c 68b3 6a3d
000003e0: 1732 013e 2721 e3bc 3b99 d43d 062c c5bc
000003f0: a251 34bc b662 db3c 85a7 b03c df68 d53d
-0.016924122 -0.0621296 -0.12411368 0.078404225 0.01630443 0.011019616 0.13405092 0.041784678
0.1406182 -0.1246609 0.196823 -0.18601388 0.003986243 -0.03176224 -0.011738885 -0.055538878
-0.13457729 -0.042380948 -0.019515883 0.086500145 0.06586118 0.17451054 0.015524708 -0.1640201
-0.106544875 -0.13608192 -0.045340613 0.037695684 0.094672345 0.038385976 -0.032288287 0.08195332
0.04034338 -0.015754225 0.12368326 -0.017260764 -0.08837275 0.14359389 0.019783847 0.10222191
0.13435608 0.06304497 -0.10084874 -0.042722214 -0.004253107 -0.30216175 0.101538435 0.10023321
0.13947278 0.14688085 -0.0904632 0.029914446 0.011276731 -0.018860748 -0.04633463 0.16411471
-0.13534826 -0.14945897 -0.009091684 -0.031498235 -0.043517206 0.16154644 -0.020796552 0.008142841
0.07445747 -0.0370252 0.04674608 -0.08730684 -0.16565327 0.0016986186 0.0013480628 -0.053620744
-0.031192392 -0.021269744 0.14753844 0.0717327 0.029732086 0.018926898 -0.059747804 0.11425926
0.11136655 0.004246497 0.16468464 -0.06627598 -0.03255095 -0.053453825 0.1608329 -0.024568597
0.08873691 -0.053249292 0.15632622 -0.016089601 -0.07440494 -0.06474549 0.20223315 -0.013325507
0.08444446 0.11273578 0.03273026 -0.040816203 -0.022842923 0.020675072 -0.053649925 0.11571325
0.07916708 -0.07840699 -0.020698937 -0.11581251 0.22437547 0.12606592 0.022746082 0.06830117
-0.1694516 0.027287867 -0.030362802 -0.12773758 -0.03621168 0.0021242737 -0.012897179 -0.11258775
-0.100189716 -0.041501746 -0.004995877 -0.22026505 -0.0333487 -0.056552872 0.09591076 0.045329243
-0.09054801 -0.15173605 -0.025070973 0.05997585 -0.0026038399 -0.010990328 -0.15470383 -0.048388824
-0.02729907 0.015184845 -0.14379585 0.09649568 0.04414728 0.027920501 0.09536847 0.051354673
-0.15834625 0.10100506 -0.019485297 0.045807954 -0.030699123 0.049819026 -0.092488326 -0.020580905
0.07451593 -0.011664291 -0.1266585 0.037336517 -0.034997284 0.0051045455 -0.04608481 0.011630756
0.016451301 -0.04601221 0.10782084 -0.08364908 -0.0395404 -0.03251825 -0.087580405 0.08243205
-0.20631163 0.075313196 -0.041335925 0.003533464 -0.033380605 0.11258014 -0.014264959 0.075659335
-0.06373497 -0.09022687 0.018578677 -0.030955978 0.016715508 -0.022841686 -0.046776243 -0.10006421
-0.1183678 0.066923045 0.13796341 -0.059568107 0.06358034 0.13499987 0.15851885 -0.050995603
-0.052635226 -0.02660339 -0.020125438 0.012601533 0.1538523 0.0153764095 0.05407309 0.007676162
0.01713744 0.041691206 0.033310637 0.026278062 0.11223337 0.038595453 -0.11901445 -0.00012771333
0.002044758 -0.08935481 0.056702178 0.028718485 0.04708406 -0.1313333 0.015518667 0.05091783
0.071563736 0.08283179 -0.18325813 0.081153825 0.014808504 -0.09615541 -0.066563964 -0.006744609
0.1301021 -0.063300274 0.026141522 -0.07390244 0.04252716 -0.16497396 -0.12374191 -0.02812143
-0.07298942 0.071640834 -0.11117109 0.008067052 0.037505526 -0.045449197 0.13001499 0.06376918
-0.06722875 0.024303515 -0.025832716 -0.009375095 0.118795514 -0.017511835 0.009034089 0.0573
0.12616764 -0.02772577 0.10380789 -0.024068844 -0.011005791 0.026780467 0.021564255 0.10420393

rnn.weight_hh_l0 f4 [384, 128]
00000000: 8935 09be 7aea ea3c 56ee 843d 4cf9 413d
00000010: 107c f7bd b27f ddbd 6e48 33be 4398 23be
00000020: 69e1 c93b 4bef 7c3d aff3 f13b 672c 153d
00000030: ef26 863d 8133 97bd d0d0 e0bc 5bd2 3cbd
00000040: 8df9 b43b 339d 0ebe 0d07 c93c 34d9 63bb
00000050: df81 1a3d ddb0 31be d043 86bb f47f e9bc
00000060: d168 a7bc 4dc8 993d 2996 473c d567 13bd
00000070: 3cf3 c5bd e6ed 843d 56c4 913c e329 ae3d
00000080: ff17 6e3d 7899 633b 703c 15be d2c6 323c
00000090: c8cb 8ebb 6429 1a3c 5086 3bbe e7ac 1cbb
000000a0: c022 043d 2542 4c3d 70cb 593d 1b5d cd3c
000000b0: 2213 b6bc 6bdd cabc 8982 2dbd 48ea 373c
000000c0: a375 943d 24d9 5e3d 1814 69bc ddf7 01bd
000000d0: bf3f 9cbc 8028 8c3d 4836 15be a7a4 8d3c
000000e0: 81e4 d7bc 10a0 0ebd 9097 533b 0da1 f3bd
000000f0: a4c8 d4bd e022 9f3c 3000 0ebe 04e0 3abd
00000100: 6e86 db3d 534a b73c cb3a c4bc 30b7 98bd
00000110: 9c86 0bbd f63a 8b3d dadf 553d c5f1 0fbd
00000120: 1174 e0bc 5cea 8dbc 689e e0bd c519 3bbd
00000130: 7892 31bd c55e ee3d ad75 b13d 4b60 6cbc
00000140: 556e a83c 7b80 0fbd a7d3 b13d 8d69 8dbd
00000150: 017e 223c a31b 87ba bb2b 09bd 4a9c c8bd
00000160: 6da9 033d ee7d 54bc 085b 853c 058e 033d
00000170: 2b8b 5cbd 0f97 03bd 09be 5d3d 1cfc e93c
00000180: 2eb0 103c ef7a 60bc 6ada dfbc 6527 fcbd
00000190: 484c 26be 6898 9fbd 64be 0ebd d2ed 5dbd
000001a0: 1b15 8a3d 86f4 43bd b174 56bd 8438 5b3d
000001b0: ea37 4bbd fd48 9c3d d9a7 aebd 5826 a83d
000001c0: db2e bdbd 8977 0bbd 4206 8fbc 58ff 9c3c
000001d0: 8b85 933c 5f75 49bb af93 aebd 1508 a73b
000001e0: 6db1 2a3d 081a 863d b507 6f3c c9a9 063e
000001f0: 3a95 97bd 7e30 09be 5739 5cbd 4efb b53d
00000200: 7e9c 863d 0dc3 e4bd 6d05 023e 1e80 aabc
00000210: 0cb2 d7bd 4dd9 1c3c 6316 6abd 42fd ff3d
00000220: d9e9 d13c 5768 d0bd ada2 083d a40b ae3c
00000230: 762d e83d e79b 0dbd 8b7c 78bc 85a5 48bd
00000240: c1d4 bcbd a169 c73d 6949 4abd 193e 073e
00000250: e44e d4bd f227 713d fa66 2a3e 8881 093d
00000260: c733 aabc da94 93bd 7c24 2abd 6f5c 373e
00000270: 065b bb3d 3927 843d c3e0 3ebd bb77 31bd
00000280: f109 853d fc70 03bd 8bda b2bd b780 bc3b
00000290: 91bb c13a 52fc 133d 463e 443e 9950 613d
000002a0: 7d6e 6a3c 6009 9a3c 565d 8b3d bd10 683d
000002b0: e48d 593d ea5d 94bd 870d 193d 2e64 9e3c
000002c0: 6743 213d ae31 ed3d 905c 05bc 534a 1f3d
000002d0: 9ed1 a7bd 64e4 18bc 7407 d2bd 5209 b5bd
000002e0: a64f 483c a3d3 2b3c 7bdb 993d 2fb4 65ba
000002f0: 663a 0bbc b499 283b 80e2 b2bd cbd6 ac3c
00000300: 425d 2abe 8d32 9e3c bffe dcbc 9662 6a3c
00000310: 5448 6d3d d71d cebd cbe0 053d 58c9 30be
00000320: 9e20 393e 080e 903c 21d7 d43a 3beb 73bd
00000330: 304f d5bc 266b 8dbc 5a63 533d 35d4 4d3c
00000340: 9e3f 173e cd23 e1bd 3d63 67bd 4443 cfbd
00000350: 919d f8bd af8a 14bc d6f5 68be fb8f 86bd
00000360: ca5e 053e 9151 633d 7c0e d43d 6c58 5a3c
00000370: 2f9f c73c a5a7 843c f38f e23c 18c1 ccbd
00000380: ae8f 103d 7d71 02bd 6ee3 10bc 37c0 173e
00000390: e636 c5bd a394 babd a946 f5bd 2890 b6bc
000003a0: 4a38 3c3e c8ac df3d 4e84 6d3c c353 ebbb
000003b0: 84d0 e8bc 3972 12bc ee96 0f3d 5985 eabc
000003c0: 8887 9a3c c948 f0bc 7a6b 4d3e 0680 49bd
000003d0: fb04 a13c 3d65 803c ddfd 8dbd faf0 9f3d
000003e0: 1f36 c83c 1d92 e6bd 0024 18bc ba69 033e
000003f0: 65d8 c73d d056 d3bd f7b7 3f3d 49d4 adbd
-0.13399328 0.02867626 0.064907715 0.04735689 -0.1208421 -0.108153716 -0.17508098 -0.15976052
0.006160904 0.061751645 0.0073837857 0.0364193 0.06550395 -0.073828705 -0.02744332 -0.046099048
0.005522913 -0.13927154 0.024539495 -0.0034766914 0.03772151 -0.17352624 -0.0040974393 -0.028503396
-0.020435723 0.075089075 0.012181797 -0.035987694 -0.09665534 0.06490688 0.017793816 0.08504083
0.058128353 0.0034728926 -0.14573836 0.01091166 -0.0043577887 0.009409282 -0.18312955 -0.0023906769
0.032259703 0.049867768 0.05317253 0.02506881 -0.02222592 -0.024763783 -0.042360816 0.011225291
0.07249 0.0544063 -0.014225982 -0.03173052 -0.019073365 0.06843662 -0.14571488 0.017290426
-0.026354076 -0.034820616 0.0032286383 -0.118959524 -0.10389832 0.01942581 -0.13867259 -0.045623794
0.10719 0.022374308 -0.023953816 -0.07456815 -0.03406392 0.06798355 0.052215435 -0.03514268
-0.027399095 -0.017323665 -0.109677136 -0.045678873 -0.043352574 0.116391696 0.08665023 -0.014427255
0.020560423 -0.035034638 0.086829476 -0.06904898 0.009917737 -0.0010307919 -0.03348897 -0.09795435
0.032144 -0.012969477 0.016278759 0.032117862 -0.05384366 -0.032126483 0.05413631 0.028562598
0.008831067 -0.013701185 -0.027325828 -0.123122014 -0.16240036 -0.07792741 -0.03484954 -0.05418188
0.06742307 -0.047840618 -0.05235738 0.053520694 -0.04961387 0.07631109 -0.08528108 0.082104385
-0.092374526 -0.034049544 -0.017459039 0.019164726 0.018008014 -0.0030740125 -0.08524262 0.005097399
0.041673113 0.06547934 0.01458924 0.13150705 -0.074015096 -0.13397405 -0.05376562 0.08885823
0.06572817 -0.111700155 0.12697382 -0.020813044 -0.105320066 0.009573293 -0.057150256 0.12499477
0.025624203 -0.10176151 0.033358265 0.021245785 0.11336796 -0.03457251 -0.015166412 -0.048985977
-0.09220267 0.09736944 -0.049386416 0.13207282 -0.1036661 0.058875985 0.16640845 0.033570796
-0.020776642 -0.072061256 -0.0415387 0.17906354 0.09148221 0.06452794 -0.04660107 -0.043327074
0.06496037 -0.032090172 -0.0873309 0.0057526487 0.0014780631 0.036129303 0.1916438 0.055008505
0.014308569 0.018803298 0.06804912 0.056656588 0.053113833 -0.07244475 0.037366416 0.019334879
0.03937092 0.11581741 -0.008139744 0.03888924 -0.08194278 -0.009331796 -0.10255328 -0.08839668
0.012226021 0.01048747 0.07512566 -0.0008762506 -0.00849781 0.002572638 -0.08734608 0.021098515
-0.16637138 0.019311214 -0.026976941 0.014305731 0.057930306 -0.10064285 0.032685082 -0.17264307
0.18078849 0.017584816 0.001623843 -0.059550505 -0.026038736 -0.017263006 0.05160842 0.012562801
0.14770362 -0.109931566 -0.056491125 -0.10120252 -0.121394284 -0.009066268 -0.22750029 -0.06570431
0.1302444 0.05549771 0.10354325 0.0133267455 0.024367897 0.01619322 0.027656531 -0.09997767
0.035293274 -0.031846512 -0.008843286 0.14819418 -0.09629612 -0.091103815 -0.11976368 -0.022285536
0.18380848 0.10921627 0.014496876 -0.007181616 -0.02841974 -0.008938366 0.035056047 -0.028628038
0.018863454 -0.029331582 0.2006053 -0.04919436 0.019655695 0.015673274 -0.06933186 0.078096345
0.02443987 -0.11258338 -0.009285927 0.128333 0.09758071 -0.103192925 0.046806302 -0.08487756

rnn.bias_ih_l0 f4 [384]
00000000: a011 7a3d 6baf 253d 45f0 40bd 85b3 35bd
00000010: 78b8 89bd 8832 683c 6efb db3d 994b aebc
00000020: fb95 c73d 432d 0fbe 7349 eb3b 1d17 343e
00000030: d2f8 003d dea7 c9bd c273 abbc 5859 d93d
00000040: f10f 46bd 8bf8 a43d 796d aabc 5fee 813d
00000050: 6b21 ebbc 9861 313e 92a6 a2bd 75d5 d9bd
00000060: 0a1d 93bc 4b25 573d b722 15bd 7367 07bd
00000070: 6aa6 b3bc b428 09bd 0248 113e 4497 a43d
00000080: 92a8 9b3c 8d01 a23d 72c7 80bc 2227 97bd
00000090: c233 4abd 35a9 debd fe08 3fbe 5d42 3e3e
000000a0: c521 1cbe 1f00 bdbd de70 13bc 4212 243d
000000b0: 8f1b 103c 3adc 43bd 4f5e afbd 2383 1fbc
000000c0: 08db 1dbd 268a e6bd 6bcf 013e 4a87 79bd
000000d0: d65f 00bd 75b5 18bc 8865 2fbd 2501 02bd
000000e0: 8f6a 8fbd c236 4a3d e4c5 ed3d 2f65 6ebc
000000f0: b818 b0bd 91e3 2ebd cb9a 05ba 7bdc ee3d
00000100: 35b8 a83d afad 893c 9edc 263e abc6 babd
00000110: cd23 1dbe ffcb 09bd cf1e 483d 9748 9abd
00000120: d3d6 ba3d d57c b2bd 4849 97bd 0301 093e
00000130: 7d5c 64be b2f4 07be aa1e 86bd ea98 66bd
00000140: f95a 993d 97ad 32bd a21b 84bd d716 2fbd
00000150: 48c3 0d3c 15ea e1bd b6c7 03bd 0856 febd
00000160: 8c93 363e f8c6 6e3d ceee da3d e989 4d3d
00000170: 6eba d8bd b7ff 71bd cb8a 85bd eae5 bfbc
00000180: 57e4 1639 6ecc f1bd d691 83bd a0eb 93bd
00000190: 1b7f ebbc e458 c33d 29d5 f7bc f66b 173d
000001a0: 1865 913d 0890 cc3c c639 e63d 3846 843d
000001b0: 3666 6abd 06b0 05bd eb5d f33d 34bc 133e
000001c0: 3d9b 51be 2895 9abd f3f4 d7bd 27ae a93d
000001d0: 9a69 2bbc d73a 83bd 6c4a 9e3b f41a 253c
000001e0: b957 dabd 6ffe 373d 4b60 8fbd 9e80 e7bc
000001f0: ae09 26bd d039 813d 805c 283d 7573 6cbd
00000200: 3294 1abe 0bfd 90bd af49 0fbe 75d7 803d
00000210: bf5b a9bd cb37 d5bd a2ea 93be fd31 6abe
00000220: 702f 8fbc 1e16 91bd d493 02be 3b38 b8bc
00000230: 9c95 0ebe 62d1 8cbc 1faa b7bd 5368 0bbe
00000240: ac02 bbbc 6a64 3fbe 9d07 10be bda5 efbd
00000250: 6f29 8fbd 944f 443d da8d bdbd 46d0 7fbe
00000260: 076e 84bd 3e79 2ebd 8214 9cbe 7640 58be
00000270: 560a 37be 3b4f afbe 9eb0 8dbd e74d 2cbc
00000280: 7393 f3bd cbe7 0ebe 18aa 28be 3686 a6bd
00000290: 43ce 13bd 2edd 13be 9b1b 9abd 4d17 a73b
000002a0: 58d0 dcbc 196b 5dbe 3c34 27be 2d6d 67bd
000002b0: 880c bfbd 5ca9 6fbd 0dc1 7ebd fb67 80bc
000002c0: 004c adbd 584d 8dbd 8e5e 163d e357 513c
000002d0: e595 36bd a0f8 53bd 8ec2 9cbd 5b94 2fbd
000002e0: 1247 0bbe c25b 4cbe 7509 46bd bd46 e93c
000002f0: f092 26be 57a3 efbc b690 42be 6c84 f5bd
00000300: e8f3 ac3b 7ed1 a6bd 9536 86bd 39a8 20ba
00000310: aeaf 42be b5f5 38be ec65 84bc a580 0bbe
00000320: c6b1 39be 665f 87bc bb3b d6bd 58b8 ec3a
00000330: 753b 6cb9 c48f 01be c434 4cbe 1267 813c
00000340: bd17 9abd 8b06 57be c9ce 69be c360 6bbe
00000350: ce66 2e3d 3e5e 44be eaf9 0ebd 189c 99bd
00000360: f262 fabc 9ca3 a4bd 8fd8 363d 1348 293d
00000370: b4b8 02be 330a f4bd 6457 0ebe e4dc e83d
00000380: 060d fa3c ad08 30bd 967f 46bd a565 bdbc
00000390: 4144 983c 4ae6 6ebd db62 ef3b 07b1 b8bd
000003a0: 7b97 8bbe abe9 4ebe 1a5e 95bd 8567 d9bc
000003b0: 3e06 dbbd fbaf 26be 097d f83d eaa3 b93b
000003c0: 8268 e1bd 2437 ba3b 1b21 60be 7078 6e3b
000003d0: a695 cabd 3dcd 0dbd 6c77 b2bc a7c4 01be
000003e0: eab5 cf3d 6990 82bd 6dd7 dcbd 6764 1dbe
000003f0: cceb f2bc fe87 c13d fe0a 23be 4e27 01be
0.061051965 0.040450495 -0.04710414 -0.044360656 -0.06724638 0.014172204 0.10741316 -0.021276282
0.097454034 -0.1398211 0.0071803867 0.17586942 0.031487294 -0.09846471 -0.020929221 0.10612744
-0.048355047 0.08055218 -0.020804154 0.06344294 -0.028702458 0.17322385 -0.07941927 -0.10636417
-0.017958183 0.0525258 -0.03641006 -0.03305764 -0.021929938 -0.033486083 0.14187625 0.08036664
0.019001279 0.07910452 -0.015720103 -0.07380511 -0.049365766 -0.108721174 -0.18655774 0.18580003
-0.15247257 -0.09228539 -0.008999078 0.040056475 0.008795633 -0.047817446 -0.0856291 -0.009735855
-0.038538963 -0.112568185 0.1267678 -0.060920037 -0.031341396 -0.0093206065 -0.042821437 -0.031739373
-0.07002746 0.049368627 0.1161001 -0.014550491 -0.08598465 -0.042697493 -0.00050966133 0.11663147
0.0823826 0.016806452 0.16295096 -0.09119924 -0.15345688 -0.03364181 0.048857506 -0.07533377
0.09123006 -0.08715216 -0.07387024 0.13379292 -0.22300906 -0.13276938 -0.065488175 -0.056298174
0.07488055 -0.04362258 -0.06450583 -0.04274639 0.008652516 -0.11030976 -0.03217288 -0.12418753
0.17829722 0.05829522 0.1069008 0.05018035 -0.10582434 -0.05908176 -0.06520613 -0.023425061
0.00014390178 -0.1180657 -0.064243004 -0.07222676 -0.028747132 0.09538439 -0.03025301 0.036968194
0.0709936 0.024971023 0.11241488 0.06458706 -0.057226382 -0.032638572 0.11883148 0.14427263
-0.20469375 -0.075479805 -0.10544767 0.0828517 -0.010462189 -0.06407707 0.004830649 0.010077227
-0.10661263 0.04492038 -0.07000788 -0.028259572 -0.040536575 0.06309855 0.04110384 -0.057727296
-0.15095595 -0.07079514 -0.13992952 0.06291095 -0.08269452 -0.10411032 -0.28889948 -0.22870632
-0.017478675 -0.07084297 -0.12751704 -0.02248775 -0.13924259 -0.017189685 -0.08967995 -0.13614015
-0.022828422 -0.18690649 -0.14065404 -0.11701534 -0.06990325 0.047927454 -0.09255572 -0.24981794
-0.064662986 -0.042596094 -0.30484396 -0.2111834 -0.17875037 -0.34240136 -0.06918453 -0.01051662
-0.11893358 -0.1395561 -0.16471136 -0.081310675 -0.03608538 -0.14439842 -0.075247966 0.005099213
-0.026954815 -0.21622886 -0.1632852 -0.056500603 -0.09328562 -0.058511123 -0.062195826 -0.015674582
-0.084617615 -0.06899518 0.036711268 0.0127773015 -0.044576544 -0.05175078 -0.07654296 -0.042866092
-0.1360133 -0.19956878 -0.048348863 0.028476113 -0.1626699 -0.029252691 -0.19000515 -0.11988148
0.0052780993 -0.08145426 -0.065533794 -0.0006128583 -0.19012329 -0.1806248 -0.016161881 -0.13623293
-0.18134221 -0.016524982 -0.104606114 0.001806031 -0.00022528863 -0.12652498 -0.19942003 0.015796218
-0.07524059 -0.2099859 -0.22832789 -0.2298613 0.04257851 -0.19176576 -0.034906305 -0.07500476
-0.030564759 -0.080390185 0.04464012 0.0413285 -0.12765771 -0.11916008 -0.13900524 0.113702565
0.030523788 -0.042977024 -0.04846152 -0.023119757 0.018587233 -0.05832509 0.0073054857 -0.0901814
-0.27264008 -0.20206325 -0.07293339 -0.02653862 -0.1069455 -0.16278069 0.121332236 0.005665292
-0.110062614 0.005682843 -0.21887629 0.0036387704 -0.098918244 -0.03461956 -0.02178546 -0.12672673
0.10142119 -0.063752 -0.10783277 -0.15370332 -0.029653452 0.094497666 -0.15922162 -0.1261265

rnn.bias_hh_l0 f4 [384]
00000000: d73c 903d 434c 003e 6f41 493c 0dd2 b7bc
00000010: 255a 953d b39f 10bd 24d5 9b3d f5da c2bd
00000020: 71b0 673d ed7a 97bd 25df a6bd 9cfd c73d
00000030: b422 2b3d 47c7 bbbc e78a ee3c 2118 51bd
00000040: dec5 7e3d acee 09bd 3dc1 ab3d ba4d 1a3d
00000050: 2cc9 393d 6f4d 1f3e 9a2a 0dbe debb d1bd
00000060: 8573 c93d 2c4d 183e 0b6e 6b3c af49 143d
00000070: 6237 30be cd30 bebd 91cf 3d3e d929 423d
00000080: de8e 243c c37b b03d df5f f83c ffb3 5dbd
00000090: 32c5 a2bd 7ac1 e9bd 94c4 38be a2c8 093e
000000a0: 3899 51bc a581 a8bd f8b0 ff3c e250 de3d
000000b0: b070 22bd 0836 203d c590 0fbd 5ede 9abd
000000c0: df90 98bd 2066 5ebd 44ab 803d ae8d eabc
000000d0: 5d49 f0bc 0ebc aabd c429 43b9 1dcb 0abd
000000e0: e0a5 43bd f6f4 7abd 7e68 093e 4ef6 e4bc
000000f0: a134 babd 7552 dcbd b099 3b3c b0d9 c73d
00000100: 1adf e83d 24bd 18bd 2916 bb3d 407d 1b3d
00000110: b3a2 f2bd 1806 5a3d a419 c23d 7b4d 37be
00000120: dbac 35bd cef2 ce3b 7bff b7bd 4a6c ad3d
00000130: d6a5 87bd 5c66 acbd 0063 123d 8265 f1bc
00000140: ee87 a03d 7b00 18bd c1e9 bf3d 594b 7dbd
00000150: 9a1d 883d 3552 5cbd 7cca 52bc cc49 11be
00000160: 6e1a 453e d6e8 7f3d ddb7 ad3d 89ee e4bd
00000170: 3af3 ffbb 7deb ccbd 8519 d73c 30a2 f4bc
00000180: 2cf6 28bb 8f62 89bd 452e b0bd 5282 ec3a
00000190: 923f 1c3d f563 583c 5102 bf3d 9992 b4bd
000001a0: eb54 84bb dd3a b4bd f483 033d a46a 43bd
000001b0: a6fb 963d b597 8ebd 74c3 133e 6e94 4f3e
000001c0: 64ad 2cbe c15f a2bd 4336 343c 50ca 87bd
000001d0: deda 0a3e ac12 31bd c3b0 4d3d 7635 9a3d
000001e0: 066f d3bd 5294 913b 2e9e 5f3d 397c 11be
000001f0: d196 cfbc 9f52 613d c4f7 f63d ab82 103c
00000200: c55b 18be 147a 14bd 6c6a 15be ed34 823c
00000210: ec52 4cbe 97b0 3ebe 83f7 14be c621 d2bd
00000220: 50b5 6fbd 8b10 37bd 349f 1fbe 799f 87bc
00000230: beea 12be 2f34 2dbb 7ee7 b6bd 22b2 20be
00000240: 075e 4f3d fe43 51be 6976 5ebe 4c71 bebd
00000250: 10d2 113b bd4d 7e3c 8570 88bd c944 85be
00000260: d592 9bbd ad22 4b3d 20fd 90be 7f8f 47be
00000270: e56e 00be 0466 b5be dbc9 02bd ec4e 4ebd
00000280: 6914 92bd f43f c7bd 3ad4 05be a84a e9bc
00000290: f13c 183d d91d e6bd ac96 c0bb 3025 883d
000002a0: ac98 e3bd 2666 56be e064 9abd 90a2 cebc
000002b0: baca 893d 5d48 9cbd 991d be3c 2d85 9fbd
000002c0: 0ee8 1dbe a09c edbd 5888 a43b c400 343d
000002d0: c99d 483d 3d40 a73d a175 15be e329 a6bd
000002e0: adea 1dbe 7d6d 4dbe 0236 88bd 2603 fbbc
000002f0: b8f3 45be 9cab ee3d 2da1 c8bd 7028 dabd
00000300: 092a 423d a558 45be e1f0 9e3d e798 69bd
00000310: a45e 10be aac2 b0bd c240 bcbd 007e f5bd
00000320: 319f ddbd 3d7e eebd e1af 4cbd 5f9e a93d
00000330: 9b2c ebbd 8e4b 7abd afb1 b0bd 115f 463d
00000340: 0a65 45be d09e 42be 4288 61be 05a8 87be
00000350: 9ea3 da3d b113 5cbd dbe0 b2bd 6cb2 14be
00000360: 9015 47bd 0ab1 94bd dd44 4f3d b340 653c
00000370: 48c6 95bc 6d35 3ebd d2f9 d1bd 2888 163e
00000380: a9ba 4fbc 04d4 82bb 404c bebb 6c85 89bd
00000390: 71b4 853c 0f20 c8bd 7259 783d 3214 dcbc
000003a0: 5f15 28be 9a04 31be c0b7 55be 3137 20be
000003b0: f538 82bd d109 0bbe c136 913d 8db6 96bd
000003c0: 8328 a9bd ee63 05be f5f7 4fbe 4c27 55bd
000003d0: 094c 92ba 0a46 10be e378 a13b 94a1 5ebd
000003e0: 36a5 86bd 3219 5bbe 5c91 dabd cbb2 10be
000003f0: 06eb eabd 82a6 85bb f2eb 0cbe 70bf 1abe
0.07042854 0.12529092 0.012283667 -0.022439027 0.07292584 -0.03530855 0.07609013 -0.09514419
0.056564752 -0.07396493 -0.0814803 0.09765169 0.041781142 -0.022922171 0.029118968 -0.0510484
0.06220042 -0.03367488 0.08386467 0.037671782 0.045357868 0.15556882 -0.13785782 -0.10240911
0.09836487 0.14873189 0.014369498 0.036203083 -0.17208627 -0.09286652 0.18536212 0.04740319
0.010043828 0.08617356 0.030319152 -0.054126736 -0.07947768 -0.11413856 -0.18043739 0.13455442
-0.012792878 -0.08227853 0.031212315 0.10855271 -0.03965825 0.03911403 -0.035050172 -0.075619444
-0.07449507 -0.054296613 0.06282666 -0.028632011 -0.029331857 -0.0833665 -0.00018612208 -0.03388511
-0.047765613 -0.06126877 0.13418767 -0.027949478 -0.090920694 -0.10757915 0.011450216 0.097583175
0.11370678 -0.037289754 0.09135086 0.037961245 -0.11847439 0.053228468 0.09477547 -0.1790065
-0.0443543 0.0063155657 -0.08984276 0.0846792 -0.066234276 -0.08417961 0.035738945 -0.029467348
0.078384265 -0.037109833 0.09370757 -0.061839435 0.06646271 -0.053789336 -0.012865659 -0.14188308
0.19248363 0.06247791 0.08482335 -0.111783095 -0.0078109773 -0.10005853 0.026257286 -0.029862493
-0.0025781495 -0.06708252 -0.08602575 0.001804421 0.038146563 0.013207425 0.09326614 -0.08817024
-0.0040384433 -0.0880029 0.032108262 -0.047709122 0.07372217 -0.069625296 0.14430028 0.20271465
-0.16863018 -0.0792842 0.010999265 -0.06630385 0.13560054 -0.043230698 0.0502174 0.07529728
-0.103239104 0.00444273 0.05459421 -0.14207543 -0.02534047 0.055010434 0.12058976 0.008820216
-0.14878757 -0.036249235 -0.14591378 0.015894378 -0.19953507 -0.18622051 -0.14547543 -0.10260348
-0.058522522 -0.04469351 -0.15588075 -0.016555535 -0.1434736 -0.002642881 -0.089308724 -0.15692952
0.05062678 -0.20436093 -0.21724857 -0.092989534 0.002225045 0.015521464 -0.066620864 -0.2602904
-0.07596365 0.049593616 -0.2831812 -0.19488333 -0.12542303 -0.35429394 -0.031930786 -0.050368235
-0.07132799 -0.09728995 -0.1306924 -0.028477982 0.037167493 -0.11236162 -0.0058773365 0.06647718
-0.11113104 -0.20937404 -0.07538772 -0.025224 0.0672812 -0.0763099 0.023207473 -0.07789073
-0.15420553 -0.116021395 0.0050211363 0.043946043 0.0489786 0.08166549 -0.14595653 -0.08113458
-0.15421553 -0.20061298 -0.06650926 -0.03064115 -0.19331253 0.11653826 -0.09796367 -0.10652244
0.04740337 -0.19272096 0.07760788 -0.057030585 -0.14098603 -0.08630879 -0.09192039 -0.11986923
-0.10821379 -0.11645172 -0.04997242 0.0828216 -0.11483117 -0.06110721 -0.086276405 0.048430506
-0.19276825 -0.19005895 -0.22024634 -0.26495376 0.10675739 -0.053729717 -0.08734294 -0.14521188
-0.048604548 -0.0726033 0.050602783 0.013992476 -0.018283024 -0.04643767 -0.102527276 0.14700377
-0.012678781 -0.0039925594 -0.0058074296 -0.06714901 0.016321393 -0.0977174 0.060632177 -0.026865099
-0.16414402 -0.17286912 -0.20870876 -0.15646054 -0.0635852 -0.13577963 0.070905216 -0.073590375
-0.0825968 -0.13026401 -0.20309432 -0.05203943 -0.0011161576 -0.14089218 0.004927741 -0.05435331
-0.0657448 -0.2139633 -0.10672256 -0.14130704 -0.114706084 -0.004078687 -0.13761881 -0.1511209

fc.weight f4 [50, 128]
00000000: 69ba d33d 6d81 703e 61f4 abbe 2732 31be
00000010: 2422 423e 0622 6d3e 316d 923e b571 e3bd
00000020: 1b98 9a3e 3986 373f a262 ac3d 2442 3fbd
00000030: 99ea 443e ffe6 5ebf b1da f6bd 302d 783e
00000040: 87b1 583e 2906 153f d802 23be 7e31 38bf
00000050: c295 c03e 8577 1dbf 9803 b5be cc36 da3d
00000060: c02b bd3e a71f 8a3d cc5b 723e 7d52 2e3c
00000070: 6527 afbc 4f01 693b 0080 ea3d 9b27 aabe
00000080: 9ee1 dbbd a309 b83e ff21 0b3f fbc4 1abf
00000090: 4446 2e3d fbd0 3abf 60a2 f9be 53d6 663e
000000a0: 5daa 363e 720c db3e c0a0 7abe 7d11 1fbf
000000b0: d997 193f 1930 7b3e b254 d23c 85a3 483c
000000c0: 161e a13e c4af 51bf e6f4 f93d ac77 95bd
000000d0: 1b5c 0fbe afc0 e9bd 57b3 7b3e cc68 eabf
000000e0: d737 9a3e 7579 a23e 70f2 aabd 28f5 a9be
000000f0: afa2 b9bd 9c0a 10bd 30fe edbe 6ff3 a9be
00000100: b87a 9f3d e1cc 1a3e 2912 c33e ea07 02bf
00000110: d0a0 293f 97d1 373e 4bc9 313f 1614 413f
00000120: 16b0 f3be be85 a7be b823 c2be 872c 713e
00000130: 7661 2c3f b1d2 86be 2033 d7bc 3f97 293b
00000140: 26ae dd3e 6012 8abd f6b1 b23b ed1b 13bf
00000150: ac8c 4c3e 3373 09be 8cb9 5a3e 0ff3 b43d
00000160: a29b 66bd f827 0cbe 6c96 0bbe 5d8c 0bbf
00000170: e177 8fbd 5450 dc3e ac11 273e f4c7 2dbe
00000180: f726 cdbd 7dd0 8dbf 7691 3e3e 3223 f93e
00000190: 039c 9fbe e9f4 b53e 2af2 b83e fcbe cabe
000001a0: 6520 e63d 60fa d23d 7451 a2be 3eb7 d33d
000001b0: 1295 43be 6482 023f 8b81 32bf 475e f73e
000001c0: a9ef c9be 1e4b 1a3f 44eb 923c 6434 943d
000001d0: c1bf 2d3f 4d09 4dbf 218e 69be fa9e a33e
000001e0: e4dc 55be 93f8 f9bd ef15 fdbe f3eb 1abf
000001f0: e798 32bf 31e8 dfbe 9929 ecbe 6496 e5be
00000200: 47f6 743e 5ff4 3abe d67a e13d 3d56 d03c
00000210: 7de6 613d 22ca 24be 4c14 1c3e a6ab e83d
00000220: 6d6d ee3d 9b49 8b3e 3928 1b3e ffdf 97be
00000230: 6b1c 9ebd 7182 d5bd 37ab 17be 8abc e43e
00000240: cd7f d7be 4c35 083a bb05 0d3e 2ba7 a5bd
00000250: b557 66be 9c0d c0be 4948 fd3e 7eca 873d
00000260: 5300 7b3d 3ab3 833d ff2d 493e 8c11 a7be
00000270: c713 9e3e c18e 343f 6059 613e 1c00 2ebc
00000280: fe33 813b c08f 69be 6db8 7b3e 554a d43e
00000290: 03b0 86bd 6969 a4bc 0178 263e 9424 27be
000002a0: a2e4 7b3e 9ddf d83d 32fd 1fbe 2a47 593d
000002b0: b01e 44be adfd 563e 9c77 773d 3274 5abe
000002c0: 2407 48bd 5e9e 613e d950 0bbe 575b f0bd
000002d0: 3942 2ebe c73b 863e 3ec8 433e 0be2 913e
000002e0: 3283 debe 05c0 dcbc b25f 853e 5a1c f4be
000002f0: bdd1 ab3d ffcf 13be 8b7f 47be ea26 883e
00000300: 3ff8 28be 9ee9 ee3e 4688 82be 3fb7 32be
00000310: d1be c4bd 3848 b5be 76af 0f3f fcc2 afbe
00000320: 1a09 09bf 8435 cc3d 2e66 13bf cfdb 72bd
00000330: 81cf 08be 523c 2f3e 7f35 7e3e df43 c3be
00000340: 8542 5dbe 42f8 fe3e 96dc 4dbd 60a4 813d
00000350: d6a2 123e 673e 073e 8d20 fabd 5b27 883e
00000360: adc6 663e 0f2e b13e 55f4 cf3d 8723 b03e
00000370: e7bb 303d 3d44 7f3e b0aa febc 98ed 07be
00000380: bb35 4cbf 6f4e 553c 0395 b13d 6aa7 0ebf
00000390: 1f56 273e 57a0 34be 0d8c fabe 7e44 203d
000003a0: 861b b73e 20a6 98be 2fad 7fbe 29dc af3e
000003b0: 2d4b c3bd e4e7 af3e 4eb8 b53d 6cc6 e43d
000003c0: 86e9 cf3e 599a 71be 2536 93bd 2d08 a7be
000003d0: 10a7 b33e 678a 0b3e 917f 163e 1c7a 193e
000003e0: 22be 043e 0cd6 00be 30d1 953e 000d dbbd
000003f0: 0a16 bc3e 09f4 ed3d d2b0 ce3d 368b 173e
0.10338289 0.23486872 -0.33584884 -0.17304288 0.18958336 0.2315751 0.2859893 -0.11105672
0.30194172 0.7168918 0.0841725 -0.046693936 0.19230117 -0.8707122 -0.12053431 0.24235988
0.21161471 0.58212525 -0.15919054 -0.7195052 0.37614256 -0.615105 -0.35354304 0.10654983
0.3694744 0.067443185 0.2366783 0.010639784 -0.02138109 0.0035553758 0.11450195 -0.33233342
-0.107363924 0.35944852 0.5434875 -0.6045682 0.04254748 -0.7297513 -0.48756695 0.22542696
0.17838426 0.42782933 -0.24475384 -0.6213606 0.59997326 0.24530067 0.025675151 0.012246017
0.31468266 -0.8190882 0.12204914 -0.07298216 -0.13999979 -0.114137046 0.24580131 -1.8313231
0.30120727 0.3173329 -0.083470225 -0.33194852 -0.090642326 -0.035166368 -0.46482992 -0.33193538
0.077870786 0.15117218 0.38099793 -0.50793326 0.66261005 0.17951046 0.69447774 0.75421274
-0.4759528 -0.32719225 -0.37917876 0.23552142 0.67336214 -0.2633262 -0.026269495 0.0025877503
0.43296927 -0.06741786 0.0054533435 -0.57464486 0.19975537 -0.13422851 0.21359843 0.08835422
-0.056300767 -0.13687122 -0.136316 -0.5451105 -0.07005287 0.43030035 0.16315335 -0.16970807
-0.100171976 -1.107925 0.18610176 0.48659664 -0.31173715 0.35538414 0.36122257 -0.39598835
0.112366475 0.103016615 -0.3170277 0.10337685 -0.19099835 0.5098021 -0.69728917 0.48314115
-0.3944066 0.6027087 0.017934449 0.07236555 0.6787072 -0.80092317 -0.22808124 0.31957227
-0.20885044 -0.12205615 -0.49430797 -0.6051628 -0.6976456 -0.43731835 -0.46125486 -0.448413
0.23922072 -0.18257283 0.11009757 0.025431747 0.05515145 -0.16092733 0.15242118 0.11360864
0.11641965 0.27204594 0.15152062 -0.29663083 -0.07720264 -0.1042527 -0.14811407 0.44675094
-0.42089692 0.000519593 0.13771717 -0.080885254 -0.22494395 -0.37510383 0.49469212 0.06630419
0.061279606 0.06430669 0.19646452 -0.32630575 0.30874464 0.70530325 0.2200675 -0.010620143
0.0039429655 -0.22808743 0.24582072 0.4146296 -0.0657654 -0.020069795 0.16256715 -0.16322547
0.24598935 0.10589526 -0.1562393 0.053046383 -0.19152331 0.20995207 0.060416803 -0.21333387
-0.048834935 0.22033069 -0.1360506 -0.11736172 -0.1701745 0.26217481 0.19119355 0.2849277
-0.4345947 -0.02694703 0.26049572 -0.4767788 0.08389614 -0.14434813 -0.19482248 0.2659219
-0.16500948 0.4666261 -0.25494593 -0.17452715 -0.09606708 -0.3540666 0.5612711 -0.3432845
-0.5352951 0.09971145 -0.5757779 -0.059291657 -0.13360406 0.17112854 0.24825095 -0.3813772
-0.21607406 0.4979878 -0.050259195 0.0633018 0.1431993 0.13207398 -0.1221324 0.26592526
0.22536726 0.34605452 0.101540245 0.34402105 0.043147948 0.24928375 -0.03108725 -0.13274229
-0.79769486 0.013019188 0.08671 -0.55724204 0.16341446 -0.1763929 -0.48934975 0.03912782
0.35763186 -0.29814243 -0.24968408 0.34347656 -0.09535823 0.34356606 0.08873044 0.111706585
0.40607852 -0.23594035 -0.071880616 -0.32623425 0.35088396 0.13627015 0.146971 0.14987987
0.12963155 -0.12581652 0.2926116 -0.10695839 0.36735564 0.11618812 0.100923195 0.14799199
