synthesizer/models/tacotron/utils/g2p/models/EN/decoder_e10.pth (torch, 571867 bytes, 8 tensors)

emb.weight f4 [41, 128]
0	0xbf1a64db	-0.60310143
1	0x3f0c1d77	0.5473246
2	0x3e8038dd	0.25043383
3	0xbe2ae6bd	-0.16689582
4	0xbf24262c	-0.64120746
5	0x3f9a4906	1.2053535
6	0xbeea8f4f	-0.4581246
7	0xbfd747ff	-1.6818846
8	0x3f210fff	0.62915033
9	0x3e1adf4b	0.15124242
10	0xbf6173b4	-0.88067174
11	0x3b8407f2	0.0040292675
12	0xbfb50c0d	-1.4144303
13	0xbf474a48	-0.7784772
14	0xbf74eaef	-0.9567098
15	0x3e083718	0.13302267
16	0x3f743561	0.9539395
17	0x3fa97e87	1.3241738
18	0xbefd1e92	-0.49437386
19	0xbcdb8613	-0.02679733
20	0x3f67e3a2	0.90581715
21	0x3e87ac2e	0.2649855
22	0x3d432d3d	0.047650564
23	0x3f399690	0.72495365
24	0xbf6a01cf	-0.9140901
25	0x3d9ef095	0.07760731
26	0x3f6e5cdb	0.93110436
27	0x3e27cc46	0.16386518
28	0xbf4fe6ce	-0.81211555
29	0xbf44f445	-0.76935226
30	0xbed69033	-0.4190689
31	0x3fbd370c	1.4782424
32	0x3f83108e	1.0239427
33	0xbf255fb2	-0.64599144
34	0xc0336ce1	-2.8035204
35	0xbcd223bb	-0.025651803
36	0x3f0f4e1c	0.5597856
37	0x3e6d8c20	0.23197985
38	0xbf49a5db	-0.787687
39	0xbf18a00c	-0.5961921
40	0xbe71170c	-0.23543948
41	0x3ea3e154	0.3200785
42	0x3f0ce89d	0.5504244
43	0xbdfdcb4d	-0.12392292
44	0xbf82e4cd	-1.0226074
45	0xbe8c8410	-0.27444506
46	0x3f539e7b	0.82663697
47	0xbe49a0a1	-0.19690181
48	0xbf2a4b93	-0.6652157
49	0xbf1122be	-0.5669364
50	0x3f957fe7	1.1679658
51	0x3f1703c7	0.5899014
52	0x3ee0c081	0.4389687
53	0xbf392ef0	-0.72337246
54	0xbf2606cf	-0.6485414
55	0x3e68efc3	0.22747712
56	0xbee493fd	-0.44644156
57	0xbf52668f	-0.8218774
58	0xbe26293f	-0.16226672
59	0x3fa833fd	1.3140866
60	0xbf49930a	-0.7873999
61	0xbebd9ba9	-0.37032822
62	0x3f835e95	1.0263239
63	0xbd109522	-0.035298474
64	0x3fce3745	1.6110617
65	0x3ec6b0a8	0.38806653
66	0x3f7f52b5	0.99735576
67	0xbf67c868	-0.9054017
68	0x3eaa8c8b	0.3331035
69	0xbf8d842b	-1.105596
70	0x3f39ceb3	0.7258102
71	0xbfa1254a	-1.2589505
72	0x3dc592db	0.09647151
73	0x3ec8f57a	0.39249784
74	0x3f49bf97	0.7880797
75	0xbe9a2ceb	-0.30112395
76	0xbf12b2bc	-0.57303977
77	0xbea8c43a	-0.3296221
78	0x3eb73648	0.357836
79	0xbfc8f22b	-1.5698904
80	0x3e23a8c8	0.15982354
81	0x4021a2cb	2.525561
82	0x3fa412eb	1.2818273
83	0xbf1d4031	-0.61426073
84	0xbff3fc3d	-1.9061352
85	0xbf04593f	-0.5169868
86	0xbe8888db	-0.26666912
87	0x3dc5c150	0.09656012
88	0x3e8e8db8	0.27842498
89	0xbd0cba92	-0.034357615
90	0xbe12c2a1	-0.14332058
91	0xbf1fdf24	-0.6244986
92	0xbfb68223	-1.4258465
93	0x3e4cbd05	0.1999398
94	0xbea289e4	-0.31745827
95	0x3e39f18f	0.18158554
96	0xbc69672b	-0.014245789
97	0x3f637bc5	0.8886073
98	0x3f1cdd3b	0.6127507
99	0x3e341755	0.17587025
100	0x3e555288	0.20832264
101	0x3f748c1d	0.95526296
102	0x3ed5a49e	0.41727155
103	0x3f35fd66	0.7108978
104	0x3dab461a	0.0836298
105	0x3fcf28c0	1.6184311
106	0x3d7d9e50	0.061918557
107	0x3f896fb4	1.0737214
108	0xbfa007b6	-1.2502353
109	0xbf21317a	-0.6296612
110	0xbe925b8d	-0.28585473
111	0x3fbfb380	1.4976654
112	0xbe89274e	-0.267878
113	0x3f47c5e0	0.7803631
114	0x4018fd3d	2.3904564
115	0x3ea840c0	0.328619
116	0x3e86f881	0.26361468
117	0x3e7a4762	0.24441293
118	0x3fb34cf3	1.4007858
119	0xbf0d8019	-0.55273587
120	0x3f0154b2	0.5051986
121	0xc031a087	-2.7754228
122	0xbf2775af	-0.65413946
123	0x3f8ca8dc	1.0989032
124	0xbf3d6f25	-0.7399772
125	0xbff9eba5	-1.9525038
126	0xbf770214	-0.96487546
127	0xbe8a0527	-0.26957056
128	0x3f1f866b	0.6231448
129	0xbf2122df	-0.62943834
130	0xbe5cb763	-0.21554331
131	0xbfa5ea01	-1.2962037
132	0xc0020d6b	-2.032069
133	0x3fc6c2f2	1.5528243
134	0x3f66bb0e	0.9012917
135	0x3e2159b3	0.15756874
136	0xbea47c04	-0.32125866
137	0x3f18112c	0.594012
138	0x3ecc5884	0.39911282
139	0xbde0ac03	-0.10970309
140	0xbfab45b1	-1.3380643
141	0xbe88deab	-0.26732382
142	0xbdc650f0	-0.09683406
143	0xbf020aa0	-0.5079746
144	0x3f4a734e	0.7908219
145	0xbfbde9e1	-1.4836999
146	0x3fbfed98	1.4994383
147	0x3f164415	0.58697635
148	0xbd0d8b89	-0.0345569
149	0xbf49e654	-0.7886708
150	0xc00b8c29	-2.1804297
151	0xbe078ac3	-0.13236527
152	0x3f68a876	0.9088205
153	0x3ef91868	0.48651433
154	0xbf45db53	-0.7728779
155	0xbf185df2	-0.5951835
156	0xbebf45c3	-0.3735791
157	0x3fe8741d	1.8160435
158	0xbf9a32f3	-1.2046798
159	0x3ef98a61	0.48738387
160	0xbf6f7fcb	-0.9355437
161	0xbfe2273e	-1.7668226
162	0x3d031bdd	0.032008994
163	0x3fb3ac8b	1.4037031
164	0x3f8620b6	1.0478733
165	0xbe748e37	-0.23882376
166	0x3f723397	0.9460997
167	0xbe817c69	-0.2529023
168	0x3ecce8b5	0.4002129
169	0x3f2beccc	0.671582
170	0xbeca8d15	-0.39560762
171	0xbfc93e8f	-1.5722216
172	0xbfe6aabd	-1.8020855
173	0x3f8e49c3	1.111626
174	0xbf7af47c	-0.98029304
175	0xbf2d6e00	-0.6774597
176	0x3fe68433	1.8009094
177	0xbfc59c73	-1.543837
178	0xc018a4c2	-2.385056
179	0x3f48d2ec	0.7844684
180	0x3e4819bf	0.19541071
181	0x3fcf049f	1.6173285
182	0x3d92a4b8	0.07160324
183	0xbf29d2dc	-0.6633737
184	0xbf324dc3	-0.69649905
185	0x3f3353e8	0.70049906
186	0xbe50523a	-0.20343867
187	0x3ee372ad	0.44423428
188	0x3ec625d8	0.38700747
189	0xbeab4390	-0.33449984
190	0xbf116de9	-0.56808335
191	0x3e0d45b8	0.13796127
192	0x3fac3252	1.3452857
193	0xbf5eab69	-0.869803
194	0xbef9a5ac	-0.4875921
195	0xbe05a9d6	-0.13053069
196	0xbfaa9352	-1.3326209
197	0x3f23da73	0.640052
198	0x3ed59cec	0.41721284
199	0xbf1d0bd0	-0.6134615
200	0xbd464b49	-0.04841164
201	0xbf8a95a3	-1.0826916
202	0xbf8b3786	-1.087632
203	0x3f81605d	1.0107533
204	0x3f6c3d15	0.92280704
205	0x3dd6e383	0.10492613
206	0xbf0159fe	-0.5052794
207	0xbe984442	-0.29739577
208	0xbe2540bc	-0.16137975
209	0x3f78b689	0.97153527
210	0x3fc0b888	1.5056314
211	0x3f965b2e	1.1746576
212	0xbf3928cf	-0.72327894
213	0xbf8d8da9	-1.1058856
214	0xbee70a63	-0.45125112
215	0x3f89807c	1.0742335
216	0x3e24ce1d	0.16094251
217	0x3e138573	0.14406376
218	0xbfbee45a	-1.4913437
219	0x3dfe1f95	0.124083675
220	0x3fb72140	1.4307022
221	0xbee5807b	-0.44824585
222	0xbf92bbcc	-1.1463561
223	0x3f66b32f	0.9011716
224	0x3f655d4a	0.8959547
225	0xbf34ded0	-0.70652485
226	0xbf0d0638	-0.55087614
227	0x401d677b	2.459441
228	0xbf152505	-0.5825961
229	0x3f7044a6	0.9385475
230	0x3e2ecedf	0.17071103
231	0xbf5047bc	-0.8135946
232	0xbf951ede	-1.1650045
233	0xbca88bf9	-0.020574557
234	0x3ec5e9cb	0.38654932
235	0xbf092946	-0.53578603
236	0x3dedb1d3	0.11606183
237	0xbfc3d921	-1.5300637
238	0x3d3ec961	0.04657877
239	0xbf929d95	-1.145434
240	0xbf640fe2	-0.89086735
241	0xbf84ed6b	-1.0384954
242	0x3f46d012	0.7766124
243	0x3f43c4e5	0.7647231
244	0xbfe3dce0	-1.7801781
245	0x3f90c71f	1.1310767
246	0x3ddd493f	0.10804986
247	0xbf2facd7	-0.6862311
248	0x40354f7f	2.832977
249	0x3fc424d4	1.5323739
250	0x4013485c	2.3012915
251	0xbeafdfbe	-0.3435039
252	0x3fd46824	1.6594281
253	0xbe3669f3	-0.17813854
254	0xbf8cda0c	-1.1004043
255	0x3f64148c	0.8909385

attn_combine.weight f4 [128, 256]
0	0x3cdf6b56	0.027272861
1	0xbe08be97	-0.13353954
2	0x3ca586bc	0.020205848
3	0xbdbe6ad2	-0.09297718
4	0xbcce212d	-0.025162304
5	0xbdcc32d4	-0.09970632
6	0x3c8db3c1	0.017297627
7	0xbce0b0e8	-0.027428105
8	0x3c07c67a	0.008287067
9	0xbba39933	-0.004992628
10	0xbba4760d	-0.0050189556
11	0x3d708da9	0.058728848
12	0xbc995677	-0.018717987
13	0x3d8d811d	0.06909392
14	0x3ca1ca06	0.019749653
15	0xbd4ee0a4	-0.050507203
16	0xbdc41e31	-0.09576071
17	0x3ce934a9	0.028467493
18	0xbdd7cfa0	-0.10537648
19	0xbde663f5	-0.11249534
20	0xbe3770bc	-0.17914099
21	0x3d76d6dd	0.060263503
22	0x3ce33367	0.027734471
23	0x3ced017c	0.028931372
24	0xbd34af49	-0.044112477
25	0x3d5ec2c5	0.054384965
26	0x3d693955	0.05693944
27	0xbd7d9f53	-0.06191952
28	0xbbee6db1	-0.00727626
29	0x3dfe4e78	0.124173105
30	0x3d7f545b	0.062336307
31	0xbd1a9585	-0.03774025
32	0xbd72957d	-0.059224594
33	0x3c4a5f44	0.012351815
34	0xbe059a5c	-0.13047165
35	0xbda03f68	-0.07824594
36	0x39ed9df0	0.00045321835
37	0xbab977b0	-0.001415005
38	0x3e48b6fa	0.1960105
39	0x3e03f524	0.12886482
40	0xbbef4d4c	-0.0073029157
41	0xbe2a5794	-0.16634971
42	0x3d1cae1a	0.038251974
43	0xbd2c9783	-0.04213668
44	0xbe11721d	-0.14203687
45	0x3cac7f57	0.021056814
46	0x3dd150e8	0.1022051
47	0x3de79aab	0.113087974
48	0x3d8215f4	0.063518435
49	0xbd9fa3e0	-0.077949286
50	0x3ce353c2	0.0277499
51	0x3d5669a0	0.052346826
52	0x3d633bdb	0.055477004
53	0x3dede446	0.11615805
54	0xbd056326	-0.03256526
55	0x3df820d8	0.121156394
56	0xbe03f23a	-0.12885371
57	0x3dc61dee	0.096736774
58	0x3d7767f3	0.060401868
59	0xbdcd3b44	-0.1002107
60	0xbd828014	-0.06372085
61	0xbd1d705c	-0.038437232
62	0x3d6c8cc6	0.05775144
63	0x3d7fbe74	0.06243749
64	0x3d0e0c21	0.034679536
65	0x3daa9d94	0.08330837
66	0xbd80e2fc	-0.06293294
67	0xbb54df9d	-0.0032481917
68	0x3baa51a5	0.005197721
69	0xbd4915a1	-0.049092893
70	0x3ca30fda	0.01990502
71	0x3da274ff	0.079324715
72	0x3b9ad7ff	0.004725456
73	0x3ccacf6b	0.024757108
74	0x3d4d37ba	0.050101973
75	0xbe0771e0	-0.13227034
76	0xbdfe4b6e	-0.12416731
77	0xbba3c34a	-0.0049976455
78	0x3d932d06	0.07186322
79	0x3d8c0e03	0.0683861
80	0xbc84e36f	-0.01622173
81	0xbc9dc79d	-0.019260222
82	0xbd2fc859	-0.042915676
83	0x3c5cd028	0.013477363
84	0xbc4b17fa	-0.012395853
85	0x3d8d8cd7	0.06911629
86	0xbc81436d	-0.015779221
87	0xbe0f256c	-0.13979119
88	0xbd3ca46b	-0.04605524
89	0xbdb6da17	-0.08928316
90	0x3d142d88	0.036176234
91	0xbd8b3947	-0.06798034
92	0xbda7e9d9	-0.081989
93	0xbbbc7264	-0.005750941
94	0xbc348694	-0.011018414
95	0x3df57bd5	0.1198651
96	0xbd4d14ea	-0.050068773
97	0xbcce473b	-0.02518045
98	0x3d28cf33	0.041213226
99	0xbbb78169	-0.0056001437
100	0xbb98a9bc	-0.004658906
101	0xbc41bf62	-0.011825414
102	0xbc8735d4	-0.01650516
103	0xbcef5c4a	-0.029218812
104	0xbd2af97f	-0.041741844
105	0xbde27cc8	-0.110589564
106	0x3dc0a35c	0.09406158
107	0x3b521a07	0.003205897
108	0xbc1df35b	-0.00964054
109	0x3d0cb2e1	0.03435028
110	0x3cd4a2b9	0.025956498
111	0xbde3f4b3	-0.11130657
112	0xbdb30a8c	-0.08742246
113	0xbd96f48d	-0.07370863
114	0xbd7bc059	-0.061462734
115	0xbd8568dd	-0.06514142
116	0x3dc181b8	0.0944857
117	0xbe03a1c5	-0.12854679
118	0xbc50576c	-0.0127161555
119	0x3da494b4	0.08036175
120	0x3d0a5d4c	0.03378038
121	0x3cced402	0.025247578
122	0x3d01ef8e	0.031722598
123	0x3e016066	0.1263443
124	0xbd3336b1	-0.04375333
125	0x3d6ca468	0.057773978
126	0x3d34c4bf	0.044132944
127	0xbd05b2c6	-0.032641195
128	0x3c932520	0.017962039
129	0x3d030ca6	0.031994484
130	0xbd59ce45	-0.05317523
131	0x3c03a52e	0.008034987
132	0xbd11eb32	-0.03562469
133	0xbd49679b	-0.04917107
134	0x3cfaba98	0.030606553
135	0x3d0a36e5	0.033743758
136	0x3c9aef76	0.018913012
137	0x3b4e24ae	0.0031454968
138	0x3d8fbb72	0.07018174
139	0xbcb3c660	-0.021945179
140	0xbc937707	-0.018001093
141	0x3da1a799	0.07893295
142	0xbd185088	-0.037186176
143	0xbd858c68	-0.06520921
144	0x3d40221c	0.04690753
145	0x3becb416	0.0072236164
146	0xb995a76d	-0.00028544237
147	0x3b441d72	0.0029924777
148	0x3d046abf	0.032328364
149	0xbd08873a	-0.033332087
150	0x3d3bb751	0.04582912
151	0xbd75bdb9	-0.059995387
152	0x3dbe4439	0.09290356
153	0xba1bbb45	-0.0005940686
154	0xbcc78a20	-0.024357855
155	0xbd290b55	-0.041270573
156	0x3d07c2f7	0.033144917
157	0x3d8399a1	0.06425787
158	0xbdcad52d	-0.09903941
159	0x3d9c9a31	0.07646597
160	0xbcb017f2	-0.021495793
161	0xbcff8b1d	-0.031194264
162	0x3cc8b0df	0.024498401
163	0x3d741577	0.059590783
164	0xbd0738d3	-0.033013176
165	0xbc421737	-0.011846355
166	0x3d1f75f6	0.038930856
167	0x3b731e86	0.003709705
168	0x3d4d5a2d	0.050134826
169	0xbd4fdd35	-0.05074807
170	0xbd21a1ea	-0.039461054
171	0x3b903758	0.0044011287
172	0x3b56ce1b	0.0032776657
173	0xbc6da9e8	-0.014505841
174	0x3c412b1a	0.011790061
175	0xbbbaeb0d	-0.00570429
176	0xbd59aca3	-0.053143155
177	0xbdacb207	-0.084323935
178	0x3c4f8c02	0.012667658
179	0xbc34659d	-0.011010555
180	0x3cec6c1b	0.028860142
181	0x3ceed47f	0.02915406
182	0x3a85d39c	0.0010210159
183	0x3bf1f0f1	0.007383459
184	0xbd330b07	-0.04371169
185	0xbca9b073	-0.02071402
186	0x3b887c93	0.004165241
187	0x3ca26901	0.01982546
188	0xbd867947	-0.065661006
189	0xbc994931	-0.018711658
190	0x3d51bb69	0.05120412
191	0xbda536af	-0.08067071
192	0x3c91f27b	0.017815819
193	0x3d5b606f	0.053558763
194	0xbc0fac55	-0.0087691145
195	0x3a889ac3	0.0010422099
196	0xbd277a51	-0.040888134
197	0x3d2e308f	0.042526778
198	0xbd2dc103	-0.0424204
199	0xbc1deaac	-0.00963847
200	0x3cf9f25e	0.030511077
201	0xbda9db23	-0.0829375
202	0xbdac1661	-0.08402706
203	0xbcdb4d47	-0.026770247
204	0xbbb87ef9	-0.0056303707
205	0xbcc05a59	-0.023480581
206	0xbd8522e3	-0.06500795
207	0x3bf88020	0.007583633
208	0xbd887a28	-0.066639245
209	0xbce61e66	-0.028090667
210	0x3d73edc7	0.059552934
211	0xbd929767	-0.07157784
212	0xbbb7be4a	-0.005607401
213	0xbd3654ba	-0.044514395
214	0x3ce693ac	0.028146587
215	0xbd882d03	-0.0664921
216	0x3b80dd68	0.0039326437
217	0x3d2e49e8	0.04255095
218	0xbccc60a3	-0.024948424
219	0x3d7aba47	0.061212804
220	0xbca80322	-0.020509306
221	0x3e13ca4a	0.14432636
222	0x3d8dfe65	0.069332875
223	0xbd7a037d	-0.061038483
224	0xbcdbc42f	-0.026826946
225	0x3c886e9c	0.016654305
226	0xbd8d2846	-0.06892447
227	0x3db703bf	0.089362614
228	0x3c0e32e1	0.008679123
229	0xbb9b6925	-0.004742759
230	0xbd813f19	-0.06310863
231	0x3cec3fa1	0.028838934
232	0xbccd054d	-0.025026942
233	0xbd0507de	-0.032478206
234	0x3ce211f7	0.027596457
235	0xbd439bdd	-0.047756065
236	0x3be18b65	0.006883072
237	0x3cbcd303	0.023049837
238	0xbd2ba3f9	-0.041904423
239	0xbd80f4aa	-0.06296666
240	0xbc7a1177	-0.015262953
241	0x3db09b68	0.086233914
242	0xbda78545	-0.08179716
243	0x3c8f0523	0.017458504
244	0xbd68bb3d	-0.05681919
245	0x3d007e7f	0.031370636
246	0xbbb73eb1	-0.00559219
247	0x3cb04ff8	0.021522507
248	0x3d8baa3a	0.068195775
249	0x3d4a1df8	0.049344987
250	0x3d70d302	0.058794983
251	0xbc81372b	-0.015773376
252	0x3ca4d2ee	0.02012011
253	0xbd4b5321	-0.049639825
254	0xbd1ab275	-0.037767846
255	0x3cd1509b	0.025551131

attn_combine.bias f4 [128]
0	0xbd605a95	-0.054773886
1	0x3d43f07f	0.047836777
2	0xbd9f6885	-0.077836074
3	0x3d2191af	0.039445575
4	0x3cd03dcb	0.02542009
5	0xbcfc703b	-0.030815234
6	0x3cf21660	0.029551685
7	0xbd549dbf	-0.05190825
8	0xbc9c93c3	-0.019113427
9	0xbcef6fc7	-0.029228104
10	0xbc9ed1c0	-0.019387126
11	0x3c5479e7	0.012968517
12	0xbd686b96	-0.056743227
13	0xbd5573b6	-0.052112304
14	0xbd135e65	-0.035978694
15	0x3c4ca203	0.0124897985
16	0xbbc1a4d5	-0.005909542
17	0x3b20017f	0.0024414954
18	0xbb8bc764	-0.0042657126
19	0xbc3a5813	-0.011373538
20	0xbcd64b04	-0.026158817
21	0xbcf50175	-0.029907921
22	0x3c82c16a	0.015961368
23	0xbd7f5757	-0.062339153
24	0x3d172f8c	0.03691058
25	0xbd71a666	-0.05899658
26	0x3c19fff8	0.009399407
27	0xbc013043	-0.007885042
28	0x3d6d9e38	0.058012217
29	0x3d6e6b74	0.058207944
30	0xbd00648a	-0.03134588
31	0x3c8ff29a	0.017571736
32	0x3d1a4424	0.03766264
33	0x3d911668	0.07084352
34	0xbc8430d5	-0.016136566
35	0x3d8ece8d	0.0697299
36	0xbb0a01f3	-0.002105829
37	0xbd2f3495	-0.042774756
38	0x3c911595	0.017710486
39	0x3c620347	0.013794727
40	0xbbd6a743	-0.006550701
41	0xbd1f1699	-0.03883991
42	0x3d042938	0.03226587
43	0xbc91fe1d	-0.017821366
44	0x3cb7c237	0.022431476
45	0xbc9ca395	-0.01912097
46	0xbb04c116	-0.002025669
47	0xbc12a608	-0.008950718
48	0x3ce39ce7	0.027784778
49	0x3d0832e8	0.033251673
50	0xbbec1993	-0.007205197
51	0x3bb57530	0.0055376515
52	0xbd1425cc	-0.03616886
53	0xbc335a9e	-0.010946898
54	0x3c45bb51	0.0120685855
55	0xbb5c4d2b	-0.0033615332
56	0xbd9bed4e	-0.07613622
57	0x3bf81a65	0.007571506
58	0xbd9c5c06	-0.076347396
59	0xbca959f6	-0.02067278
60	0xbd2c3bdf	-0.042049285
61	0xbc4f713a	-0.012661273
62	0x3c83d7ff	0.016094206
63	0x3d1b46f2	0.037909456
64	0xbd73be2d	-0.059507538
65	0x3caa5912	0.020794425
66	0x3bd3720d	0.006452805
67	0xbce4d000	-0.027931213
68	0x3d2aad82	0.041669376
69	0x3d9bcda2	0.07607581
70	0x3c461e56	0.012092194
71	0x3cf330e3	0.029686397
72	0x3cf850da	0.03031199
73	0xbd7385fc	-0.05945395
74	0xbced00c7	-0.028931035
75	0x3d8559a9	0.06511242
76	0xbd15f069	-0.036606226
77	0x3b975f23	0.0046194955
78	0x3d07685f	0.03305852
79	0x3b54c132	0.0032463786
80	0xbd39d8b6	-0.045372687
81	0xbcf8c0c9	-0.030365365
82	0x3c929ecc	0.017897986
83	0x3cd99e38	0.026564702
84	0x3d49ba70	0.049250066
85	0xbc08bb32	-0.008345412
86	0x3c09120c	0.008366119
87	0xbcb16b17	-0.02165751
88	0x3d8073dc	0.062720984
89	0xbc8973a4	-0.016778775
90	0xbd822c60	-0.0635612
91	0xba653dd3	-0.0008744869
92	0xbc9d937a	-0.019235361
93	0xbc37035b	-0.011170234
94	0xbd42ad82	-0.04752875
95	0xbd6c61a6	-0.057710312
96	0xbd398f10	-0.04530245
97	0x3da7900d	0.081817724
98	0xbd65ea1c	-0.056131467
99	0xbd5f8ec9	-0.05457953
100	0x3d32c130	0.04364127
101	0x3d57ee4d	0.052717496
102	0x3c1a08b6	0.009401491
103	0xbd059574	-0.032613233
104	0x3d1470a3	0.03624023
105	0x3d43a775	0.04776712
106	0xbd75c91c	-0.060006246
107	0x3d576e15	0.052595217
108	0x39a00196	0.0003051876
109	0xbb5ac233	-0.0033379912
110	0x3bc3395b	0.005957765
111	0xbd31c48e	-0.04340034
112	0x3d53bafe	0.051692
113	0x3c781b6f	0.015143259
114	0xbcb3ad9b	-0.021933367
115	0xbc2828a8	-0.010263599
116	0x3d0bd4bd	0.03413843
117	0x3d6b5bb4	0.0574605
118	0x3d77f4a1	0.06053603
119	0xbd184afa	-0.03718088
120	0xbd086518	-0.033299536
121	0xba875751	-0.0010325705
122	0x3d73b702	0.0595007
123	0xbd5c872c	-0.053839847
124	0xbd60c875	-0.05487867
125	0xbcc1b70b	-0.023646852
126	0xbd0abdec	-0.03387253
127	0xbbf01d69	-0.0073277247

rnn.weight_ih_l0 f4 [384, 128]
0	0x3d4c4f6f	0.04988044
1	0x3d5a6deb	0.053327482
2	0xbe19e34e	-0.15028116
3	0x3c9e0211	0.019288095
4	0x3da9985a	0.08281012
5	0xbb0b2c8e	-0.0021236273
6	0xbd617af0	-0.055048883
7	0xbd0673ee	-0.032825403
8	0xbd3278a4	-0.043572083
9	0xbcf030ec	-0.029320203
10	0x3d08d74e	0.033408456
11	0xbc7e444f	-0.015519216
12	0x3c376bc2	0.011195125
13	0xbbee037a	-0.007263598
14	0x3d7b56a9	0.061361942
15	0xbd6b2801	-0.057411198
16	0x3da6d0b7	0.08145278
17	0xbc8f5b13	-0.017499482
18	0xbda7a0c7	-0.08184963
19	0xbd10fb89	-0.035396133
20	0xbd512e35	-0.051069457
21	0x3abbb089	0.0014319579
22	0x3d82947a	0.06375976
23	0xbd261d70	-0.040555418
24	0x3de0751e	0.10959838
25	0x3db94d65	0.09047965
26	0xbc90618e	-0.017624643
27	0x3d5a1ea3	0.053251874
28	0x3c819cf5	0.015821913
29	0x3c996d70	0.018728942
30	0x3da323a8	0.07965785
31	0x3d593c24	0.05303587
32	0x3d32a725	0.043616433
33	0xbd68fc95	-0.056881506
34	0xbd486d4e	-0.048932366
35	0xbd8a74ab	-0.06760534
36	0x3ce1e72f	0.027576057
37	0x3d9c568b	0.07633694
38	0xbda2a4b1	-0.07941569
39	0xbdbc818f	-0.09204399
40	0x3d15013c	0.03637813
41	0x3cdcece9	0.026968436
42	0xbd3e0f60	-0.04640138
43	0x3cb0fc73	0.021604752
44	0x3b0acd3f	0.0021179465
45	0xbd743cd1	-0.05962831
46	0xbbb7533d	-0.0055946396
47	0xbd277f48	-0.04089287
48	0x3d1a73b0	0.037707984
49	0x3d1c040f	0.038089808
50	0xbd3bbe98	-0.04583606
51	0xbc9d0d62	-0.01917142
52	0x3d855f41	0.06512309
53	0x3db12a87	0.086506896
54	0x3d92ca06	0.07167439
55	0x3d83c753	0.064345025
56	0x3c99f86b	0.018795213
57	0x3c2550ac	0.010090034
58	0xbbe63fc5	-0.007026645
59	0x3d3b7e93	0.045775007
60	0x3ddf0b39	0.108908124
61	0xbd4b5e1c	-0.049650297
62	0x3c235270	0.009968385
63	0x3c9400b2	0.018066738
64	0xbd695e2a	-0.056974567
65	0xbda30add	-0.079610564
66	0x3bfc7eaa	0.007705529
67	0xbd8bb584	-0.06821731
68	0xbc7970aa	-0.015224615
69	0xbd88fe83	-0.06689169
70	0xbbd91fbd	-0.006626098
71	0xbd1142ad	-0.035463978
72	0x3d506c69	0.050884638
73	0xbd8f91da	-0.07010241
74	0xbd57c884	-0.05268146
75	0x3de01afb	0.10942646
76	0x3c8a810c	0.016907237
77	0xbcdcd197	-0.026955409
78	0xbd28743b	-0.04112647
79	0xbd664674	-0.056219533
80	0x3d585730	0.052817523
81	0xbaebce27	-0.0017990515
82	0x3c0206a7	0.007936156
83	0xbd817425	-0.06320981
84	0x3ddf823b	0.10913511
85	0x3dead502	0.11466409
86	0xbc80691e	-0.015675124
87	0xbe11fc44	-0.14256388
88	0xbcc1b9a7	-0.023648096
89	0xbe0e596c	-0.13901299
90	0x3dc003e9	0.09375746
91	0xbc7e1cd3	-0.015509802
92	0x3d2f62ad	0.042818714
93	0x3deef147	0.11667114
94	0xbd878d10	-0.066187024
95	0x3d55e0e8	0.05221644
96	0x3d5be39c	0.053683862
97	0x3ddd445b	0.108040534
98	0x3dc8f60d	0.098125555
99	0x3c82d912	0.015972648
100	0x3d632d25	0.055462975
101	0xbdd5083e	-0.10401963
102	0xbdbdbbf9	-0.092643686
103	0x3d97d9c6	0.07414584
104	0xbdb56ed8	-0.088590324
105	0x3ce0c7eb	0.027439078
106	0xbbe2c25b	-0.0069201416
107	0xbdaaf868	-0.08348161
108	0x3da14bac	0.078757614
109	0x3c7fecde	0.015620438
110	0x3dfc05ea	0.123058155
111	0xbd480a45	-0.04883792
112	0xbdd627e2	-0.10456826
113	0x3de09519	0.10965938
114	0xbd176f68	-0.03697148
115	0xbdad5311	-0.08463109
116	0xbde3566c	-0.11100468
117	0xbd131fb9	-0.035918925
118	0x3da22b3d	0.07918403
119	0x3d925f89	0.07147128
120	0x3d081447	0.033222463
121	0x3b4fe1a0	0.0031720176
122	0x3d1997ef	0.03749841
123	0x3df92008	0.121643126
124	0xbdfd00fe	-0.12353705
125	0x3dc76a9d	0.09737132
126	0xbd72d63c	-0.05928634
127	0x3cb0d4e9	0.021585898
128	0x3cc7f3ca	0.02440824
129	0x3cbc7389	0.02300431
130	0x3d689d80	0.05679083
131	0x3c5224cd	0.012826157
132	0x3df99844	0.121872455
133	0xbc260d2e	-0.010134978
134	0xbd87e9dd	-0.06636403
135	0x3d48d1e1	0.04902828
136	0xbd7bfb1c	-0.061518773
137	0xbdb78b4d	-0.089621164
138	0x3e15ba5a	0.14621869
139	0x3da5d908	0.08098036
140	0x3e08c16e	0.13355038
141	0x3dd7903f	0.1052556
142	0xbd6e6bf4	-0.05820842
143	0xbde2c7b1	-0.11073244
144	0xbce464ad	-0.027880037
145	0x3db8acb2	0.09017314
146	0xbde411f2	-0.11136235
147	0xbcbebe23	-0.023284024
148	0xbcde2792	-0.027118478
149	0xbd0e8604	-0.034795776
150	0x3d9155ce	0.07096444
151	0x3d37e665	0.044897456
152	0x3c871634	0.01649008
153	0xbc7541bc	-0.014969286
154	0x3e0698f7	0.13144289
155	0x3df78c95	0.12087361
156	0x3d3fc288	0.04681638
157	0x3c6dc3d9	0.014512026
158	0x3db5fcd1	0.088861115
159	0x3d95ec74	0.073204905
160	0x3cf1ae39	0.029502021
161	0xbbc7e5fa	-0.0061004134
162	0xbd0a37c6	-0.033744596
163	0x3bba518a	0.0056859897
164	0xbd3d0040	-0.046142817
165	0x3daf5c40	0.08562517
166	0xbb8a0c98	-0.004212927
167	0x3c3a43cd	0.011368704
168	0x3a09627c	0.00052408106
169	0x3de20d02	0.11037637
170	0xbd7d90cf	-0.06190568
171	0xbbc0da51	-0.0058854003
172	0xbd3c18e4	-0.045922175
173	0xbc780309	-0.015137442
174	0xbdc9ba98	-0.09850043
175	0xbd284b4f	-0.041087445
176	0xbe03135f	-0.12800358
177	0x3de9e493	0.1142055
178	0x3d1b2bf8	0.03788373
179	0xbc447a3f	-0.011992036
180	0x3e21c27d	0.15796848
181	0xbbb7bed4	-0.0056074653
182	0xbd1608f4	-0.036629632
183	0xb95aebee	-0.00020877991
184	0xbd8815b0	-0.066447616
185	0xbd30a744	-0.043128267
186	0x3d99462e	0.07484089
187	0xbd68c14a	-0.05682496
188	0xbd0c1cd8	-0.034207195
189	0xbdef10aa	-0.116731
190	0xbcaced62	-0.021109287
191	0xbcf119c8	-0.029431239
192	0x3d9a1370	0.07523239
193	0x3d0fec7b	0.035137635
194	0xbccfc956	-0.02536456
195	0xbcf1ba93	-0.02950791
196	0x3d942bb0	0.07234895
197	0x3d0fbae3	0.03509034
198	0xbd0acd91	-0.03388745
199	0xbb8d1b25	-0.0043062144
200	0xbdf35933	-0.11882248
201	0xbd258c9b	-0.040417295
202	0xbc8da809	-0.01729204
203	0x3e09b918	0.13449514
204	0xbdee1f62	-0.116270795
205	0x3dc18ab2	0.09450282
206	0xbc4a5870	-0.012350187
207	0x3cf5897e	0.029972788
208	0xbdd23e23	-0.10265758
209	0xbddb2712	-0.107008114
210	0xbc1bf8d3	-0.009519774
211	0x3cc2ff1e	0.02380329
212	0x3d1c829e	0.038210504
213	0xbc9206ed	-0.017825568
214	0xbd180274	-0.037111714
215	0x3de4162d	0.11137042
216	0xbd09ac67	-0.03361168
217	0xbd447b91	-0.047969405
218	0xbda09352	-0.07840599
219	0x3e14f998	0.14548337
220	0x3cc13cfa	0.023588646
221	0xbde39caa	-0.11113866
222	0xbbf4331e	-0.0074523827
223	0xbc5f5c0a	-0.013632784
224	0xbd17c902	-0.03705693
225	0xbd55cd89	-0.052197967
226	0xbdb5737e	-0.08859919
227	0x3d459e8b	0.0482469
228	0x3d5ec29c	0.054384813
229	0xbd8b7dd6	-0.06811111
230	0xbded8831	-0.11598242
231	0xbc820ea4	-0.015876122
232	0xbc84fceb	-0.016233882
233	0x3e1ea31e	0.15491912
234	0x3d269e3e	0.040678255
235	0x3c68d1a8	0.014210142
236	0xbc1f7f50	-0.0097349435
237	0x3d833baa	0.064078644
238	0x3c28e621	0.010308773
239	0x3cbde410	0.023180038
240	0x3d387ac9	0.045038972
241	0xbb9df71b	-0.004820717
242	0x3bdcedae	0.006742201
243	0x3ce1f0fc	0.02758073
244	0x3d2db113	0.0424052
245	0x3d98d19a	0.07461853
246	0x3d7819d7	0.060571518
247	0x3d43224c	0.04764013
248	0xbd98dfbe	-0.074645504
249	0xbded7dfa	-0.11596294
250	0x3d149d23	0.03628267
251	0x3dbf396c	0.09337124
252	0xbe3b0469	-0.18263401
253	0x3c2aa667	0.01041565
254	0x3baa29b0	0.005192958
255	0x3d86dd5c	0.0658519

rnn.weight_hh_l0 f4 [384, 128]
0	0x3d39f758	0.0454019
1	0x3cc9e9a2	0.024647538
2	0x3dad103e	0.084503636
3	0x3b71f7b7	0.0036921331
4	0xbdb53b2a	-0.08849175
5	0xbd337792	-0.043815203
6	0xbdb2a7d3	-0.08723416
7	0x3d080ba6	0.033214234
8	0xbcf7e814	-0.03026203
9	0xbd7e14da	-0.062031604
10	0x3cbbdf64	0.02293367
11	0xbd31dc99	-0.04342327
12	0x3de88f1a	0.113554195
13	0x3b1ebb88	0.0024220664
14	0x3c1f2890	0.009714261
15	0x3c6fa480	0.014626622
16	0xbdb176de	-0.0866525
17	0x3c4b53c8	0.012410112
18	0xbc89009e	-0.016723927
19	0x3da31ff2	0.079650775
20	0xbda71b26	-0.08159475
21	0x3a5cd425	0.0008423946
22	0xbc99c1d9	-0.018769192
23	0xbc551301	-0.013005019
24	0x3d3ed572	0.046590276
25	0xbdb15fa8	-0.08660823
26	0x3c605857	0.013692937
27	0x3cfe2d64	0.031027503
28	0x3d6dd6d4	0.058066204
29	0xbdff3214	-0.124607235
30	0xbdca98af	-0.09892403
31	0xbc0aad35	-0.008464147
32	0x3d421761	0.047385577
33	0xbc8682b8	-0.016419753
34	0xbc328ab2	-0.010897325
35	0xbaeb4c56	-0.0017951827
36	0xb9dbcdc7	-0.0004192425
37	0x3d096f0d	0.033553172
38	0xbcd18e49	-0.025580542
39	0xbdf77aab	-0.12083944
40	0xbdaaa497	-0.08332174
41	0x3c944acd	0.018102074
42	0xbd2f6435	-0.042820174
43	0x3d26186a	0.040550627
44	0xbb405a4b	-0.0029350694
45	0xbc6e60df	-0.014549463
46	0x3d325b81	0.043544296
47	0xbd81b76c	-0.06333813
48	0x3d15f969	0.03661481
49	0x3cb7476d	0.022372926
50	0xbd366c71	-0.04453701
51	0xbe132a37	-0.14371572
52	0xbd9cce53	-0.07656541
53	0xbd7d6366	-0.06186237
54	0x3e0f790e	0.14011022
55	0x3aae8c56	0.001331697
56	0xb91588cf	-0.00014260712
57	0x3d38e912	0.04514415
58	0x3c85a2ac	0.01631292
59	0xbda13506	-0.078714415
60	0xbe1a974d	-0.15096779
61	0x3cacada9	0.021078901
62	0x3d2dcb1e	0.042430036
63	0x3d17dc6c	0.037075445
64	0x3aa9005f	0.0012893787
65	0xbe029e5f	-0.12755726
66	0x3e1127f2	0.14175394
67	0x3d742800	0.05960846
68	0xbd92183a	-0.07133527
69	0x3cb4bd9d	0.02206307
70	0x3d154c1c	0.036449537
71	0x3cfa9692	0.030589376
72	0x3dac094e	0.08400212
73	0x3d413241	0.047167066
74	0x3cfc5090	0.030800134
75	0x3d29864e	0.04138785
76	0x3c0e1797	0.008672616
77	0xbd6bcdc2	-0.057569273
78	0xbc946f04	-0.018119343
79	0x3c3aacba	0.01139372
80	0x3d4c7dc2	0.04992462
81	0xbd004787	-0.031318214
82	0xbd168f31	-0.03675765
83	0xbe165df8	-0.14684284
84	0x3dc139fd	0.094348885
85	0x3a4e27d5	0.0007864212
86	0xbddc69a8	-0.1076234
87	0xbc985dd7	-0.018599434
88	0x3c3de723	0.011590752
89	0xbde70133	-0.112795256
90	0x3c2e0d98	0.010623358
91	0xbcbf08f5	-0.0233197
92	0xbde9e2a8	-0.114201844
93	0xbc647a64	-0.013945196
94	0x3d86d16c	0.06582913
95	0xbc98bb2a	-0.018643934
96	0xbd732937	-0.059365477
97	0x3d9c8bec	0.076438755
98	0xbdaca620	-0.08430123
99	0x3d1a24cc	0.03763275
100	0xbd3b8a29	-0.045786057
101	0xbb50a5cc	-0.0031837104
102	0xbdf97a1a	-0.12181492
103	0x3db3211d	0.0874655
104	0xbd8c0cf8	-0.06838411
105	0xbd8bc42b	-0.068245254
106	0x3c5c4e1a	0.013446355
107	0x3c785da8	0.015159048
108	0xbd6008b0	-0.054695785
109	0xbd1a9f16	-0.037749372
110	0xbb20b74e	-0.002452332
111	0xbd2d1419	-0.042255495
112	0xbce64cc3	-0.028112775
113	0xbe0f2fbb	-0.13983051
114	0xbd9b2a51	-0.075764306
115	0xbc80c42b	-0.01571854
116	0xbd8d81fb	-0.069095574
117	0xbd0f504d	-0.03498869
118	0xbcb2f521	-0.021845402
119	0x3d340f50	0.043959916
120	0xbd99261a	-0.074779704
121	0x3d3a764c	0.045522973
122	0x3ce8ab9d	0.028402144
123	0xbdc9e48d	-0.09858046
124	0x3cf323d7	0.029680176
125	0x3ccc9e2a	0.024977762
126	0xbc45cd94	-0.012072939
127	0xbcd980fb	-0.02655076
128	0x3d20360b	0.03911404
129	0xbda199ff	-0.078907005
130	0xbddb632e	-0.107122764
131	0xbdd54267	-0.10413056
132	0x3c8256f3	0.015910601
133	0xbbbab804	-0.005698206
134	0x3da51576	0.08060734
135	0xbc6d4ea3	-0.0144840805
136	0xbd71eceb	-0.059063833
137	0xbd42e701	-0.047583584
138	0x3cad9413	0.021188771
139	0xbcb79ec3	-0.02241457
140	0x3d975fcf	0.07391321
141	0xbb6b98a2	-0.003594913
142	0xbd1b53d0	-0.037921727
143	0xbd9ecbd7	-0.07753723
144	0xbd23724e	-0.03990393
145	0xbd1b7112	-0.03794963
146	0xbd917598	-0.07102507
147	0xbde95006	-0.113922164
148	0x3ccf6aeb	0.025319537
149	0xbccfda3e	-0.02537262
150	0xbdc637bd	-0.096786
151	0x3cce96d6	0.025218409
152	0xbcc66079	-0.024215924
153	0x3d7ff841	0.062492613
154	0x3aea9fc8	0.0017900402
155	0x3d21b1c2	0.039476164
156	0xbe0eceba	-0.13946047
157	0x3ddb26e4	0.10700777
158	0x3d7eee1f	0.06223881
159	0x3d81159c	0.0630295
160	0x3d620382	0.055179127
161	0x3dc6a61a	0.0969965
162	0xbdb8b6d5	-0.090192474
163	0xbdbb5c9d	-0.09148524
164	0xbd53b88e	-0.051689677
165	0xbe0f3a42	-0.13987067
166	0xbdf4ef98	-0.119597614
167	0x3cf0e2ce	0.029405024
168	0xbd563885	-0.052299995
169	0xbd162c3d	-0.036663283
170	0xbd73769c	-0.059439287
171	0xbdaf82d1	-0.08569873
172	0xbd621afd	-0.05520152
173	0x3d3949f3	0.04523654
174	0x3cf28318	0.029603526
175	0xbdb2d831	-0.087326415
176	0xbc51dafd	-0.0128085585
177	0xbd661ad8	-0.056177944
178	0xbcae6a06	-0.02129079
179	0x3c9e78d3	0.019344723
180	0xbdad64c7	-0.084664874
181	0xbc8f32ec	-0.017480336
182	0x3bad1a8f	0.005282707
183	0xbb589f86	-0.0033054068
184	0x3e1add42	0.15123466
185	0xbbe1ea3b	-0.0068943775
186	0xbd09dd61	-0.03365839
187	0x3cddf8bb	0.027096143
188	0xbd2ef390	-0.042712748
189	0xbd879ac6	-0.066213176
190	0x3cb4f283	0.022088295
191	0xbe33400d	-0.17504902
192	0x3d53ebdc	0.051738605
193	0x3b8b4098	0.0042496435
194	0x3d0eabe0	0.03483188
195	0xbe04206b	-0.12902991
196	0x3c962e31	0.018332573
197	0xbcfbbcdd	-0.030729705
198	0xbe18abd9	-0.14909305
199	0x3d46eaf0	0.048563898
200	0xbd90f475	-0.070778765
201	0xbd4eeda7	-0.05051961
202	0x3c0f322a	0.008739987
203	0x3d4366f9	0.047705624
204	0xbde9c84c	-0.11415157
205	0x3cbe7468	0.023248866
206	0xbd46ea6e	-0.048563413
207	0xbe035b7c	-0.12827867
208	0x3cd1e0d2	0.025619898
209	0xbdb1f6f9	-0.086896844
210	0xbd5804d5	-0.052738983
211	0x3d0a40ef	0.03375333
212	0x3c750c4c	0.014956545
213	0xbd250e54	-0.040296867
214	0xbcc5cb09	-0.024144666
215	0x3d3ec627	0.04657569
216	0xbdb50962	-0.0883968
217	0x3c9c9384	0.01911331
218	0xbd62eb5c	-0.055400237
219	0x3d49ab2b	0.049235504
220	0xbda3f3e9	-0.080055065
221	0x3dd997c1	0.10624648
222	0xbdee13a8	-0.11624843
223	0x3ccf9d3b	0.025343528
224	0xbcb3c867	-0.021946145
225	0xbdf9be9c	-0.12194559
226	0xbd4825c0	-0.048864126
227	0xbd8f4a04	-0.06996539
228	0x3da81f2f	0.08209073
229	0xbd259454	-0.04042466
230	0x3d26dcae	0.0407378
231	0xbcc01f45	-0.02345241
232	0xbde598ab	-0.1121076
233	0x3d276e5c	0.04087673
234	0x3dbedcbe	0.09319447
235	0xbd8ab99b	-0.06773683
236	0x3d5b7578	0.053578824
237	0x3dd447c0	0.10365248
238	0xbce67c66	-0.02813549
239	0xbc3d5c7d	-0.011557695
240	0xbdbde415	-0.09272019
241	0xbd07ea6e	-0.033182554
242	0xbcb278e7	-0.021786166
243	0xbe157eb4	-0.14599115
244	0xbcef8f2c	-0.029243074
245	0x3d80a873	0.06282129
246	0x3d8fd36d	0.07022748
247	0xbc2d6418	-0.010582946
248	0xbce7089e	-0.028202351
249	0x3d70fbaf	0.058833774
250	0xbd9e7364	-0.07736853
251	0x3d5606b7	0.052252498
252	0x3cc84c7f	0.024450539
253	0x3b4fed12	0.0031726998
254	0xbcc1d836	-0.023662668
255	0x3d56e342	0.052462824

rnn.bias_ih_l0 f4 [384]
0	0x3c57e559	0.013177239
1	0xbd596243	-0.053072225
2	0x3d5a7bd4	0.053340748
3	0xbcaf0c20	-0.021368086
4	0xbd97742a	-0.073952034
5	0x3dc92295	0.09821049
6	0x3d32d865	0.0436634
7	0x3d528101	0.05139256
8	0xbd343ba9	-0.04400221
9	0x3d2ce1c6	0.0422075
10	0xbdaa7feb	-0.0832518
11	0xbd138d17	-0.036023226
12	0xbc4a3398	-0.0123414025
13	0xbd460d74	-0.048352674
14	0xbcba96b8	-0.022776946
15	0x3b25af66	0.0025281548
16	0xbd4dc22b	-0.050234
17	0xbd99664e	-0.07490216
18	0x3d1702f9	0.03686807
19	0x3c5a9658	0.013341509
20	0xbd1ccbb9	-0.038280223
21	0xbd8f5c3e	-0.07000016
22	0xbd013aff	-0.031550404
23	0xbd8047dd	-0.06263707
24	0xbba69015	-0.005083094
25	0xbb9b3d20	-0.0047375113
26	0x3daa44e7	0.08313923
27	0x3df3150f	0.11869251
28	0x3d380f98	0.044936746
29	0xbd138ab9	-0.036020968
30	0x3c92112c	0.017830454
31	0xbbf82889	-0.0075731915
32	0x3da95d80	0.08269787
33	0x3cbf7b56	0.02337424
34	0xbc040a81	-0.008059145
35	0xbd7aa4de	-0.061192386
36	0xbd62e628	-0.055395275
37	0xbcee169d	-0.029063517
38	0x3c333147	0.010937042
39	0xbd831aae	-0.06401573
40	0x3d258ba7	0.040416386
41	0xbd0f137d	-0.034930695
42	0xbd978b23	-0.07399585
43	0xbd201e98	-0.039091676
44	0xbd277754	-0.040885285
45	0x3c1ca2fc	0.009560343
46	0x3d25d896	0.040489756
47	0xbd530a0d	-0.051523257
48	0xbc06ee66	-0.00823555
49	0xbdbc78f4	-0.092027575
50	0x3b4cafd2	0.0031232727
51	0x3d0d14b8	0.034443587
52	0x3d8de16c	0.069277614
53	0xbdbb2c0b	-0.0913926
54	0xbd7d6b03	-0.061869632
55	0x3d3b97c9	0.04579905
56	0x3ddb6e9f	0.10714459
57	0x3d067f3f	0.032836195
58	0xbd98345e	-0.07431863
59	0x3beb42c3	0.0071795895
60	0xbd869733	-0.06571808
61	0xbd130fce	-0.035903744
62	0x3d27ca37	0.04096433
63	0xbd999939	-0.07499928
64	0x3d8ac0a3	0.06775024
65	0xbd6b4a35	-0.057443816
66	0x3d031f6f	0.0320124
67	0x3ca78039	0.020446884
68	0xbcb603aa	-0.022218544
69	0xbdaaf23b	-0.08346983
70	0xbd812f45	-0.06307844
71	0x3d6afb36	0.05736848
72	0xbc01e7b4	-0.0079287775
73	0xbc8ef7a3	-0.017452067
74	0xbc8df75d	-0.017329866
75	0x3dd3fba3	0.1035073
76	0x3dd096f0	0.10185039
77	0xbc1eb553	-0.009686786
78	0x3b2d2d0c	0.0026424555
79	0x3d2bb95f	0.04192483
80	0x3d9007e8	0.07032758
81	0xbd65be45	-0.05608966
82	0x3ca5a444	0.02021993
83	0x3dda155b	0.106486045
84	0x3c94bdfc	0.018156998
85	0xbd5a8353	-0.053347897
86	0x3e005038	0.12530601
87	0xbcecd9aa	-0.028912384
88	0xbd0b808a	-0.03405813
89	0x3d2bbc63	0.041927706
90	0xbd26dabc	-0.040735945
91	0xbd6f5e8f	-0.058439787
92	0x3d66dd0d	0.056363154
93	0xbd1d7e5a	-0.038450576
94	0xbdf976ef	-0.12180888
95	0xbdb8a916	-0.090166256
96	0x3d5bd5db	0.053670745
97	0x3db1a0c2	0.0867324
98	0x3d11ac63	0.03556479
99	0x3da913ce	0.082557306
100	0x3d08850a	0.03333
101	0x3c0fcb08	0.008776434
102	0x3d4f9279	0.050676797
103	0xbcc37ed7	-0.023864193
104	0x3d1a913a	0.037736155
105	0x3d8aeb27	0.06783133
106	0x3dd5bbc3	0.10436203
107	0xbd3596f0	-0.0443334
108	0xbcddc90d	-0.027073408
109	0xbdb4d731	-0.08830107
110	0xbdae7be1	-0.08519722
111	0xbd056473	-0.0325665
112	0x3d5c20c1	0.053742174
113	0x3d7843b5	0.060611445
114	0x3cebf6b2	0.028804157
115	0xbd7f56a9	-0.062338505
116	0xbd72c7a4	-0.059272423
117	0x3dc25341	0.09488536
118	0x3c9d43cf	0.019197373
119	0x3d8438e0	0.064561605
120	0x3dcc9157	0.09988659
121	0xbb226cc1	-0.002478406
122	0x3d9c416f	0.07629668
123	0xbd25a275	-0.040438134
124	0xbd7fb06d	-0.062424112
125	0x3ca2e31e	0.019883689
126	0xbd7a4ee8	-0.061110407
127	0xbd46d529	-0.04854313
128	0xbd96e302	-0.07367517
129	0xbdf6dbe8	-0.120536625
130	0xbe450a35	-0.19242175
131	0xbe08a595	-0.13344415
132	0xbd73d608	-0.059530288
133	0xbce80b3e	-0.028325673
134	0x3b0799db	0.002069107
135	0xbb06870b	-0.002052727
136	0x3c3b13b5	0.011418273
137	0xbda37b44	-0.079824954
138	0xbdd89535	-0.10575334
139	0xbdfc7470	-0.12326896
140	0xbdd85cc2	-0.10564567
141	0x3bd38047	0.006454501
142	0xbde42f74	-0.111418635
143	0x3d83c482	0.06433965
144	0xbb09abd4	-0.0021006959
145	0xbd933d65	-0.071894445
146	0xbe3fe2b6	-0.18738827
147	0xbd19295d	-0.037392963
148	0x3c2b06bc	0.010438617
149	0xbe078a20	-0.13236284
150	0x3bac8080	0.005264342
151	0xbdf486f1	-0.119398005
152	0xbcb64843	-0.022251254
153	0x3b76909e	0.003762282
154	0x3dbe9d1c	0.0930731
155	0x3b34d125	0.002759048
156	0xbe5365ff	-0.20644377
157	0xbe16cbf8	-0.14726245
158	0xbe09281c	-0.13394207
159	0x3dabbe80	0.08385944
160	0x3d5e143f	0.054218527
161	0x3c3475f7	0.011014453
162	0xbd2715cc	-0.04079227
163	0xbc81a76f	-0.015826909
164	0xbd83d863	-0.06437757
165	0xbe137fd0	-0.14404225
166	0xbd10e9a1	-0.035379056
167	0xbccccb17	-0.024999185
168	0xbdfb6d66	-0.122767255
169	0x3d064bb1	0.03278703
170	0xbd6b7ea1	-0.05749381
171	0xbdcd6261	-0.1002853
172	0xbd9239d6	-0.071399376
173	0xbca49687	-0.020091308
174	0xbb68d097	-0.003552472
175	0xbd81a2fa	-0.063299134
176	0xbd6a1377	-0.05714747
177	0x3d052514	0.032506064
178	0xbe38baa2	-0.18039945
179	0x3cb67bf3	0.0222759
180	0xbd881d9e	-0.06646274
181	0xbd3357d3	-0.043784928
182	0xbdbde789	-0.092726775
183	0x3cdfd29f	0.027322112
184	0xbc9070fd	-0.017632002
185	0xbcd79864	-0.026317783
186	0xbe266591	-0.16249682
187	0xbe0476bf	-0.12935923
188	0xbdd268d1	-0.102738984
189	0xbe0baeef	-0.1364095
190	0xbde05c44	-0.10955098
191	0xbdf362e4	-0.11884096
192	0x3da7ef83	0.0819998
193	0xbd4d4448	-0.050113946
194	0xbd2201e5	-0.039552588
195	0xbced2d87	-0.028952373
196	0xbdaa2a1c	-0.08308813
197	0xbe1398fc	-0.14413828
198	0xbbdfc467	-0.006828833
199	0xbd8e0487	-0.06934457
200	0x3c471e5e	0.012153236
201	0xbcde360d	-0.027125383
202	0xbccab139	-0.02474271
203	0xbc832647	-0.016009463
204	0x3b92a426	0.0044751344
205	0x3d15fb4a	0.0366166
206	0xbd90ea9c	-0.07075998
207	0xbd9b4bf7	-0.075828485
208	0xbda0b9dd	-0.078479506
209	0xbd8ed0d7	-0.06973427
210	0x3d674e54	0.056471184
211	0xbce200fb	-0.027588358
212	0xbd582bcb	-0.05277614
213	0xbdcd2aa0	-0.10017896
214	0x3d7921e7	0.060823347
215	0xbde6a5f6	-0.11262123
216	0xbddf7380	-0.10910702
217	0xbdad23c5	-0.08454088
218	0xbe096136	-0.1341599
219	0xbc7a0989	-0.015261062
220	0xbd592eae	-0.053023033
221	0xbbcedd57	-0.006313007
222	0xbc8f2b01	-0.01747656
223	0xbdff3f0d	-0.12463198
224	0x3c774f70	0.015094623
225	0xbe274fdb	-0.16339056
226	0x3dcf7dca	0.10131414
227	0x3d81b248	0.063328326
228	0xbd8bc9c2	-0.068255916
229	0x3d198ca0	0.037487626
230	0xbc03f528	-0.008054055
231	0xbc77a15e	-0.0151141565
232	0xbe022466	-0.12709197
233	0xbd162934	-0.036660388
234	0xbd65ffe9	-0.056152258
235	0xbd88c492	-0.06678118
236	0xbe1d0073	-0.15332203
237	0xbd434cb5	-0.047680575
238	0xbe18ee85	-0.14934738
239	0xbab9ee1d	-0.0014185343
240	0xbde1eba1	-0.11031271
241	0xbe2209a0	-0.15823984
242	0x3d1c59b1	0.038171474
243	0xbc8c8ae1	-0.017156066
244	0xbdadb590	-0.08481896
245	0xbe030929	-0.12796463
246	0xbd9040f7	-0.07043641
247	0x3d31fee3	0.04345597
248	0x397abc9c	0.0002391212
249	0x3bb1476e	0.0054101264
250	0x3d4825f8	0.048864335
251	0xbbe853ed	-0.007090083
252	0x3ccd3eb3	0.025054311
253	0xbdbe147f	-0.09281253
254	0xbcdf53f5	-0.027261714
255	0xbd354867	-0.0442585

rnn.bias_hh_l0 f4 [384]
0	0x3d0c8aaa	0.034311928
1	0xbd97bbe9	-0.07408888
2	0xbb05f95f	-0.0020442826
3	0xbce771b5	-0.028252462
4	0xbb4fe70c	-0.0031723408
5	0x3cb70990	0.022343427
6	0xbd1b49f3	-0.03791232
7	0x3ab9d658	0.0014178259
8	0x3d848e02	0.06472398
9	0x3c90c0fc	0.017670147
10	0xbbfc582c	-0.0077009406
11	0xbd14f00b	-0.036361735
12	0xbcc5d283	-0.024148231
13	0xbd793443	-0.060840856
14	0xbd889415	-0.066688694
15	0x3dd2ce7d	0.10293291
16	0xbcea7b89	-0.02862336
17	0x3cd097ac	0.025462948
18	0x3d8289ee	0.06373964
19	0xbc964f66	-0.018348407
20	0x3d9c32a0	0.076268435
21	0x3af147e2	0.0018408264
22	0xbce0a558	-0.027422592
23	0x3c328090	0.0108949095
24	0x3d18b0cc	0.03727798
25	0x3d5922ad	0.053011585
26	0x3db4ea44	0.08833745
27	0x3da20030	0.07910192
28	0x3d9ebb16	0.077505276
29	0x3dda84f4	0.1066989
30	0xbd3af7a8	-0.04564634
31	0x3d4379b9	0.047723506
32	0x3d9d90f9	0.07693667
33	0x3d938a06	0.0720406
34	0xbd236384	-0.039889827
35	0xbd87dc8c	-0.06633863
36	0x3d492178	0.049104184
37	0x3dc5d32c	0.096594185
38	0x3d4718ee	0.04860776
39	0xbaa7024d	-0.0012741775
40	0xbca9575b	-0.020671537
41	0xbd8b3062	-0.06796338
42	0xbdd62654	-0.10456529
43	0x3cd041df	0.025422035
44	0x3d21ac7e	0.039471142
45	0xbd15d8cf	-0.036583718
46	0x3d832125	0.06402806
47	0x3d39aba2	0.045329697
48	0x3d831d7f	0.0640211
49	0xbd9ff983	-0.078112625
50	0xbd1a30b9	-0.03764412
51	0x3be4cc8e	0.0069823926
52	0xbd68619f	-0.056733724
53	0x3d6460e5	0.05575647
54	0x3d2bda46	0.04195621
55	0x3df64f32	0.12026824
56	0x3d6da7b8	0.058021277
57	0xbc9144b1	-0.01773295
58	0xbd95a8d1	-0.0730759
59	0x3ca30a4a	0.019902367
60	0xbd10ee7a	-0.03538368
61	0xbbe0cecb	-0.006860589
62	0x3da421be	0.08014248
63	0x3cdb3c5f	0.026762186
64	0xbbdaab2f	-0.0066732387
65	0xbd2adf5d	-0.041716922
66	0x3cb15c82	0.021650556
67	0xbb99c921	-0.004693166
68	0xbd48a332	-0.04898376
69	0x3c5c441d	0.013443974
70	0x3cd3e3bf	0.025865434
71	0x3ce3308f	0.027733115
72	0xbd26c79f	-0.040717717
73	0xbd31e264	-0.043428794
74	0xbd4624ae	-0.048374824
75	0x3d05188e	0.03249412
76	0xbd809ee6	-0.062803075
77	0x3d2237ae	0.03960388
78	0x3d9761c5	0.07391695
79	0xbd596545	-0.053075094
80	0x3cf2d12e	0.02964076
81	0xbdbd9f87	-0.09258943
82	0x3d2f04f1	0.042729322
83	0x3dd4ef51	0.103972085
84	0x3d09c219	0.03363237
85	0xbd195523	-0.03743471
86	0x3dc40431	0.09571112
87	0x3d5ea480	0.0543561
88	0x3d4a4efb	0.049391728
89	0x3d8bc7d6	0.06825225
90	0x3d09c247	0.033632543
91	0xbce79928	-0.028271273
92	0xbcef97ac	-0.029247127
93	0xbda6e5eb	-0.08149322
94	0xbbc6c392	-0.0060657943
95	0xbd82d43e	-0.06388138
96	0x3d7033f7	0.058643308
97	0xbc0d06c6	-0.008607572
98	0x3d8b9c1f	0.06816887
99	0x3d473db1	0.048642818
100	0xbda3f3fe	-0.08005522
101	0xbcd5aa20	-0.026082098
102	0x3d1bd3d2	0.038043804
103	0x3da7f155	0.08200327
104	0x3d78491d	0.0606166
105	0xbd808ebe	-0.06277226
106	0xbd465cc9	-0.04842833
107	0xbcff969f	-0.031199751
108	0x3c7b381b	0.015333201
109	0xbdadb717	-0.08482187
110	0x3d955ded	0.072933055
111	0xbc902fe9	-0.01760097
112	0xbc34e26f	-0.011040314
113	0x3d3399f7	0.043848004
114	0x3dfa92ac	0.12235007
115	0xbc1dfad6	-0.0096423235
116	0xbdbb7c85	-0.091546096
117	0x3dc82f61	0.09774662
118	0x3d8f13cb	0.06986197
119	0x3cf65db1	0.030073972
120	0x3e1c50a4	0.15265137
121	0xbd4a06cb	-0.049322885
122	0x3c51641b	0.012780215
123	0x3d14ab0d	0.03629594
124	0xbd8a4d15	-0.067529835
125	0xbd33c0f9	-0.043885205
126	0x3dacbb00	0.08434105
127	0x3d5024d4	0.050816372
128	0xbd62d885	-0.05538227
129	0xbd3c282c	-0.04593675
130	0xbe3c389c	-0.1838097
131	0xbc9048c1	-0.017612817
132	0xbda961ac	-0.082705826
133	0x3d14c7e6	0.03632345
134	0xbd9a76f3	-0.07542219
135	0xbcd6fe88	-0.026244417
136	0xbdf34cb7	-0.118798666
137	0xbde4bd80	-0.11168957
138	0xbdbf9627	-0.09354811
139	0xbc966c55	-0.018362204
140	0xbdcb20e8	-0.09918386
141	0x3bea2465	0.007145452
142	0xbde501bd	-0.11181972
143	0xbc960477	-0.018312676
144	0x3baf3d79	0.0053479043
145	0xbddd560d	-0.108074285
146	0xbdc11850	-0.09428465
147	0xbdd22912	-0.1026174
148	0xbda55118	-0.08072108
149	0xbdabda52	-0.08391251
150	0x3caaf52e	0.020868864
151	0xbdbfb987	-0.093615584
152	0xbd3e5384	-0.046466365
153	0x3d083983	0.033257972
154	0xbcf867f1	-0.030323
155	0xbd99c969	-0.07509119
156	0xbe34832b	-0.17628162
157	0xbca53dc3	-0.020171052
158	0x3bb98825	0.0056619816
159	0xbbadba63	-0.00530176
160	0x3c8c62d7	0.017136974
161	0xbbfed397	-0.0077766883
162	0xbe072a64	-0.13199764
163	0x3d7b8517	0.06140622
164	0xbe092f94	-0.13397056
165	0xbdcc4d46	-0.09975676
166	0xbcc75928	-0.024334505
167	0xbb2c87ea	-0.0026326128
168	0xbda7a1d9	-0.08185167
169	0x3c3ae9e0	0.011408299
170	0xbc9e6fc5	-0.019340405
171	0xbd97df42	-0.0741563
172	0xbd12378b	-0.0356975
173	0x3ca6fedc	0.020385198
174	0x3d3468a7	0.044045117
175	0xbdcb7927	-0.09935217
176	0xbd285a77	-0.0411019
177	0xbcdf260a	-0.027239818
178	0xbe243caa	-0.16038767
179	0xbda826f4	-0.08210555
180	0xbcb493be	-0.022043105
181	0x3a82bb09	0.0009973954
182	0xbc68366a	-0.01417313
183	0x3cffc588	0.03122212
184	0xbdeaca71	-0.11464394
185	0xbda9b60c	-0.08286676
186	0xbdebd943	-0.11516049
187	0xbdef3cb2	-0.116814986
188	0xbd3a37fe	-0.045463555
189	0xbcbf6197	-0.023361964
190	0xbcbfed9d	-0.023428733
191	0xbe23b7c0	-0.15988064
192	0x3cd958dd	0.026531631
193	0xbc11ab5a	-0.008890951
194	0xbdde27cb	-0.10847434
195	0xbd1bffed	-0.038085867
196	0xbdc1e7e7	-0.0946806
197	0xbd513542	-0.05107618
198	0xbe257ec2	-0.16161636
199	0xbc40e5c1	-0.011773528
200	0xbe0da3da	-0.13832036
201	0xbcfc6d29	-0.03081377
202	0xbc8ba017	-0.01704411
203	0x39de43f3	0.00042393766
204	0xbd3c27a4	-0.04593624
205	0xbd9f4408	-0.07776648
206	0x3c34dd7b	0.011039133
207	0xbe1e6550	-0.15468335
208	0xbd897344	-0.06711438
209	0x3c43c995	0.011949916
210	0x3c888ae7	0.016667796
211	0xbc6d5990	-0.014486685
212	0xbdd11fa8	-0.10211116
213	0xbd221e72	-0.039579816
214	0x3c31825f	0.010834306
215	0xbd056e5c	-0.03257595
216	0xbcb48435	-0.022035697
217	0xbd9215ce	-0.07133065
218	0xbd45fe72	-0.04833836
219	0xbd4c08ea	-0.04981319
220	0xbd70791a	-0.05870924
221	0xbd52501c	-0.05134593
222	0xbe1c6b28	-0.15275252
223	0xbe03e604	-0.12880713
224	0xbc425592	-0.011861222
225	0xbc914a46	-0.017735612
226	0x3dec3164	0.11532858
227	0xbd825319	-0.06363506
228	0xbdb6c01d	-0.089233615
229	0x3b630398	0.0034639593
230	0xbe0b4ef5	-0.13604338
231	0xbdb44b47	-0.088034205
232	0xbd15c0d4	-0.03656085
233	0xbd987e38	-0.07445949
234	0xbca54db9	-0.020178663
235	0x3c0f761f	0.00875619
236	0xbd9c547a	-0.076333
237	0xbd8d7e82	-0.06908895
238	0xbc661a65	-0.014044379
239	0x3cd01471	0.025400372
240	0xbe59558c	-0.2122404
241	0xbd851fb4	-0.065001875
242	0x3d8b660b	0.068065725
243	0xbd02f0f0	-0.031968057
244	0xbdfb451d	-0.12269042
245	0xbdde7a30	-0.10863149
246	0xbdde709a	-0.10861321
247	0xbd781d2f	-0.060574707
248	0x3d75c781	0.060004715
249	0x3c421e70	0.011848077
250	0xbcc1fadc	-0.02367919
251	0xbd8a4614	-0.067516476
252	0xbd597914	-0.053093985
253	0xbe045926	-0.12924632
254	0xbd3ddf1f	-0.046355363
255	0xbcbed507	-0.023294939
