synthesizer/models/tacotron/utils/g2p/models/EN/encoder_e10.pth (torch, 810663 bytes, 9 tensors)

emb.weight f4 [32, 128]
000000 61 54 f5 3e 31 9a 4b bf 44 60 26 3f 54 1e eb bf
       0.47915938 -0.7953215 0.6499064 -1.836863
000010 66 87 05 40 e7 f1 13 3f 80 e3 83 3e 0f 8e 99 3f
       2.086389 0.5779099 0.25759506 1.1996478
000020 3e d5 2a 3e 46 09 13 c0 08 10 79 bf 9d bb 54 3f
       0.16682908 -2.297441 -0.97290087 0.83098775
000030 83 13 8f bf 98 5a f7 3f 3a 13 8b bd ce 80 92 3f
       -1.117783 1.9324522 -0.067907766 1.1445558
000040 9e 36 e7 bf 8e f9 be 3f 78 b5 01 bf e2 ad 6a bf
       -1.8063543 1.4919908 -0.50667524 -0.91671574
000050 94 7f e1 3d 40 7b 89 3f 5b ff 62 bf 04 bd 3e 40
       0.11010662 1.0740738 -0.8867089 2.9802866
000060 ed 7d d5 bf 46 4a 00 40 44 26 a0 bf 0a b8 b6 3c
       -1.6679054 2.0045333 -1.2511678 0.022304554
000070 2a 24 52 3f 85 c6 b2 be b1 66 a4 bf a8 b2 ba be
       0.8208643 -0.34917083 -1.2843839 -0.3646443
000080 4c 72 4c 3f fc d5 6c 3f 19 c5 18 3f 9b 7c 17 bf
       0.79861903 0.92514014 0.5967575 -0.5917451
000090 14 db 6a 3f c2 fa 31 be d2 91 00 bf 99 d1 b0 bf
       0.91740537 -0.17380813 -0.50222504 -1.3813964
0000a0 95 fa 93 be 74 3c 64 3f 24 a3 84 bf 97 fd 68 3f
       -0.28902116 0.89154744 -1.0362287 0.9101195
0000b0 47 dc 30 3f b1 2c 92 bf fd 1d 34 bc 97 ab ee be
       0.69086117 -1.1419889 -0.010993478 -0.46615288
0000c0 26 32 12 bf 18 2c 01 bf 46 40 ee bf 10 9a a8 bc
       -0.5710777 -0.50457907 -1.8613365 -0.020581275
0000d0 83 7c 4a 3f 9b ea 41 bf db 9c 8d 3f 0a 35 98 3f
       0.7909624 -0.75748605 1.1063493 1.1891186
0000e0 86 30 dc 3f 93 42 72 bf e3 45 31 c0 f1 33 1e 3e
       1.7202308 -0.94632834 -2.7698905 0.15449502
0000f0 9f f2 9a 3e 46 d3 82 3f 93 8c 89 bf 2f f6 80 bf
       0.3026323 1.0220726 -1.0746025 -1.0075129
000100 2c a4 0c be 33 60 27 3d fa 45 c6 bc 4e 07 e5 be
       -0.13734502 0.040863227 -0.02420329 -0.44732136
000110 04 5e 9c bc 3d e3 5c be 5a f7 ba bf e6 dd 89 3f
       -0.019087799 -0.2157106 -1.4606736 1.0770843
000120 55 56 e5 bf ff b0 97 3f 18 7f d0 be d1 44 48 bf
       -1.7916971 1.185089 -0.40721965 -0.78230006
000130 64 cb 30 3f a5 cf 97 bf a7 d2 c5 bf 87 ea d0 3f
       0.6906035 -1.1860243 -1.5454911 1.6321572
000140 6d c2 58 be ec 91 73 3f 13 01 b6 be ac 00 d3 bf
       -0.21167918 0.95144534 -0.35547695 -1.648458
000150 9f c2 fd be f0 93 73 3e 72 c9 45 3f 1a 3a 00 bf
       -0.49562547 0.23786902 0.77260506 -0.50088656
000160 af 7b b1 3f 05 09 91 3e 1d 94 4a bf 42 d8 c0 3e
       1.386587 0.28327194 -0.7913225 0.37664992
000170 0f f2 59 be 26 97 1c bf 3d e4 8d be 32 04 ea 3f
       -0.21283744 -0.61168134 -0.27713194 1.828253
000180 98 c6 c2 3d 61 52 d1 3d fe 22 70 bf f4 f3 56 3f
       0.09510535 0.10220791 -0.93803394 0.8396599
000190 ec f2 9a bf be 42 9f 3f de b4 80 bd e2 d5 96 3f
       -1.2105384 1.2442243 -0.06284498 1.1784022
0001a0 bf fe fb 3e e0 f3 e3 3f 93 9e ad 3e 7e 8b 34 bf
       0.49217793 1.78088 0.33910045 -0.7052535
0001b0 ab c9 91 3a b2 89 17 c0 35 08 af be 5a b0 9e bf
       0.0011122724 -2.3677793 -0.3418595 -1.2397568
0001c0 6a 3d 01 bf ba 5e 8d 3f 2f 09 16 bf f4 08 84 3e
       -0.50484335 1.1044533 -0.58607763 0.2578808
0001d0 aa 32 c4 be dc d9 25 be d1 7f f9 be d6 74 c2 3f
       -0.38319904 -0.16196388 -0.4873033 1.5191905
0001e0 f2 54 cb 3f 04 06 ba 3e 75 f9 7e 3f 34 9c 35 3f
       1.5885298 0.36332715 0.9959939 0.7094147
0001f0 f9 19 6a bf e0 31 13 3f 01 38 46 3f cd 62 e3 3f
       -0.9144588 0.5749798 0.77429205 1.7764527
000200 0c 34 fa 3f c1 f8 e0 3e 84 20 81 3f 7a 12 62 bf
       1.9547133 0.43939784 1.0088048 -0.88309443
000210 59 14 f2 be bf 31 c1 3f 17 09 b9 bf fc 71 57 be
       -0.4728115 1.5093306 -1.4455899 -0.21039575
000220 14 81 ba 3f 9f 45 d7 3f 09 bb 27 3f 2a d4 4e bf
       1.4570642 1.6818122 0.6551977 -0.80792487
000230 0a 8f 89 3f ef cf d7 3e 94 75 17 3e a7 e4 89 3f
       1.0746777 0.42150828 0.14790946 1.0772904
000240 ff 38 ca bf c4 9a ae be d1 f4 ff bd 46 a7 c0 bd
       -1.5798644 -0.34102452 -0.12497867 -0.09406905
000250 72 1e a8 3d af ee cb bf 46 12 09 3f 1b d4 9f bf
       0.08208932 -1.5932215 0.5354351 -1.2486604
000260 22 5a bf 3e 42 2b 2a bf 80 63 d1 3f ca 7c c5 3f
       0.37373453 -0.66472256 1.635849 1.5428708
000270 a1 7a cf bf fc 12 a5 bf f2 e1 8a be e5 0d b7 3f
       -1.6209298 -1.2896419 -0.27125508 1.4301115
000280 83 89 4f 3f 51 57 e0 3f 36 92 a6 3e a3 93 de be
       0.810692 1.7526647 0.32533425 -0.43472013
000290 8d bf 07 3f 6a 80 b9 bf 44 d1 aa 3d 2f 83 26 40
       0.5302666 -1.4492314 0.083406955 2.6017568
0002a0 6c 5e 21 be 9b e1 7f 3f 71 48 10 3e 3d d5 24 3f
       -0.15758675 0.9995362 0.14090134 0.64387876
0002b0 97 6d a3 be 30 84 f2 be 52 2b 11 40 31 e6 00 3f
       -0.31919548 -0.47366476 2.268269 0.50351244
0002c0 3e 21 9c 3e ba 62 21 40 e1 65 c0 3e fb c9 21 3d
       0.30494112 2.5216508 0.37577727 0.039499264
0002d0 12 27 10 3f 2a 9f 8d 3f a7 e0 9b 3f 9f 3b 2e be
       0.56309617 1.1064198 1.2177933 -0.17014931
0002e0 fe 5a c3 bf 83 0a 3e bf 20 f6 c1 3f 84 f5 a2 3e
       -1.5262144 -0.7423479 1.5153236 0.3182794
0002f0 7b 80 de 3e 63 bf 4a bf 5c b5 81 bf bd d1 6d bf
       0.43457398 -0.7919828 -1.0133471 -0.9289816
000300 b7 f2 bf 3f 5b 53 b3 bf b5 57 24 3f 30 d8 c9 3f
       1.4995946 -1.4009813 0.6419633 1.57691
000310 27 95 f6 3c 55 8f 1e 40 45 89 cb bf 80 8a f5 3c
       0.030100418 2.4774983 -1.5901266 0.029973269
000320 bf 2e 3e 3f 86 c4 43 3e 23 db d3 be 1b e8 18 3f
       0.7429008 0.19117936 -0.41378126 0.59729165
000330 c6 a9 d5 be 32 bc 1c be db 17 e5 3e 39 54 86 3f
       -0.4173109 -0.15306166 0.44744763 1.0494453
000340 c0 8a 09 40 21 76 8c be 26 43 8e bf e8 fe 80 3f
       2.1490936 -0.27433875 -1.1114242 1.0077791
000350 87 a5 ab be f7 27 ab bf 62 b1 4d 3f c0 41 5b bf
       -0.33524725 -1.3371571 0.8034879 -0.856472
000360 e4 87 e0 be 8f b4 0f be ca f0 90 bf 39 41 da 3f
       -0.43853676 -0.14033721 -1.1323483 1.7051154
000370 e8 47 b0 3e 4b 2c 21 3f 52 35 e7 3d 40 38 0c bf
       0.3442986 0.6295821 0.11289467 -0.5477333
000380 4f 66 a0 bf 7d 55 fe be d1 b4 2b bf 07 b2 fa 3e
       -1.2531222 -0.49674597 -0.6707278 0.4896395
000390 b3 86 02 bf c5 17 ec bf a9 8b 05 bf 3d 80 64 3f
       -0.50986785 -1.8444754 -0.5216623 0.89258176
0003a0 1c 8c 64 3f 2f 5a 00 40 62 b4 4c bf de 50 77 be
       0.8927629 2.0055044 -0.7996274 -0.24151942
0003b0 9f 05 9d 3f d6 5b a6 3e 9f a0 19 bf e0 ef 7e bf
       1.226734 0.3249194 -0.60010713 -0.9958477
0003c0 d5 0a 54 be 7e 21 56 be 86 95 62 bf cb 4e fd 3d
       -0.20707257 -0.20911214 -0.88509405 0.12368544
0003d0 dd 5e 07 c0 d5 2b b2 3f a0 2f a2 3f 24 a6 22 be
       -2.115165 1.3919626 1.2670784 -0.1588369
0003e0 95 04 8f bf 13 ee 81 3e 7a 5a 15 c0 a2 bb 48 3e
       -1.1173273 0.2537695 -2.3336473 0.19602826
0003f0 ec 68 72 3f 4d f0 a8 3f f6 e5 8e bf b2 a8 23 3f
       0.9469135 1.3198334 -1.1163929 0.63929284

rnn.weight_ih_l0 f4 [384, 128]
000000 c6 b9 e8 bd 67 21 ea 3d ab 31 af 3d f0 04 90 3c
       -0.113635585 0.11432152 0.08554395 0.01758048
000010 84 12 ff 3a c0 85 b4 3d da ce 2e bd 32 65 e7 3b
       0.0019460474 0.08814573 -0.042677738 0.007061624
000020 a2 05 03 bb 51 be b6 bd cf 47 80 3d 82 b5 05 bd
       -0.001999237 -0.08923019 0.062636964 -0.032643802
000030 9a 9b 64 3c cd 97 0a 3c 0f b7 6b 3b 30 8d 94 3d
       0.013953114 0.008459044 0.0035967266 0.07253492
000040 f1 c7 98 bd 28 23 7f 3c e9 7d 88 3d be cb 8a bd
       -0.07460011 0.015572347 0.066646405 -0.06777142
000050 0c 94 86 bd 7b e4 04 be e2 8f 2e 3d 5e 41 6c 3c
       -0.065712065 -0.12977783 0.042617686 0.014419882
000060 4b 3f 67 bc 9e fb 6f bd 35 23 d3 bc 99 e0 0e be
       -0.014114211 -0.05858957 -0.025773624 -0.13952865
000070 60 a0 9d 3d f8 6c 9c 3d 2e 63 37 3c ec 2e 6f 3d
       0.07696605 0.07637972 0.01119308 0.058394358
000080 19 78 4c 3d f7 8e a6 3d cc a5 a7 3d 2b e0 27 bc
       0.04991922 0.08132737 0.0818592 -0.010246317
000090 59 3b 04 3e e5 62 a5 bc 8a 32 92 3d f2 e9 91 3b
       0.12913264 -0.020188758 0.07138546 0.0044529373
0000a0 e9 95 91 bd ec 56 93 3d 97 94 81 3d 4c d2 c0 bc
       -0.07108671 0.071943134 0.063271694 -0.023537777
0000b0 d5 42 3e bd 97 bf a2 3c a7 4a de 3d 02 04 df bc
       -0.046450455 0.019866748 0.108540826 -0.02722359
0000c0 85 17 f2 3d 88 59 20 bd 78 14 62 3d 91 f8 c0 39
       0.11820892 -0.039147884 0.0551953 0.0003680629
0000d0 35 d1 80 3d c4 67 6a bc d1 18 21 3d ac fd fb 3d
       0.06289903 -0.014306966 0.039330307 0.123042434
0000e0 bf f0 34 3d c6 b0 ba bd 17 61 4a bc c0 82 d9 3d
       0.044174906 -0.09115748 -0.01235225 0.10620642
0000f0 05 d7 9c bd a6 c3 77 bd 89 7d 5e 3b f3 76 20 bd
       -0.07658199 -0.06048932 0.0033949337 -0.03917594
000100 fb 02 ec bd f3 84 05 bd d4 c7 ff 3c b8 99 a6 bd
       -0.11524006 -0.032597493 0.031223215 -0.08134788
000110 30 de a8 3d 04 0e a9 3c 41 ad 56 3d 6f 4a 08 be
       0.08245504 0.020636566 0.05241132 -0.13309644
000120 fc cc db bc 5f 42 23 3d 11 ae d6 3d c6 0f c3 3d
       -0.026831143 0.03985822 0.10482419 0.09524493
000130 e5 ec 03 bd f1 bc 1b bd e3 a5 f0 3d 18 05 ef bc
       -0.032208342 -0.038021985 0.117503904 -0.029177234
000140 67 36 05 bd b8 e4 26 bc d3 93 81 3d ea 0f a9 bd
       -0.032522585 -0.010186367 0.06327023 -0.082549885
000150 5e 40 12 3d e6 84 d9 3d 28 64 22 bd 85 5f 83 bd
       0.035705917 0.106210515 -0.039646298 -0.06414703
000160 dd 21 ec bc 07 df 06 3e 87 69 6a bd 89 bf d6 3c
       -0.028824741 0.13171016 -0.057229545 0.026214378
000170 72 c9 ff bc 50 38 83 3d 6e 74 f7 3d da 6c 89 bd
       -0.031223986 0.06407225 0.12082754 -0.06710215
000180 ac 49 f5 bc 7f 9d 0f be f2 aa 7c bd 8f 5e 65 bd
       -0.029942356 -0.14024924 -0.061686464 -0.05599838
000190 f1 25 6d bd 5c e0 ba bc fd d2 d9 bd 49 17 a5 bc
       -0.057897512 -0.022812061 -0.10635946 -0.020152705
0001a0 3f 06 13 3d 0c be 76 bb ea 46 cd 3b 3f 8d 97 3d
       0.03589463 -0.0037649898 0.006264557 0.073999874
0001b0 02 11 58 bd ef 9e 84 bd 05 cf d1 3b de 8f 98 3d
       -0.052750595 -0.06475627 0.0064028525 0.074493155
0001c0 96 1d 18 bd 4a cf c1 bd 2f dd d0 3d 99 ef 97 bd
       -0.03713759 -0.094633654 0.101984374 -0.074187465
0001d0 53 bb 39 bd c4 77 84 bd 2d 2d 0c be 94 49 21 3d
       -0.045344662 -0.06468156 -0.13689108 0.03937681
0001e0 0b 33 b8 bd 17 6a f5 bd 16 ed 0f bd c8 c8 c3 b9
       -0.08994111 -0.11983126 -0.035138212 -0.00037342892
0001f0 7b f7 1d 3d 69 fe 07 bc 86 ba d9 3c 99 9e fe 3d
       0.038566094 -0.008300402 0.0265782 0.12432594
000200 bd 96 4c 3d 56 bd 66 bd f0 74 a5 bc 95 5d 52 bd
       0.049948443 -0.05633291 -0.020197362 -0.051358778
000210 dd 9c 6a bd 4c e0 92 bd c0 e1 a0 3c 99 6b 80 3d
       -0.057278503 -0.071716875 0.019638896 0.062705226
000220 35 3f 98 bc 2e 34 fa 3d 9b c1 b4 3d 79 05 2f 3c
       -0.018584827 0.12216984 0.0882599 0.010682457
000230 d7 63 ce bd f2 59 ae 3d 9a 4c 64 3d bd 11 f4 3b
       -0.10077637 0.085132495 0.055737115 0.0074484036
000240 b2 20 d1 bd 43 26 df 3c 11 d5 10 be e0 ef d6 bc
       -0.10211314 0.027239924 -0.14143778 -0.026237428
000250 05 43 f8 bc 4f 5f 0d 3c 58 cd 93 3d 24 8a 6b 3c
       -0.030305395 0.00862868 0.072169006 0.014376197
000260 b8 66 71 bd e5 f1 c6 3d 9f 28 c9 3d 19 2f df bd
       -0.05893585 0.097141065 0.09822201 -0.10897655
000270 67 f5 be 3d b1 4d 37 3d a5 b9 19 bd 3e 1b 84 bb
       0.093241505 0.044751827 -0.03753056 -0.004031568
000280 e4 b0 7f bc 84 63 27 3d 0f ad b4 bd 55 3e f4 3b
       -0.015606139 0.04086639 -0.08822071 0.0074537196
000290 59 5d fb 3b c2 df 59 3c b7 49 94 bd 90 8a 20 bd
       0.00767104 0.013297977 -0.072406225 -0.039194643
0002a0 8f 41 d7 bd 49 a7 8a 3d 03 c3 34 bd d4 b5 1c 3c
       -0.10510551 0.06770188 -0.04413129 0.009564836
0002b0 5a 3a 19 3c 03 7a ff bc 0e 30 54 3d e9 c7 2b bd
       0.009352291 -0.03118611 0.05180364 -0.041938696
0002c0 4e fc b2 bd 05 07 48 3c b4 96 85 3d 53 b0 32 3d
       -0.087395296 0.012208705 0.06522885 0.043625187
0002d0 22 ed c0 bc 4d 86 0e 3d f3 8b 2d bd c1 60 af bd
       -0.023550574 0.034796048 -0.042369794 -0.08563376
0002e0 46 eb 10 3d 63 73 cc bb 1f b3 fb bd 03 a9 7c bd
       0.035380624 -0.006239341 -0.12290024 -0.06168462
0002f0 35 1e 6a bd cf 27 28 bd 2b ac 14 bd cf 23 b3 3d
       -0.057157714 -0.04105359 -0.036297005 0.08747064
000300 ac 92 81 bc be b8 8e bd b2 f1 38 bd cf 99 74 bd
       -0.015817009 -0.069688305 -0.045152374 -0.059716996
000310 6a 73 c9 bd 1a b0 df bd a5 b5 7d 3c 9d b5 c2 bc
       -0.098364666 -0.109222606 0.015485202 -0.02376824
000320 54 d7 ac 3c 7d 2a c6 bc 08 c7 2f bc 71 f6 62 bd
       0.02109877 -0.024190182 -0.010728605 -0.055410806
000330 bb 81 83 bd f9 e0 25 bd b9 a8 85 bd ae 18 6b 3d
       -0.064212285 -0.040497754 -0.06526322 0.057396583
000340 c9 57 4d 3d 24 d2 99 3d 32 92 76 3c 30 cd 1c 3d
       0.050132547 0.07510784 0.015049504 0.03828162
000350 db 8a 6e 3c c5 c8 ed 3c e4 3d e0 bd 83 d0 0c 3d
       0.014559473 0.029026398 -0.10949305 0.03437854
000360 04 49 89 3d 19 bc a2 bc cb 1a cb bc 69 fb ad bd
       0.0670338 -0.019865083 -0.02479305 -0.08495218
000370 ee 82 02 bc 6f df 4d bd 53 0c e0 3d 10 c4 bd bd
       -0.007965786 -0.05026191 0.10939851 -0.092659116
000380 96 65 f9 3c 5c 57 33 3d 04 c8 8f 3d eb 28 35 3d
       0.030443948 0.043784484 0.07020572 0.044228476
000390 73 e6 c6 bd 76 14 87 3d 03 ca b9 3d 2a 27 7a bd
       -0.097119235 0.065956995 0.09071734 -0.061072506
0003a0 99 41 f7 bc ad 82 81 3d 64 43 a0 bc 42 a5 18 bd
       -0.030182647 0.063237526 -0.019563384 -0.037266977
0003b0 ab 0f 14 bd ad 07 b2 3d 80 61 a8 bc 06 e6 22 bd
       -0.036147755 0.0869287 -0.020554304 -0.03977015
0003c0 85 8d 21 bd 4c 3d aa 3d 43 87 b2 3d 59 7f a9 3c
       -0.039441604 0.08312473 0.087172054 0.020690607
0003d0 70 57 3c bd dd 0a 84 3b e9 7a 06 3d 89 b8 b7 bc
       -0.045981824 0.0040296153 0.03283206 -0.02242686
0003e0 3a e0 0c 3e 08 8a 88 bc f6 cc 6a bc 95 3e 6b bd
       0.1375741 -0.01666738 -0.014331093 -0.05743273
0003f0 25 99 a8 bc 5c 34 a2 bd ef 55 c6 bb 4d 00 fb bb
       -0.020580838 -0.07920143 -0.0060527246 -0.007659948

rnn.weight_hh_l0 f4 [384, 128]
000000 a7 c1 a1 bd 0e bb c2 3c 64 9d 12 3e 84 f5 cb 3c
       -0.078982644 0.023770835 0.14317852 0.024897344
000010 c5 a9 69 bc 48 ef dc bc 59 85 82 bc 58 24 74 be
       -0.014261668 -0.026969567 -0.015932726 -0.23841989
000020 3e a4 5d bd 60 26 65 3d f2 f3 c5 3d d7 0d a2 3d
       -0.05411171 0.0559448 0.096656695 0.07912796
000030 a9 02 f5 3d 59 6e 89 3d 94 db f6 3d e0 ef 3e 3d
       0.11963398 0.067105 0.120536 0.04661548
000040 bb 39 44 3e 58 dc 7a 3d 35 31 d2 bd c4 8a a5 bd
       0.19162647 0.061245292 -0.10263292 -0.08083108
000050 e6 43 e2 3d 6d 17 98 bd 30 45 b5 3d 5e f1 b8 3d
       0.11048107 -0.07426343 0.08851087 0.09030412
000060 c4 ec f9 bc 9a 6e 28 3e 12 c8 4d 3e d0 98 a0 3d
       -0.030508406 0.16448441 0.20095852 0.07841647
000070 ae c8 a6 bb 9d e7 f1 bd 5d 87 5e bd 53 f1 c5 3c
       -0.005089841 -0.11811755 -0.05432831 0.024162924
000080 97 b6 ca 3d 4d fc d6 bb 88 ae 1a bd b8 ce 7c 3d
       0.098981075 -0.0065608383 -0.037764102 0.06172058
000090 60 3f ea 3d b0 c4 85 bd 47 7c 35 be e7 eb 83 3c
       0.11437869 -0.06531656 -0.1772319 0.016103698
0000a0 c5 a9 ac 3c 43 61 33 3d 24 2b 3e be d6 e4 86 3a
       0.021077046 0.043793928 -0.18571144 0.0010291587
0000b0 c9 6a af bd cd f0 88 bb 00 65 fe 3c cb b0 ac bd
       -0.085652895 -0.0041790963 0.03105402 -0.08432158
0000c0 5d 13 a9 3d e0 d9 eb bc d6 84 c6 bd 5f 0c 06 3d
       0.082556464 -0.028790414 -0.09693305 0.03272664
0000d0 32 8c 17 3d f7 cb 16 bd 9a 12 99 bd 22 fe 22 be
       0.036998935 -0.03681561 -0.07474251 -0.15917256
0000e0 ae 82 c8 bd 59 60 b6 3c 26 c8 e8 bc d2 73 2a bd
       -0.0979055 0.022262739 -0.02841575 -0.04161436
0000f0 cb ee 0f 3e 6b c4 19 be 9c 17 07 bd db 61 fb bc
       0.14055936 -0.15016334 -0.0329815 -0.03068631
000100 88 e0 be bd cf df 20 bd 10 81 28 be a6 f4 51 3d
       -0.0932017 -0.03927594 -0.16455483 0.051258706
000110 0d c2 3a 3e 6f bf d0 3c 0f 00 34 bd 2e 63 0b 3d
       0.18238087 0.025481908 -0.04394537 0.034030132
000120 39 ee 9e bd 48 00 95 bd d1 fb e4 3c 7f a5 1d 3d
       -0.07760281 -0.07275444 0.027952107 0.038487907
000130 d8 4a e2 bd be 64 07 3e 16 55 00 be e9 5c 99 bd
       -0.110494316 0.13222024 -0.12532458 -0.07488424
000140 d8 17 22 bd 7f 18 11 be 76 51 8d bd f9 ca 34 3d
       -0.03957352 -0.14169501 -0.06900303 0.044138882
000150 16 76 5c bd 22 20 51 3d ae 82 1f 3d 3c 63 07 3d
       -0.053823553 0.051056035 0.038942985 0.03305362
000160 86 13 fa bd d4 aa 54 3c ee 62 d6 3d 2a b4 f8 bd
       -0.12210755 0.012980182 0.10468088 -0.121437386
000170 b5 71 ad bd dc a6 57 3d 75 eb 5b bd f6 c8 da bc
       -0.084689535 0.052649364 -0.053691346 -0.026707154
000180 c5 39 ae 3c bf 6d 12 be f1 21 49 3c c7 24 83 3c
       0.021267781 -0.14299677 0.012276159 0.016008748
000190 36 4f 77 3c ef e2 72 3d 1e 16 86 3c e8 1a 01 be
       0.015094569 0.059298452 0.016367968 -0.1260792
0001a0 d3 ba 85 3c 73 da c6 bc 07 99 c4 bd 2c 16 46 bd
       0.016324436 -0.024274087 -0.095995 -0.04836099
0001b0 40 d0 ed 3c e4 67 d0 bd b1 0f cd 3d 51 0f 3c bd
       0.029029965 -0.101760656 0.100127585 -0.045913044
0001c0 c8 a5 c1 3d 9a a9 76 3d d9 23 fb bc 03 f4 ae bd
       0.094554484 0.06022034 -0.030656742 -0.08542635
0001d0 ad ea 3b bd f2 e0 01 3d 6d b2 c6 3c 5f 67 64 bc
       -0.0458781 0.031708665 0.024255002 -0.013940661
0001e0 92 c4 c9 3d d2 74 cb 3d b6 aa 45 3c f5 17 d1 3d
       0.09851946 0.09934391 0.012064626 0.102096476
0001f0 e0 14 bb 3c ec 9e 67 bc d7 e2 ae bd b7 7f d4 3d
       0.022837102 -0.014137011 -0.0853936 0.10375922
000200 5b 62 85 3d 59 b1 c8 bb 56 1c 64 bd 23 da 8b 3c
       0.065129004 -0.006124657 -0.055691086 0.01707179
000210 12 fd d9 bd 3e b0 8a bb 5e 6e af bc 63 03 97 3d
       -0.106439725 -0.0042324355 -0.021414932 0.07373693
000220 18 8b b4 bd 00 2e 65 3d d5 10 e4 3d 29 8b 94 3d
       -0.088155925 0.055952072 0.11136023 0.07253105
000230 fb 43 8b bd 82 86 5f 3d ba cb 35 bc 56 f5 9c 3c
       -0.068000756 0.054571636 -0.0110959355 0.019159954
000240 e2 17 e2 3c 04 64 fd 3d 0c d7 90 bd 6a ca 09 be
       0.027599279 0.12372592 -0.07072267 -0.13456121
000250 f5 2a 9a 3d 3b 56 e9 bd ad c2 aa 3c f7 c2 aa 3d
       0.07527725 -0.113934 0.020844782 0.08337968
000260 d5 7d b6 3d 6e c2 2c 3d ee e7 d6 3c 3c 0b 88 3d
       0.08910719 0.04217761 0.02623364 0.06642768
000270 ac 98 9c 3d 52 07 86 bd a1 fd 6b bd b3 45 1b bd
       0.07646307 -0.06544365 -0.057614926 -0.037908267
000280 58 69 76 bd 63 5b b3 bc 69 ec 30 3d 07 ce 68 ba
       -0.060159057 -0.021894163 0.04319421 -0.0008880798
000290 71 6a 9c 3d 78 c2 1f 3d c6 ea 56 bd bd 85 6e bd
       0.076374896 0.03900382 -0.05246999 -0.05823301
0002a0 6a 8e cd 3b e4 f0 d2 bd c7 cd 18 b6 5a 75 73 3d
       0.0062730806 -0.102998525 -2.2769543e-06 0.059438087
0002b0 ad 7e a5 bb 53 1f 14 bd 4c d7 16 bc db 77 c3 3c
       -0.0050505013 -0.036162686 -0.009206604 0.023860862
0002c0 43 a4 9e bc ea 89 93 3d c9 7a 87 bd bd f0 9d bb
       -0.019365435 0.072040394 -0.06615216 -0.004819958
0002d0 85 a6 7e 3d 57 35 b6 bd bb b7 16 bc f6 6e 3c bd
       0.062170524 -0.088968925 -0.009199078 -0.046004258
0002e0 d6 a5 fd bc 44 10 aa 3b 87 6e 93 3d e2 ac 1d be
       -0.030962866 0.0051899273 0.07198816 -0.15397981
0002f0 4b ad b9 3d de 4b 19 bd 63 e7 d8 bc db 0c 5b 3d
       0.09066256 -0.03742587 -0.026477521 0.053479057
000300 c9 33 2d 3d 2f bc 43 bc 1f db aa bd ca 57 aa bb
       0.042285714 -0.011946722 -0.08342575 -0.0051984536
000310 5f 9f 93 3d e0 c0 f1 bc 29 12 c5 bd 1f 72 95 bd
       0.07208132 -0.029510915 -0.096226044 -0.072971575
000320 cf 2f 34 bd 86 11 b2 39 c4 1e b7 3d 8d 67 b8 bd
       -0.043990906 0.00033963862 0.08941415 -0.09004126
000330 56 71 bd 3d ab 8b 1c bc fa b2 e3 ba c7 49 8f bd
       0.09250133 -0.009554784 -0.0017372065 -0.06996494
000340 84 61 38 be a4 54 16 3d 8d 9e 1a bc fe 07 e6 bc
       -0.1800595 0.036701813 -0.0094372155 -0.028079983
000350 6f b3 17 3d b9 2b 46 3b fd 61 1e bc c5 03 33 bd
       0.037036356 0.0030238463 -0.009666917 -0.043704767
000360 d5 5f d7 bc 39 dc e5 bc 21 e9 a7 3d 55 a9 bc 3d
       -0.026290813 -0.028059112 0.08198763 0.09211985
000370 38 0e 19 3c a2 a5 aa 3d 89 f2 7b bd 28 e4 76 3d
       0.009341769 0.08332373 -0.061510596 0.06027618
000380 e3 27 b4 3d 43 0d 3a 3d ed ec 80 bd bd c9 50 3d
       0.0879667 0.045422804 -0.0629519 0.050973643
000390 3b 69 a3 bc 6e fa 07 bd 04 27 a5 bc 7d 83 16 3d
       -0.019947639 -0.033197813 -0.020160206 0.03674649
0003a0 0a dc af bc b8 89 9e 3d 2e 33 4f bc 34 17 10 bc
       -0.021467227 0.077411115 -0.0126464795 -0.008794595
0003b0 08 ed 00 3d c2 90 ee bb a2 40 83 3c 69 8c e3 bc
       0.03147605 -0.00728044 0.01602203 -0.027776914
0003c0 10 5c bc 3d a2 1e 81 bd d5 8c 8f bd a7 55 c8 bd
       0.09197247 -0.06304671 -0.070092835 -0.09781962
0003d0 b4 a5 32 bd 4d a4 e6 bc 10 cd 83 bc 98 91 f5 bb
       -0.043615058 -0.028154517 -0.016088992 -0.007494163
0003e0 14 d0 83 bd d8 94 0b be 34 25 01 3b f4 6d 42 3d
       -0.06436172 -0.13630998 0.0019706013 0.04746814
0003f0 e7 58 9d 3d 13 de 8d 3c eb a7 c7 3c 28 71 99 bd
       0.076829724 0.017317807 0.024372062 -0.07492286

rnn.bias_ih_l0 f4 [384]
000000 2b 2e d0 3d 19 e8 27 bc 7f 6c 06 3d 01 9c 2f 3d
       0.10165056 -0.0102482075 0.032818314 0.042873386
000010 8a 87 17 3d 52 66 03 3e fc 7a 1b 3e 8a 12 9c 3d
       0.036994494 0.12832001 0.15183634 0.076207235
000020 a3 2e 9f 3d 20 ce 04 3e 65 6b af 3d 32 ec 85 bd
       0.07772567 0.12969255 0.08565406 -0.06539191
000030 70 f9 84 3d de 03 b5 3d cf 85 8a 3d 35 c3 55 3d
       0.06492889 0.08838628 0.06763803 0.052188117
000040 17 c1 d7 3d aa fb 15 bd 03 c4 26 3d 67 1e 1c 3e
       0.10534876 -0.03661696 0.040714275 0.15245973
000050 ad 23 14 3d 01 40 cf bc 6d c1 e4 3d db 7c a9 bc
       0.036166836 -0.025299074 0.111697055 -0.020689419
000060 cc 21 b0 3d ca 4a 68 3d 40 81 8c 3c b8 1d c8 3d
       0.08600196 0.05671195 0.017151475 0.097712934
000070 f2 0b 1a 3d af e8 ff 3c 4b 74 91 3d f8 50 2f bd
       0.03760905 0.031238882 0.07102259 -0.042801827
000080 6a 8a 8d 3d 31 d5 05 3e ac 01 c6 3d 33 9d ce 3b
       0.06911166 0.13069607 0.09668288 0.0063053607
000090 20 6f 06 3e 85 b1 0a 3e 30 18 b0 3c 1d c3 c6 bc
       0.13128328 0.13544281 0.021495908 -0.02426296
0000a0 56 fa 60 bd 28 f2 0d 3c ea c4 ed 3d c3 1d c6 bc
       -0.05492624 0.008663692 0.11609824 -0.024184113
0000b0 ff bc f0 bc 56 90 a3 3d 0a b4 3a 3d 09 37 d8 3c
       -0.029386995 0.07986514 0.045581855 0.02639343
0000c0 8c 77 cc 3d 99 0b f1 3c a1 11 f0 3c d8 d4 fa 3d
       0.09983739 0.029424476 0.029305281 0.12247628
0000d0 d7 b5 56 3d 3d 48 3a bc 7f f3 28 bd 6d 7c 10 3e
       0.05241951 -0.011369762 -0.04124784 0.14109965
0000e0 b7 51 24 3d bf 3f 94 3d 95 67 21 3d b0 8a 8a 3d
       0.04011699 0.07238721 0.039405424 0.06764734
0000f0 ec 9d 52 3c c6 e6 ad 3d cd f5 fa 3c 16 ec 03 3d
       0.012855034 0.08491282 0.030634785 0.03220757
000100 7d 4f 8b 3d ed 60 5d 3d 58 ab 2b 3d c3 d4 82 bd
       0.068022706 0.054047514 0.041911453 -0.06388237
000110 64 d9 d8 3d 90 ba 75 bd 36 f6 02 3c 9f f7 0d 3d
       0.10588339 -0.059992373 0.007993272 0.034659978
000120 da d9 f0 3d 9b 56 a8 3d 46 49 4b 3c 28 ba ae 3d
       0.11760302 0.08219644 0.0124076065 0.085316
000130 42 6e e3 bc 0e 1c c3 3d 57 09 35 3d 0e 2d 80 bd
       -0.027762536 0.095268354 0.04419836 -0.062585935
000140 86 57 08 3e 48 78 d3 3c ad 1b f6 3d a7 86 e1 bc
       0.13314638 0.02581419 0.120169975 -0.027530028
000150 69 7a 63 3d 5b 94 91 bb 0d 82 34 3e 0b c2 38 3d
       0.05553666 -0.004442734 0.17627735 0.04510693
000160 34 b0 90 3c cb e6 77 3d 5d f6 85 3d 1c 82 07 3e
       0.017662145 0.060522836 0.06541131 0.13233227
000170 14 65 ea 3c 3a 0f ac bc 63 43 f2 ba 9e 4d a1 3c
       0.02861265 -0.021003354 -0.0018483218 0.019690331
000180 cf 65 ea 3d 74 0c b8 3d 53 31 70 3d 56 52 17 3e
       0.114452 0.0898675 0.05864079 0.14777502
000190 70 16 cb 3d bf 75 fc bc 31 96 f1 3d 06 a0 d3 3b
       0.09916389 -0.030817864 0.11796225 0.0064582853
0001a0 8f b6 47 bd c8 e3 7d 3d 6b 62 4c bd df bf 05 3e
       -0.048758086 0.061984807 -0.049898546 0.13061474
0001b0 3a e4 f5 3d f6 4d 21 3c 73 81 8c bc 1b 96 01 bd
       0.120064214 0.0098452475 -0.01715157 -0.031637292
0001c0 08 75 16 3d 1c 1f 6b 3d be 3b 4c 3d 7d 99 0b 3e
       0.036732703 0.057402715 0.049861662 0.1363277
0001d0 f5 65 e9 3d 9b 23 21 3d 99 d0 ca 3c 1b f8 3a bc
       0.113964 0.039340597 0.02475767 -0.011411692
0001e0 a9 ab 0c 3e e2 0e da ba d6 16 a0 3c db 90 b0 3c
       0.13737358 -0.0016636516 0.019542139 0.021553447
0001f0 2c 90 f9 3d 91 45 7c bc 0b b2 2c 3e 0d c6 92 3d
       0.12185702 -0.015397445 0.16864793 0.071666814
000200 5f 63 b2 bd 50 3d 00 3c 3d 75 f9 bd 6f 60 fa 3b
       -0.0871036 0.007827118 -0.121805646 0.0076408903
000210 a3 ac d2 bc f2 6f 82 3c c5 b6 24 bd 5b 75 7a bd
       -0.025717085 0.01592252 -0.040213365 -0.061147075
000220 90 16 16 be 6a 8a 0d be b3 e5 df bc 5d 84 c2 bd
       -0.14657044 -0.13822332 -0.027331209 -0.094979025
000230 92 fa 26 be 96 4f 51 3d f3 a2 14 be 54 d9 5d bd
       -0.16306522 0.05110129 -0.14515285 -0.05416234
000240 ee c6 c9 bd c1 7d 99 bd be 50 1c 3d 0e 4f 6e be
       -0.09852396 -0.07494689 0.03816294 -0.23272344
000250 f8 dc ce 3d e6 4f d6 bd f3 4d 71 bd 77 54 1d bd
       0.1010074 -0.10464458 -0.05891223 -0.03841063
000260 0e c3 02 be 50 38 0c bd ae a3 01 3d a2 a1 82 3d
       -0.1276972 -0.03423339 0.031650238 0.06378485
000270 55 60 2d bd f3 2b 78 bd 9e 42 88 3d fe f9 3d 3d
       -0.042328198 -0.06058879 0.06653331 0.04638099
000280 eb 43 38 3d 68 4a 81 bd a7 34 b8 3d 48 a1 d1 ba
       0.044986647 -0.0631302 0.08994418 -0.00159935
000290 16 93 53 bd de 9d 28 3c d1 77 dc bd 57 54 54 3c
       -0.051653944 0.010291545 -0.10765041 0.012959561
0002a0 8d b4 ba bd ea ff 52 3d 26 fa d8 3b ed da bc bd
       -0.091164686 0.05151359 0.006621617 -0.09221444
0002b0 03 2b de 3b 40 7f a6 bd f2 73 d3 bc e1 c7 96 bd
       0.0067800297 -0.0812974 -0.025812123 -0.073623426
0002c0 18 d5 3a bd fe d7 a9 bd bd e2 05 bd c1 09 b2 bd
       -0.04561338 -0.0829315 -0.032686938 -0.08693267
0002d0 99 cb 8b 3b 3f 91 73 bd 37 bf 8d 3a 45 3c cc bb
       0.004266214 -0.05946469 0.0010814433 -0.0062327706
0002e0 ca 15 cb bd 22 70 ba bd bf e4 56 bd 08 6d d4 bd
       -0.09916265 -0.09103419 -0.052464243 -0.103723586
0002f0 c2 31 26 be c1 7f be 3b f8 9e b9 3c e5 8a 9b bb
       -0.16229919 0.0058135693 0.02265881 -0.004746782
000300 2c 51 19 bd 53 d9 3a bd b3 52 71 bd 9c e6 1e be
       -0.037430927 -0.045617413 -0.05891676 -0.15517658
000310 65 e9 11 be 2a 66 3e 3d a1 73 f2 bb d8 16 ed 3c
       -0.14249189 0.04648415 -0.007399038 0.028941557
000320 8f 3d 85 bd 64 e4 0f be 0d cc 70 3d b8 08 fa bd
       -0.06505882 -0.14051968 0.058788348 -0.12208694
000330 b8 4e 93 bd 1e 02 66 bd 76 1e 73 bd 39 3f 9e bd
       -0.07192749 -0.056154363 -0.05935522 -0.077269025
000340 1d e4 42 be 7b 9d 75 3d e3 83 fe bd f3 c8 30 3d
       -0.19032331 0.05996464 -0.12427499 0.04316039
000350 48 50 0c be f1 98 b0 bd d4 59 38 3d ef e4 3a bd
       -0.137025 -0.08622921 0.04500754 -0.045628484
000360 4a 94 e6 bd af 36 26 bd cf b4 50 bd 5a 65 f0 bd
       -0.11258753 -0.040579494 -0.050953683 -0.11738081
000370 26 f9 5b bd 64 82 2b 3d e2 76 85 3c 26 46 4f bd
       -0.053704403 0.041872397 0.01629204 -0.05060401
000380 28 45 b3 bc ee ea b9 3c ab 7e 57 3d b1 23 a7 ba
       -0.021883562 0.022695031 0.052611034 -0.0012751726
000390 f2 26 bc bd ed fe 0e be 06 3f 07 be 77 6b 17 be
       -0.09187116 -0.13964434 -0.13207635 -0.14787088
0003a0 87 c0 4a 3d 09 f5 09 bd 15 11 89 bd 5f 39 8e bd
       0.049500015 -0.03368095 -0.06692711 -0.069445364
0003b0 0f 2e 5d bd e9 df 62 bc 2b ef 8f bd 80 4a 8f bd
       -0.053999003 -0.01384733 -0.070280395 -0.069966316
0003c0 a1 4f 28 3d 6a 47 42 bc 0e e4 8f bd 46 e1 cb bd
       0.041091565 -0.011857847 -0.0702592 -0.09955077
0003d0 71 70 35 be cb e7 53 bc 72 3e 1a be 2a 41 be bd
       -0.17718674 -0.012933682 -0.15062883 -0.09289773
0003e0 67 66 54 bd 63 64 0f bd 14 5b e2 bd 35 b6 f1 3c
       -0.05185547 -0.035007846 -0.11052528 0.029505828
0003f0 7f f9 4d be 06 44 97 bd f6 da 86 bd 36 35 01 bd
       -0.20114706 -0.07386021 -0.06584732 -0.031544887

rnn.bias_hh_l0 f4 [384]
000000 d2 f0 22 3e 0c 3e 84 3d c1 a7 ea 3d 10 15 94 3d
       0.15912178 0.06457147 0.11457778 0.0723058
000010 0b ca 36 3c 21 d5 a9 3d bd 79 24 3e 22 a1 cc 3d
       0.011156569 0.08292604 0.16062064 0.09991671
000020 49 dc 0b 3e d5 5a 38 3d 80 be 10 bc 3a ca 8f 3d
       0.13658251 0.0450085 -0.008834481 0.070209935
000030 6a 09 40 3e 9f f0 0c 39 3c 83 6c 3d 12 5b f5 3c
       0.18753591 0.00013441079 0.057742342 0.029950652
000040 42 20 0b 3d dc 8f 0c bd 65 43 92 3d f9 2f 13 3e
       0.03396631 -0.034316882 0.07141761 0.14373769
000050 f0 ee 82 bc 7a 55 f2 3d 55 4f be bc 59 ee 69 bc
       -0.015983075 0.118327096 -0.023231188 -0.014278018
000060 2c 7c 72 bd 11 47 4d 3d c2 8c 29 3e b9 dc 5b 3d
       -0.05920045 0.050116602 0.16557601 0.053677294
000070 d4 0c 01 3a 30 21 da 3c d1 23 a2 3d 79 05 80 bd
       0.0004922871 0.026627153 0.07916988 -0.06251044
000080 9b 55 0e 3e 39 dc 08 3e 68 c5 a0 3d 7c 29 12 3c
       0.13899843 0.13365258 0.07850152 0.008921023
000090 34 06 11 3d d7 75 20 3d 08 63 9e 3d c2 5e ea 3d
       0.035406306 0.03917488 0.077337325 0.11443855
0000a0 f6 64 b0 bc ec f8 2a bd e0 21 21 3d 39 bd 5a bd
       -0.021532517 -0.041741297 0.039338946 -0.053403113
0000b0 1a 54 e5 3d 63 f0 2a 3d af 1b 8e bd 27 24 30 3d
       0.11197682 0.041733157 -0.06938874 0.043003228
0000c0 41 4e 43 3c e3 fe ea 3c 90 ba 1a bc 57 74 bd bb
       0.011920513 0.028685993 -0.009443894 -0.005781691
0000d0 4d f4 c3 3c 26 a8 c7 3d 34 6b 2a bd 0c 23 91 bb
       0.023920203 0.09748869 -0.041606143 -0.0044292267
0000e0 81 c0 6e 3d de d9 d8 3d 1f ba d5 bc 94 00 4c 3c
       0.058289055 0.1058843 -0.026089726 0.01245131
0000f0 df c5 c5 3d 58 4b 76 ba 7d 68 28 3c 51 fb da bc
       0.096568815 -0.00093953824 0.010278818 -0.026731165
000100 03 2f 62 3e 9c 29 00 3e 0d 7b b1 bb 82 10 69 bd
       0.22088246 0.12515873 -0.00541628 -0.05690051
000110 d0 e9 4e bc 7d 91 ae 3d e5 08 9d 3a 23 cd 20 3d
       -0.012628987 0.085238434 0.00119808 0.039258134
000120 31 3b c2 3d c0 b2 15 bd 5b 8d 9e 3c 69 0c 0a 3e
       0.09483946 -0.036547422 0.019354513 0.13481297
000130 dd 4c d2 bc 1e 9c 3f 3e 14 b6 9a 3c 13 3f 2b 3d
       -0.025671417 0.18711898 0.01888565 0.0418082
000140 c8 8f 82 3d f7 af c0 bc 65 de fe 3d a3 71 05 bd
       0.0637508 -0.023521407 0.12444762 -0.032579076
000150 13 98 85 bc 1c 90 0a bd 7f dd 20 3d 98 e4 4b bc
       -0.016307866 -0.03382884 0.039273735 -0.012444638
000160 2f fa 5d 3d c9 d3 8c 3d 85 70 39 3e 43 dc 26 3e
       0.05419367 0.06876332 0.18109329 0.1629496
000170 e2 79 28 bd 4b 44 81 3c d4 01 0a 3d 80 8a 0d bd
       -0.04113186 0.015779635 0.03369315 -0.034555912
000180 e7 9f ff 3d 5f 99 dc 3d a2 8e f4 3d bf ad 23 3e
       0.12481671 0.10771441 0.119412675 0.15984248
000190 30 0e 35 3e db 0b f5 3c f5 55 1d bd dc 89 2a 3d
       0.17681193 0.02991288 -0.038412053 0.04163538
0001a0 60 3b d0 bc 71 8b b6 3d df d5 75 bd 48 81 29 3d
       -0.025418937 0.08913315 -0.060018416 0.041383058
0001b0 a5 fd 8e 3c 63 dd 94 bb 5f 07 ee bb 40 40 50 bd
       0.017454932 -0.004542993 -0.0072640623 -0.050842524
0001c0 3b 10 c0 3d 5a 32 29 bb 11 c3 f6 3d b4 70 6b 3d
       0.09378096 -0.0025817365 0.12048925 0.05748053
0001d0 4c 95 10 3d a1 38 b3 3d 0a 6f 53 3d 62 a9 a6 3d
       0.03529863 0.087510355 0.051619567 0.08137776
0001e0 27 ce 66 bc b4 3c 7a bc 15 aa 23 3e ad c3 b4 bc
       -0.0140872365 -0.015273262 0.1598285 -0.022065962
0001f0 33 b1 ac 3c b4 16 d7 3c bf 7c 83 3d 1d 82 0b 3e
       0.021080589 0.026255943 0.06420278 0.13623853
000200 99 36 59 bd e4 32 d6 3c 4f 55 f7 ba 40 b5 d2 bd
       -0.053030584 0.026147313 -0.0018870028 -0.10288477
000210 42 af d7 bd 58 1f 1b bd e2 d8 0c be bc e4 be bd
       -0.10531475 -0.03787169 -0.13754609 -0.09320971
000220 2e f2 d3 bd ae 25 c8 bd 85 34 46 bd 6d 88 17 bc
       -0.103489265 -0.09772812 -0.04838993 -0.009248835
000230 ab 9a 1e bd 9b 0c dc bc 98 2f 36 3c b6 4e 4f 3d
       -0.03872172 -0.02686148 0.011119746 0.050612174
000240 bb f8 ca bd 03 26 9b bd 22 6d f7 bb 11 8f 64 be
       -0.09910723 -0.075756095 -0.0075508514 -0.223202
000250 67 d6 b6 3c c7 23 b3 bd bc 8b 6a bd 4d fe dc 3c
       0.022319032 -0.08747058 -0.057262167 0.026976729
000260 2e 95 fa bd 34 c1 3d bd 3d 39 0a 3c c9 2f 44 bc
       -0.12235485 -0.04632683 0.008436498 -0.0119742835
000270 f2 53 06 be 5d b6 07 3d 8e 2d b3 3b 0b e5 64 3b
       -0.1311796 0.0331329 0.005468077 0.003492656
000280 28 08 a5 3c 4a 9d b7 bd 23 75 95 ba e8 94 76 3d
       0.02014549 -0.089655474 -0.0011402707 0.0602006
000290 dd 80 14 be b7 c0 04 be 46 1d f5 bd f0 60 1c 3d
       -0.14502282 -0.1296414 -0.11968474 0.038178384
0002a0 13 64 05 3d 47 49 d4 3c d5 a0 ef bd c5 a2 43 bd
       0.03256614 0.025913848 -0.11700598 -0.04776265
0002b0 6b 68 18 3c 67 a2 47 bc c3 21 c4 38 96 58 09 be
       0.009302239 -0.012184716 9.352297e-05 -0.13412699
0002c0 48 79 87 bd 49 29 8c 3c 00 28 e1 bd 70 2c b6 bd
       -0.066149294 0.01710953 -0.109939575 -0.088951945
0002d0 ad e4 12 be df b4 0a bd d5 ab 14 be ea 8b 40 3d
       -0.14345045 -0.0338639 -0.14518674 0.047008432
0002e0 36 a4 38 be 2d 28 3e be ae 12 84 bd 91 7b 09 be
       -0.18031392 -0.18570013 -0.06448875 -0.13426043
0002f0 13 74 03 bd 25 ed e7 3a 08 0c 08 bd d3 53 89 3b
       -0.03209312 0.0017694576 -0.0332146 0.004190901
000300 19 76 a2 bd b8 db b3 ba 1d 8e 6a 3d 3a ca cd bc
       -0.079326816 -0.0013722098 0.057264436 -0.025120843
000310 bc b3 13 bc 0e 0f 23 bd fd d0 07 bb be 1b c1 bd
       -0.00901502 -0.03980928 -0.0020723932 -0.094291195
000320 fa 1f 09 be 07 17 03 bd 69 45 8b 3b a5 a0 2f 3d
       -0.13391104 -0.032004382 0.0042502177 0.042877812
000330 fc d4 e9 bd f5 86 6f bd b8 7f e0 bd 57 3b 22 bd
       -0.11417577 -0.058478314 -0.109618604 -0.039607372
000340 2f 91 45 bd f7 1c 04 bd e4 72 88 bd ef 17 fb 3b
       -0.04823416 -0.032254186 -0.06662539 0.007662765
000350 06 a8 48 ba f9 f3 29 be a5 78 b5 3d 49 86 ab 3d
       -0.0007654432 -0.16596974 0.08860902 0.08375222
000360 bc 74 c1 bd 18 ab 2a bc b1 b2 03 be ad 85 68 bd
       -0.094460934 -0.0104167685 -0.12861134 -0.05676811
000370 b5 48 65 bd 60 7c d2 bc 22 14 a7 bd 9f fe 54 bd
       -0.055977542 -0.025694072 -0.08158137 -0.052000638
000380 7a aa 14 bd 72 b2 61 bd de 1b c9 3b 89 fd 13 bd
       -0.03629539 -0.05510182 0.006137355 -0.03613046
000390 10 fb 9e bd 0e 58 52 bd fc 50 d2 bd 0f ba dd ba
       -0.0776273 -0.051353507 -0.10269353 -0.0016916412
0003a0 20 30 85 bc ac 8a b2 bd d7 fe 31 bc 76 3d 9f bd
       -0.0162583 -0.08717856 -0.010863981 -0.077753946
0003b0 9d 9e 96 bd f8 98 14 bd cb 85 ea bb ca f0 94 bd
       -0.07354472 -0.036278695 -0.0071570626 -0.07272489
0003c0 43 74 4b 3c d5 ae c4 bd ca 8c b9 3d f4 06 c5 bd
       0.012417856 -0.09603659 0.090600565 -0.09620467
0003d0 24 a2 d3 bd f0 bf 1a be ee a0 c1 bd e2 0e f7 bd
       -0.1033366 -0.15112281 -0.09454523 -0.120633855
0003e0 c7 56 32 3d cb 07 29 be 6a 94 da bd f8 70 c8 bd
       0.04353979 -0.16506879 -0.10672839 -0.09787172
0003f0 58 3b 4f be 65 1f 38 bd f0 77 57 bd b7 e8 0a 3d
       -0.20237482 -0.044951815 -0.052604616 0.03391334

rnn.weight_ih_l0_reverse f4 [384, 128]
000000 51 d9 60 3c 5d 52 7a 3b 4f 0d 33 3c 02 1a 13 3e
       0.013723687 0.0038196065 0.010928466 0.1436539
000010 1b 3c 98 3d 0d 96 d4 bc 5c d7 10 3d 16 86 48 bd
       0.07433339 -0.025950456 0.035361633 -0.048956
000020 88 8e cb bc d5 e4 1f 3d 1c 84 dc bd 1c b1 30 3d
       -0.024848238 0.03903659 -0.10767385 0.043137655
000030 ea d4 e5 bd d8 ba 6a bd 57 71 7b bd 3f 18 2e 3e
       -0.11222251 -0.057307094 -0.061387386 0.17001437
000040 87 9c 4a 3e 0c 4a dd bd 4d ae 18 bd 72 5d 0e bd
       0.19786273 -0.10805139 -0.0372756 -0.034757085
000050 0b 42 0a 3e a8 c0 a7 bc af a8 7a 3e 79 f0 ee 3d
       0.13501756 -0.020477608 0.2447841 0.1166696
000060 5c a6 f1 3d 05 24 c8 ba 71 1c 10 3d f8 25 54 bd
       0.11799309 -0.0015269524 0.035183374 -0.051794022
000070 19 68 81 bd 20 bc 99 bd ae dd 06 3e b5 2f b6 bc
       -0.06318683 -0.07506585 0.13170502 -0.022239545
000080 be 13 d5 3c 23 89 2f 3d b4 92 2f bd 79 75 93 3c
       0.02601039 0.042855393 -0.042864516 0.018000351
000090 40 48 2d 3d be 65 9d 3d 24 03 6b bd 00 2f f7 bc
       0.04230523 0.076854214 -0.057376042 -0.030173779
0000a0 d9 e1 e0 bd 4e 87 db bd ea 44 9c bd 4d f5 f2 bd
       -0.10980577 -0.10719167 -0.07630332 -0.11863194
0000b0 96 da d9 3b 10 69 4c bd 84 83 21 3e 41 0f 4b 3d
       0.006648372 -0.049904883 0.15772825 0.049575094
0000c0 07 7f af 3d 95 21 b7 bc 59 01 6e bd 0e 45 35 3d
       0.085691504 -0.02235488 -0.058106754 0.04425531
0000d0 8f 07 bf bd 71 94 6a 3b 5a eb e1 3d 7a 77 c5 3d
       -0.093276136 0.0035794044 0.11031218 0.09641929
0000e0 f3 a7 ee 3d 69 7f f5 bc 2d fb 01 be 2d 9c c4 3c
       0.116531275 -0.02996798 -0.12693472 0.024000252
0000f0 15 f9 af 3d 61 e0 dd 3c a0 50 fc bd e6 f7 a8 3c
       0.085924305 0.027084531 -0.123200655 0.02062602
000100 26 94 40 be 30 05 d5 3c 5d 92 ee bc d4 5c d7 bd
       -0.18806514 0.02600345 -0.029122526 -0.105157524
000110 18 e7 5b bc 20 d7 d0 3c 59 15 f7 3c 58 95 e7 3d
       -0.013421796 0.025493205 0.030161547 0.11307782
000120 b8 cf b0 ba 08 09 11 3e 1b a9 cd 3d 05 63 ca 3d
       -0.0013489639 0.14163601 0.1004202 0.09882168
000130 d3 84 4a 3e 93 80 83 3d be ac cb bd 20 a0 a8 bd
       0.19777231 0.06421008 -0.09945057 -0.082336664
000140 c0 b2 97 bc 90 7f e5 3d c2 6d c2 bd 40 5c c8 bb
       -0.018517852 0.11205971 -0.09493591 -0.0061145127
000150 46 61 2e be 16 75 87 bd 5c b6 bc 3a 66 7d 56 3d
       -0.17029294 -0.06614129 0.0014397609 0.052365683
000160 56 bb a4 bd e6 44 4b bd 29 05 8b bb 75 53 25 3d
       -0.08043544 -0.049626254 -0.0042425585 0.040362794
000170 44 f4 7c bc 13 98 3d bd db 5e 1f be 6b cf 1a be
       -0.015439097 -0.046287607 -0.15563528 -0.15118186
000180 34 89 cd 3c 0a 1a 90 bd df 37 e0 3c 85 4e af 3d
       0.025089838 -0.070362166 0.027370391 0.08559898
000190 eb 12 80 bd f0 c8 da bd 92 c1 1d bd fa b3 c2 bb
       -0.06253608 -0.10682857 -0.03851468 -0.005941865
0001a0 9e 5e ae 3d 09 50 18 3d 5b a4 fc bc 40 ff a7 3c
       0.085141405 0.037185702 -0.03084009 0.020507455
0001b0 d5 5a ab bd f0 4b 37 3d 99 12 88 bb e4 51 bb bd
       -0.08366934 0.044750154 -0.0041526076 -0.09146479
0001c0 d8 63 1a be 51 17 c3 3d c1 2a 85 bd 7c 78 35 bd
       -0.1507715 0.095259316 -0.06502295 -0.044304356
0001d0 0f 35 1f bd bb 4b 61 bc bf 15 8b bd f3 22 66 bd
       -0.03886896 -0.013750966 -0.06791257 -0.056185674
0001e0 6a 1c 73 3b 6e 42 b9 3d 5b b9 c7 bd 9b 76 d8 3b
       0.0037095794 0.090458736 -0.097521506 0.0066059357
0001f0 98 ad 16 bb be e9 b9 3d 95 00 b5 3c c4 e6 4f bd
       -0.0022991654 0.09077786 0.022095004 -0.050757185
000200 f0 1c ee bb 05 e2 81 3d 27 f9 e4 3c b6 7e 32 bd
       -0.007266633 0.06341938 0.027950836 -0.043577872
000210 e6 88 bb 3b bf e2 ee 3c 0b df 39 bd a7 98 6e bc
       0.0057231067 0.029160855 -0.045378726 -0.014562762
000220 5c 88 0b 3d 32 80 e6 bd ae ca 99 bd 15 5d 9e 3d
       0.03406559 -0.1125492 -0.07509361 0.07732598
000230 51 4d f2 3d 58 9a 85 3d 3b fc a1 bc fc f8 ce 3d
       0.11831153 0.06523579 -0.019773593 0.10106084
000240 65 34 68 bc 1d 33 5f 3b 27 bb 46 3d 3a 7b 1a 3c
       -0.014172648 0.0034057565 0.048518326 0.009428794
000250 5d 23 a6 3d ca 99 17 3c 56 ac 04 3e df f1 39 bd
       0.08112214 0.009252975 0.12956366 -0.045396682
000260 9f f8 88 3a b0 22 3d bc 97 03 50 bd 04 26 6f 3c
       0.0010450071 -0.011543915 -0.050784674 0.014596466
000270 2e 11 49 3d a2 2c fb bc 11 bf 41 bd 6d a6 ba bd
       0.04908865 -0.030660931 -0.047301356 -0.091137744
000280 ee 57 b6 3d fa 4b bf 3c 9f f1 f4 3c 76 60 89 3d
       0.0890349 0.023351658 0.02990037 0.067078516
000290 ea 82 0e 3d 62 85 32 3d 2e 16 07 bd a8 ff 45 bd
       0.034792818 0.043584235 -0.032980137 -0.048339516
0002a0 38 9b b8 bd cc f9 41 bd 65 10 4e 3d 31 d8 c8 3d
       -0.090139806 -0.047357365 0.050308604 0.0980686
0002b0 d7 60 84 bd fb 6b 2f bc ff 0b b0 3c d9 ab 6b bd
       -0.06463783 -0.010706897 0.021490095 -0.057536934
0002c0 8f 84 47 bd 05 48 65 3d 7e 27 92 bd f5 07 c2 bd
       -0.048710402 0.055976886 -0.07136439 -0.09474174
0002d0 02 a0 dc bc 53 ff 9e 3d 21 36 0d 3e ef 0b 2f 3d
       -0.026931766 0.07763543 0.1379018 0.04273599
0002e0 f1 ca 43 bd b4 a2 3c 3d 43 2a 89 3d 4f 6a f6 3b
       -0.047800962 0.046053603 0.06697514 0.007519997
0002f0 72 ec f7 bc 19 22 05 bd 0e e0 7f 3c a4 bc 0b be
       -0.030264113 -0.03250322 0.015617384 -0.1364618
000300 8b 5e 1c be cd 13 f0 bd bb 58 93 3d 07 5c dd bc
       -0.1527044 -0.11722527 0.07194658 -0.027021421
000310 09 2f 87 bd 36 87 21 bd b9 75 0a 3d 7e 1f c2 bb
       -0.06600768 -0.039435588 0.033803675 -0.0059241643
000320 42 d9 76 bd cc 14 20 bd b3 dc cd 3d 09 5a 4b 3d
       -0.060265787 -0.039082333 0.10051861 0.04964641
000330 8b 26 6c bc 3e ec ed bd e4 2b d7 bc 5c 4d 28 3d
       -0.014413486 -0.11617325 -0.026266046 0.0410894
000340 71 36 6e 3d bc 85 da bb 09 79 ea 3c 4d f8 08 be
       0.058157388 -0.0066687744 0.028622167 -0.13375969
000350 fb c6 df bd af c7 3b bd 73 b0 b8 3d aa b2 07 3d
       -0.109266244 -0.04584473 0.0901803 0.03312937
000360 61 cb cc bd aa 58 46 3d b7 16 b4 3c 71 8d a0 3c
       -0.09999729 0.0484244 0.021983488 0.019598695
000370 a4 09 a6 3d c2 e6 da 3d d5 88 b5 bd 61 fb 1b 3d
       0.081073076 0.10688545 -0.08863989 0.03808153
000380 1e db 5a 3d 24 1e 8f bd b1 d4 30 3c b5 0d 16 3c
       0.053431623 -0.06988171 0.010792897 0.009158541
000390 38 a0 c4 bd f1 56 dc bd 5d 0a b0 bb 3d 6e b4 3d
       -0.09600872 -0.1075877 -0.005372329 0.08810089
0003a0 9b 31 34 3d 10 34 9e 3d 77 65 3f bd 57 21 d5 3d
       0.04399262 0.07724774 -0.046727624 0.1040675
0003b0 89 10 9c bd 9c d7 ae 3d 29 59 c1 3d ae 4e a7 3d
       -0.07620341 0.08537218 0.09440834 0.08169304
0003c0 76 3b f5 3b 28 18 bf bd 79 00 80 bd 14 89 31 bb
       0.007483895 -0.09330779 -0.0625009 -0.0027089762
0003d0 db 85 02 3e 6d 2f b5 3d 61 11 37 bd 58 74 70 3d
       0.12746374 0.088469364 -0.04469431 0.058704704
0003e0 1a f8 44 bd fe 94 ab 3d b8 c9 01 3c 8d f0 5e 3d
       -0.04808817 0.083780274 0.007921629 0.054428626
0003f0 af a4 18 be 44 e0 c3 3d f5 ba 7e 3d 77 05 09 bc
       -0.14906572 0.0956426 0.062190015 -0.008363119

rnn.weight_hh_l0_reverse f4 [384, 128]
000000 4a ca 9f bc 8b 0f b3 bc 1d 7b 85 3c 05 b7 30 bd
       -0.019505639 -0.021857997 0.016294057 -0.04314329
000010 35 1f 8e bd f7 0d 93 3a 3a b2 d8 3c ec 42 69 3d
       -0.06939546 0.0011219372 0.026452173 0.056948587
000020 96 09 03 39 00 17 0c bd 10 81 95 3d 6e e4 12 3c
       0.00012496705 -0.034201622 0.07300007 0.008965595
000030 6b 62 ca 3b 33 f1 3b 3d eb c4 cd 3d 62 52 57 3d
       0.006176283 0.045884322 0.10047325 0.0525688
000040 25 26 6a bb ce 47 19 3e 56 d1 bd bd b8 db 9d 3c
       -0.0035728302 0.14968798 -0.09268443 0.01926981
000050 c2 df f8 bc b4 b9 9b 3d 4f 48 3d 3d 99 5f 9b bd
       -0.030380134 0.076037794 0.046211537 -0.07586593
000060 c3 0f d6 3c 00 e9 f0 3c 38 75 ff 3c 7a 5b 9a 3c
       0.026130563 0.029407978 0.031183824 0.018842448
000070 c0 95 c9 3c d4 e2 0c bd 0e d3 29 3c 48 d2 a4 3d
       0.02460754 -0.034396008 0.010365261 0.080479205
000080 06 2c 37 bd 1d 91 33 3d 26 13 58 bc 04 b9 86 bd
       -0.04471972 0.043839563 -0.013188159 -0.06578258
000090 29 80 aa bd 90 71 4c bd ab bc ee 3c f1 bf be bb
       -0.08325226 -0.04991299 0.029142698 -0.005821221
0000a0 7c 10 d9 bc 68 14 1b 3d 13 50 25 3d c9 33 3e bc
       -0.026497118 0.037861258 0.040359568 -0.011609026
0000b0 3a 68 04 bd 0b f7 b4 ba 00 99 3b 3c 5e 6e 29 3d
       -0.03232596 -0.0013806535 0.011450052 0.04136502
0000c0 7c ea 07 3d c9 ae a7 3d 55 a2 61 3d 03 12 98 3d
       0.033182606 0.081876345 0.055086453 0.074253105
0000d0 3e 6c a9 3c 83 01 82 3c 29 84 07 3d 74 10 82 bd
       0.020681497 0.015869861 0.033085022 -0.063507944
0000e0 e3 33 ad 3d 1b 4a 21 3c 6f 9c 60 3d ea af 3d bc
       0.08457162 0.009844328 0.054836687 -0.011577586
0000f0 e2 8e 10 bc ad 60 1a bd 21 d7 a1 3d 2e 19 b7 bd
       -0.008823128 -0.037689853 0.07902361 -0.089403495
000100 77 13 a8 bd 31 c0 2b 3d 89 95 30 3c 20 bb 44 bd
       -0.082068376 0.041931335 0.010777839 -0.04803002
000110 a3 7d c8 bc e6 90 2c 3e 7e f1 35 3d 2a 5e 9b bd
       -0.02447397 0.1685215 0.044419758 -0.0758632
000120 d8 c8 4e bd ae 18 b1 bc c8 2e a2 3d 11 9f 10 be
       -0.05048451 -0.021618214 0.07919079 -0.14123179
000130 2c 44 5c 3d 52 a8 44 bd 4e 7f 33 be 40 dd e1 3c
       0.05377595 -0.048012085 -0.17529032 0.02757132
000140 bb 93 77 bd 9f 29 f1 3d f7 61 48 bd 05 ec 4b 3b
       -0.06044362 0.11775517 -0.04892155 0.003111602
000150 29 eb 47 bd db 12 ea bc c6 c3 94 3d 93 51 14 be
       -0.04880825 -0.028573444 0.07263903 -0.14484243
000160 20 a3 51 bd 1c 86 c8 bd 1a 7a 4a bd 68 03 f5 bd
       -0.05118096 -0.09791204 -0.04943285 -0.1196354
000170 f0 47 16 bd e8 1f b8 3c bb 66 96 bd 53 a6 9a 3d
       -0.0366897 0.022476152 -0.07343813 0.07551255
000180 82 4b 58 ba cd c4 79 3d 18 a2 aa 3d 6d 4c 1d bd
       -0.00082509976 0.0609787 0.08331698 -0.038402963
000190 d9 92 cc 3c e7 c9 1f 3d 21 56 ba 3d fa 31 e5 bd
       0.024972366 0.03901091 0.09098459 -0.11191173
0001a0 22 96 3f ba 1c 11 03 3e d5 4d ec 3b 21 b4 84 bd
       -0.00073084433 0.12799495 0.0072114267 -0.06479669
0001b0 2a 3a ba bd cc fc 91 3d 8f bc 28 bd 6b 8a 19 bd
       -0.09093125 0.07128295 -0.04119545 -0.03748552
0001c0 d6 24 9c bd 2a b1 b7 bd c8 cb b3 3d 89 2a b9 3d
       -0.076242134 -0.08969338 0.087791026 0.09041316
0001d0 9c 55 30 bd 79 59 81 bd 45 32 84 3d 04 e4 84 bd
       -0.043050393 -0.06315894 0.06454901 -0.06488803
0001e0 ee 60 af 3d 78 25 c3 bc ff 4a 74 3d 56 82 bb bc
       0.0856341 -0.023821577 0.059641834 -0.022889297
0001f0 fc fc 85 bd eb 13 ef bc 07 da fe bc ab 72 90 bd
       -0.065423936 -0.029184302 -0.031109823 -0.07053121
000200 c7 88 06 3e 8f c4 0b 3d 85 a6 aa 3c 0b 91 e5 3b
       0.13138114 0.034123 0.020831356 0.007005816
000210 95 e6 33 3d 0d 97 0d 3c 28 da 2f bd 64 4e 96 bc
       0.043921072 0.00864197 -0.04293266 -0.018347926
000220 d7 29 69 bc 55 8a 36 3c fc b7 d4 3b 4b ab 11 bd
       -0.014231167 0.011141379 0.006491659 -0.03556375
000230 e2 55 68 3d 2b 7b b0 3d 35 e4 10 bd 42 9e 9c bd
       0.05672253 0.086172424 -0.035373885 -0.07647373
000240 2b b3 74 3d 85 a7 17 be da ee c4 bb fc 31 40 3d
       0.05974118 -0.14809997 -0.0060099186 0.04692267
000250 38 c7 4d bd eb c7 5e 3d 0e 13 4a bd 0d 4c 64 3d
       -0.050238818 0.054389875 -0.04933458 0.05573659
000260 d0 4f d5 bd bf 52 d1 3c 33 01 b2 3c 50 5a cf 3d
       -0.10415614 0.025552152 0.021729087 0.101246476
000270 0d 6e d4 bd 47 6e aa 3d cd 3e 3f bc 8f 11 04 bc
       -0.10372553 0.08321815 -0.011672688 -0.008060827
000280 e4 5b 50 3d 0a 05 70 bd f5 40 31 bd 40 59 a6 bd
       0.050868884 -0.058598556 -0.04327484 -0.08122492
000290 ff 95 05 3e 5a aa 83 3a a0 9e b3 bd 0b ff f7 bb
       0.130455 0.0010045276 -0.0877049 -0.0075682453
0002a0 2b 60 33 3d 40 e3 5f 3c dc f2 5e bb 51 8d 15 3e
       0.043792885 0.0136650205 -0.0034019267 0.14604689
0002b0 53 95 18 3d fd a9 5c 3d f1 0f b6 bc 60 5e 02 bd
       0.03725178 0.05387305 -0.022224398 -0.031828284
0002c0 5f f2 17 bd c3 8a bc 3d d8 91 ed bd d8 cf 19 3e
       -0.037096377 0.09206154 -0.11600083 0.15020692
0002d0 39 99 62 3d ec 48 ed bd fd f1 97 3d 5a 3f d2 bd
       0.055321906 -0.11586174 0.074192025 -0.102659896
0002e0 42 ea c2 3d 50 bd f7 bc 97 89 a8 3a c3 c7 ed bd
       0.095173374 -0.030241638 0.0012858388 -0.11610367
0002f0 46 45 50 3d ea b3 14 bd 2a 14 c7 3d 55 a6 cc 3c
       0.050847314 -0.036304392 0.09720643 0.024981657
000300 90 2d b7 bc b8 47 92 bd be fd b6 bd 9e 24 18 bb
       -0.022360593 -0.071425855 -0.08935116 -0.0023215185
000310 2d a7 b9 3c 7a 5d f2 bc a6 55 1a 3d 85 e0 d0 bd
       0.022662723 -0.029585589 0.037679337 -0.10199074
000320 f3 81 0a bc b6 61 6f bd e6 1c a4 3d d7 81 6e 3d
       -0.008453834 -0.058442794 0.080133244 0.058229294
000330 9f 9f a6 bd 66 7f 7f 3d 33 11 2c 3e 81 66 42 3d
       -0.08135914 0.062377356 0.16803436 0.047461037
000340 90 7f 89 bc 50 b7 d7 bc 9e ce be 3c 36 dc e6 bc
       -0.01678446 -0.026332527 0.023291882 -0.028181177
000350 9a aa 91 3d 3a d2 16 bd 08 3e a5 3d 55 f1 0c bd
       0.07112618 -0.03682158 0.08068472 -0.03440984
000360 bc 69 d1 bd 45 14 99 bc ca 58 73 bc a9 8d 52 bd
       -0.10225245 -0.018686423 -0.014852712 -0.05140463
000370 e2 93 1f bd 48 2f df bc 46 06 4f bc a8 81 37 bd
       -0.03895939 -0.027244225 -0.012635773 -0.044801384
000380 9f fa 1e be 98 09 bd bd 20 d1 c0 bc 12 3f 8f 3d
       -0.15525292 -0.092303455 -0.023537219 0.069944516
000390 23 73 a7 bd 79 b8 02 3d 01 1a d5 bc d6 63 6a 3d
       -0.081762575 0.031914208 -0.026013376 0.057224117
0003a0 6c ec 66 3d 80 db 90 bd 0f 16 c4 bd c8 c8 6f bd
       0.056377813 -0.07073116 -0.0957452 -0.05854109
0003b0 5d f5 f7 3b 9f f9 8c 3d d6 12 63 bc f5 3e 6e 3c
       0.0075670914 0.06883549 -0.013859471 0.014541377
0003c0 8c cf 15 3e 7c 85 90 bc d5 7f fb bd c5 e6 c8 3c
       0.14629954 -0.017641775 -0.122802414 0.024524102
0003d0 94 6d 91 3d 8b a7 e1 bd 54 59 91 bd 56 e9 10 be
       0.071009785 -0.110182844 -0.07097116 -0.1415151
0003e0 82 af 48 3d 38 41 3a bc db ff a3 bd 57 9e 97 3d
       0.048995502 -0.011368088 -0.08007785 0.07403248
0003f0 c7 d2 32 bd 54 2b 21 3e d1 4e 87 bd 57 f9 46 3e
       -0.043658044 0.15739185 -0.0660683 0.19431053
