synthesizer/models/tacotron/utils/g2p/models/RU/encoder_e10.pth (torch, 814247 bytes, 9 tensors)

emb.weight f4 [39, 128]
00000000: e7a0 afbf a7fd 623e c9a5 d03f 45ab ad3e
00000010: e1bf 033e fe09 943e ba26 1740 4167 aa3f
00000020: 097a a5bf 68a4 c43f c8df 7b3e efc6 85be
00000030: 7909 f6bd 0dfe 5ebf cafd 743f c7df b8be
00000040: 1b35 893d b23b 4ebf a553 18bf bbfa 91bf
00000050: 686a b2bf 0b49 b53f 10bf eabf ff93 23be
00000060: 3fcc 943f 2a09 1bbe da5c d4be 1a36 24bf
00000070: 91a7 7dbf c52d 4f3f d7f5 c23b c422 62be
00000080: 35f6 a3bf cdc1 363f def1 1b3f b9f3 f3bc
00000090: 37c9 1fbf f3c4 0ebe 8230 aabe b76d afbe
000000a0: b96f 673e 03b7 f13e cb33 153f 3599 b6be
000000b0: 0cc6 bdbe 9681 0bc0 9fb6 093f 6a7f c03f
000000c0: a7e1 bbbe 7495 9e3f a587 b73f b72c 7cbf
000000d0: 3a3c c1bd ba73 7c3f 9a48 c8bf af04 2d40
000000e0: b06c 803f 81d0 07bf b5b2 dd3d 0d17 8bbe
000000f0: 618d 42bf 3af1 b63f 1fd2 42be f01e 453f
00000100: 1d8c 143e 9109 993e c191 193d bbcd 6abd
00000110: cccf 2f3e e699 453f f5be 1e40 927a cc3e
00000120: 564c 67bf b584 4ebf f75b 81bd 544b 02bf
00000130: c468 d7bd 7888 f3be 0b0c da3e 84bb 223e
00000140: 40f2 dfbf 45c3 27bf 0b49 00c0 48c5 04bf
00000150: a2c5 a63f 5da6 d43f 26ff 993d 4196 a93f
00000160: d2fc 443f fa32 a23f 5340 89bf 1a72 1c40
00000170: d719 f03e c563 d73f c448 f23f ae79 343e
00000180: 926e ffbe ddd9 f73f d4c9 c13f 4679 3abf
00000190: 217e ccbd fbe8 3b3c 365d febe bcf2 d53e
000001a0: afc4 e23f 4e18 b6ba c438 853f c9b7 27c0
000001b0: 6e0b 0640 b4bb cb3f ca59 3940 426e 9cbf
000001c0: b959 653f f28f 76bf ccb5 43bd d789 1b3f
000001d0: c5d6 b93b 1f92 82be 0257 733f d0b0 a2bf
000001e0: 4baf ffbd 7fcb 833f 9d6b 2640 87ce e1bf
000001f0: 551e 6a3f cb1b 173f 1c5f 883f f30b 03c0
00000200: 73bc 653f 4daf 28bf 2fa3 b93e b6db 00c0
00000210: 69ba 2ebf b9da 45bf faa4 f4bf 70ba 623f
00000220: 33a3 363f c27a 14bf b100 72bf 17b8 873f
00000230: 7dd7 9c3e c160 513e 4fae 02be 99a9 94bf
00000240: 0ecb c8be 9c45 48bf 46be 4cbe 30d2 52bf
00000250: 0455 ab3f 52f1 643f 26e8 42bf 352c 2f3f
00000260: f2cf ee3e b6cb 31bd 4fe9 3fbf ceb0 c93f
00000270: 4358 8c3f c8bd 24bf c250 98be 629c bbbe
00000280: fae6 1f3f eec2 2540 053c 0640 fad1 8dbe
00000290: 38e7 27be b8ee 9ebf 77f2 86bf edec 1b3f
000002a0: f2f1 b83e e2f2 34bf d36e 703f 9170 7fbf
000002b0: 7f05 be3f d475 ef3e ffc5 c6bf e2d4 d63e
000002c0: 618a 933f a179 f3be 49ae bcbe 7876 b93f
000002d0: c183 6abe 3c1d 4a3f 041c a93e 68c6 a5bf
000002e0: 3118 083f a09f 803f c9ec ea3e 765a c73e
000002f0: 8baf f43f 5955 1740 7d14 32c0 3b5e fbbf
00000300: 080b 443e 2e7c 47bf 4294 953f 8dc1 6fbf
00000310: 2080 95be 6534 933f c4d4 b5bf df38 943f
00000320: d412 183e 96a8 d9bf c561 87bf 5222 603e
00000330: 6a93 60bf bd37 e0bf dd49 773f 7c1d 9b3f
00000340: 1a30 9cbf e6e7 303d 42f9 e0be c6cb cc3e
00000350: 63f1 66bf 347b fcbf 6cc2 d3bf a68d eb3d
00000360: 1e8b b5bf 127d 88be 6b4f c7bf 9309 b43e
00000370: 79d1 003e af4f f7bc 4124 aa3f e5ee 1ebf
00000380: 7de1 32bf dc09 963f 813d ee3e 55af 823e
00000390: 2a63 423f 54ed cd3f 2e80 c9bd 38f9 18bf
000003a0: 4fe5 74bd d642 f0be 7242 2c3f 2097 2cbf
000003b0: 5540 c8bf cac9 f53d 5a13 973f 10b4 873f
000003c0: b912 903d ee7f 28be 36d3 40bf ff29 babf
000003d0: 9b03 e63e 1106 0040 54d0 b1bf f459 4b3f
000003e0: 4f29 b3bf c474 743f cdfd d73f 2f7d 1d3e
000003f0: 59e1 883f c430 443e 6d24 bfbf 1177 043f
-1.3720978 0.22167073 1.6300594 0.3391973 0.12866165 0.28913873 2.3617387 1.331276
-1.2927867 1.5362673 0.24597085 -0.26128337 -0.120135255 -0.871064 0.9569975 -0.3610823
0.06699582 -0.8055984 -0.5950263 -1.1404642 -1.3938723 1.4162916 -1.8339558 -0.15974425
1.1624831 -0.15140215 -0.4147709 -0.6414505 -0.9908381 0.80929214 0.0059497165 -0.22083575
-1.2809511 0.71389467 0.60915935 -0.029779302 -0.62416404 -0.13942318 -0.33240134 -0.34263393
0.22601213 0.4720994 0.58282155 -0.35663763 -0.3706516 -2.1797843 0.5379428 1.5038884
-0.36695597 1.238936 1.433827 -0.9850573 -0.094353154 0.98614085 -1.5647156 2.7034109
1.0033169 -0.53052527 0.10825101 -0.27166024 -0.7599698 1.4292367 -0.19025467 0.7700033
0.14506574 0.2989011 0.037492517 -0.057325106 0.17169112 0.77187955 2.480405 0.39937264
-0.90350854 -0.80671245 -0.06316369 -0.5089619 -0.10518029 -0.47565055 0.42587313 0.15891844
-1.7495804 -0.6553233 -2.0044582 -0.5186353 1.3029063 1.661327 0.07519369 1.3248979
0.76948273 1.2671807 -1.0722755 2.4444642 0.46894714 1.6827322 1.8928456 0.17624542
-0.49889046 1.9363362 1.5139718 -0.728413 -0.09984995 0.011469121 -0.4968049 0.41786754
1.7716273 -0.0013892741 1.0407948 -2.6205924 2.0944476 1.5916657 2.8961053 -1.2221148
0.8959003 -0.96313393 -0.047780797 0.607572 0.0056713545 -0.25502107 0.9505464 -1.2710209
-0.12484606 1.0296477 2.6003182 -1.7641152 0.91452533 0.59026784 1.0654025 -2.0476043
0.89740676 -0.6589249 0.36257312 -2.01341 -0.6825319 -0.7728687 -1.9112847 0.8856573
0.7134277 -0.57999814 -0.94532305 1.0603055 0.30633155 0.20447065 -0.12761806 -1.1614257
-0.39217418 -0.78231215 -0.19994459 -0.8235197 1.338532 0.89430726 -0.7613548 0.6842683
0.46643025 -0.043407165 -0.74965376 1.5757082 1.0964435 -0.64352083 -0.29749113 -0.36642748
0.6246182 2.5900226 2.0974133 -0.27699262 -0.16396797 -1.2416601 -1.0542744 0.60908395
0.3612209 -0.7068311 0.93919104 -0.9978114 1.4845427 0.46769583 -1.5529174 0.41959292
1.1526605 -0.47553733 -0.3685172 1.4489279 -0.22901823 0.7895086 0.33029187 -1.2951174
0.53161913 1.0048714 0.45883778 0.38936204 1.9116071 2.3645842 -2.7825005 -1.9638132
0.19144833 -0.7792386 1.168587 -0.9365471 -0.29199314 1.1500365 -1.4205556 1.1579856
0.14850932 -1.7004573 -1.0576712 0.21888092 -0.87724936 -1.751701 0.9659708 1.2118373
-1.220218 0.043189906 -0.4394017 0.39999217 -0.90212077 -1.9725099 -1.6543708 0.11501627
-1.418308 -0.2665792 -1.5571111 0.35163555 0.12579907 -0.030189363 1.3292314 -0.62083274
-0.6987532 1.1721759 0.465313 0.25524393 0.7593256 1.6088052 -0.098389015 -0.5975528
-0.059789 -0.46925992 0.6728889 -0.674181 -1.5644633 0.12001379 1.1802781 1.0601826
0.07034821 -0.16455051 -0.7532228 -1.4544066 0.44924626 2.0003703 -1.3891702 0.7943413
-1.3996981 0.9549067 1.6874329 0.15379785 1.0693771 0.19159228 -1.4932991 0.5174418

rnn.weight_ih_l0 f4 [384, 128]
00000000: 4324 a7bb c951 383e 1b2b d1bd f7ae c6bc
00000010: 5107 2ebe 4bcf 2cbc 19a9 003d fb6e db3d
00000020: 6a40 65bd 44b9 a9bc fd0f a9bd e89e f0bc
00000030: d0ba 54bb b846 dcbd b280 febd e60d 7f3d
00000040: 6330 30be 5cc4 18bd 9fa6 ac3d d17b 0cbd
00000050: 6d03 33be 3cf9 6fbd 09fb 8abd ea6a 83bd
00000060: 044f 6e3d 3921 133d c3c2 9cbd d164 adbd
00000070: 7d4f 56bd 9d85 963c 0047 a03c aa8d 973d
00000080: 009e b03c 7b0d 883d db99 cfbd a19a 5abd
00000090: 2eb1 b0bd 8f35 9c3d 3c36 a2bc 1e5b 223e
000000a0: 291c 26bd 52bd 263e 6054 90bc 49f0 98bd
000000b0: ba46 943b 8b9d 99bd 20da 243e 3a25 d73c
000000c0: e844 153e fc84 4c3d b87f 573d 7c58 603d
000000d0: cca3 523d 95e3 a13d cd21 67bd fbd9 443d
000000e0: 7050 f63b f40a 02be eaa5 0b3e e7e6 06bc
000000f0: f80d 8f3d 45ae 07bd 7a7d 0fbd 2e22 71bb
00000100: 4053 89bd 0605 54bd 6893 973c b228 15be
00000110: 41c8 72bd 8cf0 d4bc 7a71 0b3c e100 e5bb
00000120: 2e16 a5bc a93c d13d 7a52 17be cd14 be3a
00000130: 7653 bcbc bbfb 82bd ce57 ecbd d40f 89bc
00000140: 496b d9bd a2f8 a63d 90bd eb3d 3337 e53d
00000150: c6b4 fcbc 4dac 34be 6734 85bd d500 7fbd
00000160: 6c70 db3d 19a6 8e3d 85b5 ba3c 9d5c 82bc
00000170: bc4e 09be 997d 64bd 8971 283d 6cf5 ee3c
00000180: bd59 babd 63db d03d d439 ac3d 57df dc3d
00000190: 724f c83c 71b3 4bbd fb57 c63d 7fca ff3c
000001a0: 3462 883d b635 a43d 1006 0cbe 7255 d33c
000001b0: 84e8 0abd 9c7d 28bd 9f01 793d a4c3 b0bc
000001c0: 9665 213d 77e8 d53c d4aa d83d 476f c83c
000001d0: deda 223d 6221 28bd e914 56bd b45b d5bc
000001e0: 290e a1bd 5388 39bd f9a6 9c3d 01a7 1a3e
000001f0: 2ec1 863c 2ff5 923d d227 ee3d 4244 7abd
00000200: 12ab b83a be90 3c3d 7081 f13d 2938 79bd
00000210: 00ac 9dbb 165d b8bd a194 a4bc fdad abbd
00000220: 90da 27be c0db 48be 556f c6bd 0786 193c
00000230: fb58 65bc 7d82 a3bd 81ca 49bd 8296 9b3d
00000240: af9b 32be ca1d dfbd e3e8 703b ffe9 05bc
00000250: 3370 b2bb 0d4f 4abd ff57 c4bd 5843 903d
00000260: 5664 6fbb c55a 14bd e89f c6bd 4145 c7bd
00000270: b8b9 e0bc a936 943d 70bb f63d f541 cc3d
00000280: 06fb 1bbd 26af c8bc e932 183d 78af b4bd
00000290: 12a6 df3c 12a3 9a3d ecc2 03bd de89 0c3d
000002a0: 8cea f6bd d558 c93d 7888 cc3c e754 16bd
000002b0: 82d9 a83d 09e6 563c f1f5 2c3e 5fba e43c
000002c0: eb70 a53d 343d 8b3d 723b 473d 09d2 163e
000002d0: d734 1f3d 81a0 b5bd 3610 29bd 7d2c 953d
000002e0: 0a45 d1bd 52d3 01be 9b7f 4f3c 6176 4e3b
000002f0: 6c4d 27bd 6489 8bbb ac4f bcbd f7d8 9dbc
00000300: c4f5 a5bd 6313 2cbe 87c3 9e3d f377 35be
00000310: aad6 a8bb f61f 09be 7c8b 8fbc b762 4cbc
00000320: 11e5 b83c 1a92 9f3d dc32 e43a af2e 0dbe
00000330: e701 46bd 6088 18bd 4cc7 aabd f2fe 023e
00000340: feb3 40bd 69bb f7ba 0ae4 b53d 5696 0c3e
00000350: 5f42 0d3d f1cd cbbd 7a12 82bd 93e1 08be
00000360: 7cc9 543d 4e77 bdbc d9e1 73ba a5b2 83bd
00000370: ce2c dbbc 6958 58be eca7 183e 4812 08bd
00000380: a293 ca3d 361e 9abc 4bfe 593d febb dd3c
00000390: 5fa5 9ebd 9d2f c2bc bc18 633c 2a66 8abd
000003a0: ba0c 43bd b579 e13d 415b d8ba 8b4b e5bc
000003b0: 20bd 3a3d 8895 30bd d559 c83d 4d73 733d
000003c0: 9d36 073c d8e2 bf3c 166b 4c3e 80f5 213e
000003d0: 8d64 b3bd ae47 c8bd 2351 babd 0fea e73c
000003e0: f714 5fbd 302f 10be 2b82 f83a d15a f53c
000003f0: a067 633e 9790 d43c 932e a4bc 49c7 a5bc
-0.0051007583 0.17999949 -0.102133 -0.024253352 -0.16994978 -0.010547469 0.031411264 0.10714527
-0.055969633 -0.020718224 -0.08255003 -0.029372647 -0.0032459982 -0.10755676 -0.124268904 0.062269114
-0.17205958 -0.037296638 0.08430218 -0.034297768 -0.17481776 -0.058587298 -0.067861624 -0.064168766
0.058180824 0.035920355 -0.07654335 -0.08466495 -0.0523219 0.018374259 0.019565105 0.07400067
0.021559715 0.06643196 -0.101367675 -0.053370122 -0.08627544 0.07627403 -0.019801252 0.15855071
-0.0405542 0.16283157 -0.017618358 -0.07467706 0.004525033 -0.07500752 0.16098833 0.026262868
0.14577067 0.04993151 0.052612036 0.054771885 0.05142574 0.07904736 -0.05642872 0.048059445
0.007516913 -0.12699491 0.1363751 -0.008233762 0.06985086 -0.03312518 -0.035031773 -0.0036794054
-0.06705332 -0.051762603 0.018502906 -0.14566305 -0.05927301 -0.025993608 0.008510942 -0.00698863
-0.020152178 0.10216648 -0.14777556 0.0014502049 -0.022989016 -0.0639567 -0.11540185 -0.01673118
-0.10616166 0.08152892 0.115107656 0.11192169 -0.030847918 -0.17643853 -0.065041356 -0.062256653
0.10714802 0.06965274 0.022791633 -0.015913302 -0.13408941 -0.05578384 0.0411239 0.02916976
-0.090991475 0.10198095 0.08409467 0.10784786 0.024451945 -0.049731676 0.0968475 0.031224487
0.06659356 0.08018057 -0.13674188 0.02579758 -0.03391315 -0.041135415 0.06079256 -0.021577664
0.03940352 0.026111824 0.10579458 0.024467124 0.03975951 -0.04104746 -0.052266035 -0.026044704
-0.07864029 -0.045296025 0.07649035 0.1510277 0.016449537 0.07175671 0.11628689 -0.061100252
0.0014089069 0.046036474 0.11792266 -0.060844574 -0.0048117638 -0.0900213 -0.020090403 -0.08382795
-0.16391969 -0.19615078 -0.09689204 0.0093703335 -0.013998265 -0.07983873 -0.04926539 0.075970665
-0.17442201 -0.10894354 0.0036759905 -0.008173465 -0.005445504 -0.049391795 -0.095870964 0.07044095
-0.003652831 -0.036219377 -0.096984684 -0.09730006 -0.027432308 0.07236988 0.120474696 0.09973518
-0.03808119 -0.02449758 0.037157927 -0.088225305 0.027300868 0.075506344 -0.032168314 0.034311168
-0.12056455 0.098313965 0.024967417 -0.036702063 0.08244611 0.013116368 0.16890694 0.0279209
0.08078178 0.06798783 0.048640676 0.1472856 0.03886875 -0.08868504 -0.041275226 0.07283876
-0.10218246 -0.12678269 0.012664701 0.0031503665 -0.04084532 -0.0042583216 -0.09194884 -0.019268496
-0.08103517 -0.1680427 0.07752138 -0.17721538 -0.005152543 -0.13391098 -0.017522566 -0.012474707
0.022570165 0.077915385 0.0017410177 -0.1378734 -0.048341658 -0.037239432 -0.08338794 0.12792566
-0.047046654 -0.0018900457 0.088813856 0.13729224 0.034487125 -0.099513896 -0.063511804 -0.133673
0.051949963 -0.023128178 -0.0009303368 -0.06430558 -0.026754763 -0.21127476 0.14907807 -0.03322056
0.0989144 -0.018813234 0.05322103 0.02706718 -0.07746386 -0.023704344 0.013860878 -0.067577675
-0.04761956 0.11009542 -0.0016506688 -0.027990123 0.04559052 -0.043111354 0.09782759 0.05943613
0.008252767 0.023423597 0.19962725 0.15816307 -0.08759413 -0.09779297 -0.09097507 0.02830985
-0.054463353 -0.140805 0.0018959692 0.029950531 0.22207499 0.025947852 -0.02004174 -0.020236628

rnn.weight_hh_l0 f4 [384, 128]
00000000: 3ed5 9dbd 5670 e83a 484e bd3d 8051 0f3d
00000010: c699 cbbd 05bd 163e bec3 4c3c aeb2 cc3c
00000020: ff78 2abc 77c0 07bb 730f 733d b652 81bd
00000030: 5f2a 2ebd 4288 573d 55ca a43d 3d49 d5bd
00000040: fdad 12bb 7ebf fb3c a1fe 463d ba7a cebb
00000050: eaf9 a8bd 08c4 20bd b3ff 073c 8272 29bd
00000060: 3bb3 9cba c6a3 163e 44d8 8e3b 6f0f 07bd
00000070: 5f6a 6dbd a11f f93c ff5d 9e3c 4030 1fbe
00000080: 3954 ad3c 8e62 8b3c 03b1 adbc e3b0 00be
00000090: 342a 0dbd b9ba f5bd 7808 12bd 7e40 2f3d
000000a0: 5beb 183d cc64 a5bc 5777 d7bd a271 893d
000000b0: 47c3 86bd 65c1 8ebd 2622 ed3d 20c3 85bc
000000c0: a92d 283d 9065 66bc 7a1d 4ebd e354 d3b9
000000d0: dd28 a53d b5b3 9bbc 5460 d3bd 9667 3fbd
000000e0: a0e9 2abb c19c 05be 721d 00be c9e6 f9bd
000000f0: 7794 2f3e 1d93 5e3d 93c5 a43d 9deb d33d
00000100: 7bf7 023d 51bc 5bbc b25c 5cbc d431 9c3d
00000110: 3f56 87bd 1ef6 ca3d bbe8 26bc a433 b2bd
00000120: a110 53bd cf63 be37 a97b 993c 33c2 a0bc
00000130: a1a6 ad3d 5046 803c fc99 c83c 381b 9e3c
00000140: b4b9 cb3d 45bc 96bc fca6 773e b280 bbbd
00000150: 9ff2 27be 8215 993d 534c cebc fe51 8abd
00000160: 5e50 373d 6f34 493b 8ba9 44bd 713d 9c3d
00000170: e9f2 1fbd 2f76 2c3d 2968 2cbc f4b0 67bd
00000180: 0830 9d3d c29e 903d b4f4 a6bc ef4c 7fbd
00000190: a2b4 d9bc d6d5 8dbc f714 bd3b a1d8 d63d
000001a0: c8a4 85bd fb59 a63d 5b08 eabd f701 02be
000001b0: dacb 6abd b5dd 573d f0da 13be f488 1e3a
000001c0: 635a bfbd e879 9abd 540d e13d 38b5 6dbd
000001d0: a146 243d d511 8ebd dd03 d9bc 6736 3fbd
000001e0: f042 bdbd 1762 99bd 7926 d13c a794 df3c
000001f0: ef8e e53c 410e a33c ca4b 88bd 9537 273e
00000200: b271 3dbd cc9c f3bd 9076 033d 467a c33d
00000210: 719c b4bd d34b 01bd 783d 45bd b88b 4cbe
00000220: 84f9 debd d74e a0bc 55c3 80bd 6a9d 5a3d
00000230: 8cb8 abbd 8f50 e03c 62ad 913d 35b7 bc3d
00000240: 8710 1e3e 2a36 03be bc59 993d 3df7 04bc
00000250: 7663 473d 6f16 bcbd 205d b2bd 36e4 213c
00000260: 0293 ffbd 5e99 22bd c683 14bc 37ee 01be
00000270: f3af b7bd f744 f63d 21a8 823d a11e 0bbd
00000280: 8c4b 5dbd 7af0 2abd 9059 783e d844 2c3c
00000290: 66ae 0abd 0cb3 7a3d b686 143e 02f9 473d
000002a0: baaa b03d 8c53 e63d 9cb2 03be df6d a4bc
000002b0: b1ff 6f3d 45c1 b5bd de6b 9d3d a97c 13bd
000002c0: 566c 333e 2a50 d13d ead4 b23d a13d 4e3b
000002d0: 697e 573d 5f9e b13c 25e9 39bd 0979 84bc
000002e0: bf91 383c 2e76 763d 2115 57be 206b 8cbd
000002f0: 7425 9e3d cd34 be3d d11a be3d a426 76bc
00000300: 2407 1f3e b6b9 a23d 1eaf 9b3c 92f1 b9bd
00000310: fcc9 103e b709 e33c 38fd f0bc 040e 5d3c
00000320: bb31 143e 0e25 19bd bb5a a63d c9c4 b53d
00000330: 5170 06be 3076 8e3d 4730 653d 8b9b 0ebe
00000340: 780a 363e 57a0 903d 74b4 9cbd d8b1 a03d
00000350: 34e9 8dbd 5e7c 3abd afbb f33d 35f7 083d
00000360: a0b1 b93d b580 e53c 38a6 1a3e 079f 03be
00000370: ff20 853c 48c4 59bd 37aa 35bd 7c31 2b3d
00000380: f927 973d 2689 603d 7422 8f3d 2639 5c3d
00000390: 4a21 b3bd 8e7d bbbd ac61 0c3c 2e42 d1bd
000003a0: 01a4 29bd 36d0 11bd 9fb5 ad3d 7eab 333e
000003b0: 8061 f9bd 6f83 e53d 8767 b73d 183e 05bd
000003c0: 110a 2e3e 5d29 213d 5130 773d 3404 ea3d
000003d0: a518 493c 2093 0a3e 1f29 0bbe d63d 143e
000003e0: 202c 1dbb 1a82 95bd 7261 903d 4b1b 24bd
000003f0: a3e5 01bd 6e00 093d a47d 49bc c7e6 ee3c
-0.07706688 0.0017733674 0.092434466 0.034989834 -0.09941439 0.14720543 0.01249784 0.024987545
-0.010404824 -0.0020714083 0.059340905 -0.06314604 -0.042520877 0.05262018 0.08046404 -0.1041436
-0.0022381537 0.030730959 0.048582677 -0.0063012512 -0.08250792 -0.03924945 0.00830071 -0.04136897
-0.001195527 0.14710912 0.004359277 -0.032973703 -0.05796277 0.03041059 0.01933193 -0.1554575
0.021158325 0.017014768 -0.02120257 -0.12567477 -0.034464076 -0.11998505 -0.035652608 0.042786114
0.037333827 -0.020189665 -0.10520809 0.06711127 -0.06580215 -0.06970481 0.11578779 -0.016328394
0.04105917 -0.0140623 -0.05032108 -0.00040308302 0.08064435 -0.01900659 -0.103211075 -0.046729647
-0.0026079193 -0.13048078 -0.12511232 -0.12202222 0.17146479 0.054339517 0.08045497 0.10347674
0.031974297 -0.013411597 -0.013449835 0.076266915 -0.06608247 0.099102244 -0.010187323 -0.08701256
-0.05152953 2.2696242e-05 0.018735724 -0.019623851 0.084790476 0.015658528 0.024487488 0.019300088
0.099475294 -0.01840032 0.24184793 -0.09155406 -0.16401146 0.074748054 -0.025182879 -0.0675392
0.04475438 0.003070142 -0.04801325 0.076289065 -0.039050017 0.042104896 -0.010522881 -0.05656524
0.07675177 0.07061531 -0.020380355 -0.06232923 -0.02657539 -0.017313879 0.0057703215 0.104905374
-0.0652557 0.08122631 -0.11427375 -0.12696062 -0.057323314 0.05270167 -0.14438987 0.0006047629
-0.09343412 -0.07542783 0.1098887 -0.05803415 0.04010642 -0.06936995 -0.0264911 -0.04668274
-0.09241283 -0.07489412 0.02553104 0.027292563 0.028022258 0.019904258 -0.066550806 0.16329797
-0.046251006 -0.11895141 0.032095492 0.09544806 -0.08818901 -0.031566452 -0.048154324 -0.19975173
-0.10887435 -0.019568844 -0.06287257 0.053372778 -0.08384809 0.027382163 0.07113148 0.092146315
0.15435992 -0.1281363 0.074878186 -0.008115587 0.048678838 -0.09183966 -0.087091684 0.00988107
-0.124792114 -0.039697044 -0.00906462 -0.12688528 -0.089691065 0.12024873 0.06379724 -0.033964757
-0.054027125 -0.041733243 0.24252915 0.0105144605 -0.033857726 0.06120591 0.14504513 0.048821457
0.086263135 0.11246404 -0.12861103 -0.020071922 0.058593456 -0.08874754 0.0768659 -0.036007557
0.17521796 0.10220368 0.087320164 0.003146984 0.05261079 0.021681963 -0.04538836 -0.016170995
0.011265217 0.0601713 -0.21004154 -0.0685637 0.07721987 0.09287415 0.092824586 -0.015023861
0.15530068 0.07945578 0.0190044 -0.09079279 0.14139551 0.027714593 -0.02941762 0.013492111
0.14472096 -0.037388854 0.08122774 0.088754244 -0.13128783 0.06956136 0.055954244 -0.13926522
0.17777431 0.070618324 -0.07651606 0.07846421 -0.069292456 -0.045528762 0.11901032 0.03343888
0.090670824 0.028015474 0.1510247 -0.12853633 0.016251085 -0.053165704 -0.044351783 0.04179524
0.07380671 0.054818295 0.06988993 0.05376544 -0.08746584 -0.09154807 0.008568209 -0.10217701
-0.041416172 -0.035598956 0.08481907 0.17545888 -0.121768 0.112067096 0.08955293 -0.03252992
0.16996028 0.039346088 0.060348812 0.11426583 0.012273942 0.13532686 -0.13589905 0.14476714
-0.00239826 -0.073002055 0.07049836 -0.04006509 -0.03171314 0.033447675 -0.012298021 0.029162778

rnn.bias_ih_l0 f4 [384]
00000000: fda5 c43d 7385 ab3d 28e8 0a3e dddc 8d3d
00000010: efea 153e c9ca a33e ddcf 603e c7b0 563e
00000020: da1f 09bd d860 383e efcd 9c3e 0ad7 293e
00000030: 3869 e63d 8763 ce3d 6f99 a13b cbb2 4e3e
00000040: e5fb 303e 83e3 aa3d 3359 123e 212f 973e
00000050: 2635 ad3c 08d6 1d3d 02b3 b7bd 41d2 263e
00000060: 0cea 673e 86f4 813d 004b a93e 2998 233e
00000070: f001 863d 5069 7a3e aa49 ee3d 6a1a edbd
00000080: 95cf 633e 3fb8 2b3e 8b2a 8e3e 9c02 a13d
00000090: f997 7f3e d93b 073e c69e 373e 1e67 933e
000000a0: 0d8a 373d 5062 963e 0d16 113e 239c 193e
000000b0: 6a34 7d3e 238a 9b3d 0c89 c73d 982c 783d
000000c0: 7eda d33d 97a7 1b3d fd58 e73d 070c 783e
000000d0: 5304 2f3e 111f 503d 31d2 803d fefd 4dbd
000000e0: 7ecf 283d 8009 5c3e a0fe 713e e5c1 913e
000000f0: 4cbb 233e 37e9 82bd de3e 403e 7cb3 b43c
00000100: ae0f af3e f080 1a3e 6b42 5f3e 3f8f b2bd
00000110: db12 613e 1e27 2b3e 5159 243e 9b25 b53e
00000120: 458d 113d 152a f23d bb08 f33d d207 b53e
00000130: 5039 e43d bd07 3a3e e463 973d 1332 e8bd
00000140: 5f2f 123e 5f7c bd3c 8ed9 7dbd 0131 413e
00000150: 5137 853e 637b 8fbc d369 8e3e 7395 613d
00000160: aa2a a03e 085a 5dbd cf6d 653e 9bd1 05bd
00000170: 5f8a 3d3e 6edf a23d e58a d03d 1b78 2d3e
00000180: 09ce cf3d 2756 fe3c 56a7 5e3d 1fd1 ba3d
00000190: 2131 0c3e 6ac9 8e3e 81f8 293e 742c 433d
000001a0: 632d 733e 0b58 713e 4096 4f3e fab3 c63c
000001b0: 954f 113e d40a 923d 956e a13d e510 023e
000001c0: 7476 8e3e fb77 fe3d 2915 5e3e 052e 433e
000001d0: abe3 ff3d e6f0 4a3d 7369 6d3e dde3 583e
000001e0: 2c69 3c3d 398b 0a3e 0376 933d 89a0 243e
000001f0: f65c bcbd 5f89 783e c969 633e 68ed b33d
00000200: f3ea 823d 1822 36be 9418 8abd 5fea 5fbd
00000210: d426 a2bc f50c 82be cea1 6fbe 91f9 1dbe
00000220: b728 3dbd 6a45 103c cedf 21be 43ec cc3c
00000230: 0498 73bd 41a6 cfbd 3b2a 453d af94 34bc
00000240: f800 7ebe c58e 18be 5cbd 77be 4248 f53d
00000250: 6d1a cdbd 0de8 883c 0e9f 2abd e586 eebd
00000260: 05f4 c3bb 5a34 233d cca9 66be bd6e 8cbd
00000270: 7bdb 18bd 0580 86be e217 f2bd bbcb 86bd
00000280: 24dd 92bd ed3a a9bd 749b 31be e7f1 61be
00000290: 023b 27bc e136 8bbe 7c58 42be 5073 e0bd
000002a0: 6941 12be a1aa a6be 0b6e 093e 1a5d 89bc
000002b0: f895 a8bc 2705 6b3c b967 49be 6078 a4bd
000002c0: 96f5 a3bd 09e0 10be 1676 c1bd 7298 adbd
000002d0: 04e0 91bb 67b9 06be ee27 acbd e8e0 5cbe
000002e0: f49d 82bd d402 65be 4b13 7fbd 6fe3 d9bd
000002f0: 53bc 01be 7399 59be 19c6 4abe dd58 adbc
00000300: 6753 0bbd 2c9d 41be 8d62 8b3d b983 02bd
00000310: 5445 afbe 9520 e7bc dd2a f73d 1868 57be
00000320: 46be 58be 41f4 26be 9cd6 b83b bf0d e93b
00000330: 2a2f 26be d214 b3bd 1ba1 50be ba15 aebd
00000340: a00f 6cbe 764d 8ebd 4aa6 2fbc 22df 2fbe
00000350: 335f 05be e784 15bc 03ee c6bd 6780 10be
00000360: ccbf b1bd e3b7 fb3c 2d52 863c 9e83 11be
00000370: b841 28be 0961 13be 5d2b 493d 6228 bfbd
00000380: e7e8 37be 9eef 07be 21ba 1bbd 5807 febd
00000390: 2c72 d6bd 8bcf 1ebe a584 25bd d49b 8dbd
000003a0: 7eba b4be 5f24 50be e006 e8bd f04c 33bd
000003b0: 5126 433e bcc1 c63d b419 17be c928 01bd
000003c0: 8e87 3bbe 5bcc 34be ef99 99be b298 99bc
000003d0: d635 38bd f46e 97bd 5e7c 04be 4691 8e3c
000003e0: eeb0 42be a9ba d7bd 83a7 a5bd cb10 18be
000003f0: 5a97 5dbe 13f1 34bd 9552 cebe 7ae4 d4bd
0.09601972 0.08375063 0.13565123 0.06926892 0.14640401 0.3199065 0.21954294 0.20965873
-0.03347764 0.18005693 0.30625865 0.16585937 0.11250538 0.10077577 0.004931621 0.20185392
0.1728359 0.08344176 0.1429184 0.29528144 0.021143507 0.038534194 -0.0896969 0.16291143
0.22647876 0.06345467 0.33065033 0.15976013 0.06543338 0.24454236 0.11635144 -0.11577304
0.22247155 0.16769503 0.27766833 0.07861826 0.24960317 0.13206424 0.17931661 0.2878961
0.04480939 0.2937188 0.14168568 0.15000968 0.24727026 0.07594707 0.097429365 0.060589403
0.103444085 0.038001623 0.1129627 0.24223338 0.17091493 0.050810877 0.06290091 -0.050291054
0.041213505 0.21487999 0.23632288 0.28468242 0.15989417 -0.063921385 0.18773982 0.022058241
0.3419165 0.15088248 0.2180268 -0.08718728 0.21979849 0.16714141 0.16049697 0.35380253
0.035535116 0.11824433 0.118668996 0.3535753 0.11143744 0.18167014 0.073920995 -0.11337676
0.14275883 0.023130594 -0.061975054 0.1886635 0.26018766 -0.01751489 0.27815112 0.055074167
0.3128255 -0.05404094 0.2240517 -0.0326706 0.18509816 0.07952772 0.10182742 0.16940348
0.1014672 0.03104694 0.054358803 0.09121918 0.13690616 0.27888042 0.16598703 0.047649816
0.23747782 0.23568742 0.2027216 0.024255741 0.14190514 0.071309716 0.0788242 0.12701757
0.27824748 0.12425228 0.2168776 0.19060524 0.12494596 0.049546145 0.23184757 0.21180673
0.045998737 0.13529672 0.07200243 0.16076864 -0.091974184 0.24271153 0.22208323 0.08785516
0.06392469 -0.17786443 -0.06742969 -0.054666873 -0.019793905 -0.2540051 -0.23401567 -0.15427233
-0.046181407 0.008805612 -0.15808031 0.025015002 -0.059471145 -0.10139132 0.048135977 -0.011021777
-0.24805057 -0.14898212 -0.24193329 0.11976673 -0.10014806 0.016712213 -0.041655593 -0.11646823
-0.005980017 0.03984485 -0.2252571 -0.06857059 -0.037318688 -0.26269546 -0.118209615 -0.06581827
-0.071710855 -0.08263192 -0.17344457 -0.22064935 -0.01020694 -0.27190307 -0.18979067 -0.10959494
-0.14282764 -0.32552055 0.13420884 -0.016768027 -0.020579323 0.01434449 -0.19668473 -0.08030772
-0.08005826 -0.14147963 -0.09446351 -0.08476342 -0.0044517536 -0.13156663 -0.084060535 -0.2157017
-0.063777834 -0.2236436 -0.06227426 -0.10639083 -0.12669496 -0.21249942 -0.19802131 -0.021160537
-0.034015086 -0.18907613 0.068059064 -0.0318639 -0.3423258 -0.028213779 0.120687224 -0.21035802
-0.21166334 -0.16304113 0.005640818 0.0071122344 -0.16228929 -0.087442055 -0.20373957 -0.08500238
-0.23052835 -0.06948368 -0.010720799 -0.17174962 -0.13024597 -0.009125925 -0.09713366 -0.14111482
-0.086791605 0.030727332 0.016396606 -0.14210364 -0.1643132 -0.14392485 0.04911362 -0.09333874
-0.17959939 -0.13275 -0.038019303 -0.124037445 -0.10470995 -0.15508859 -0.040409703 -0.069144875
-0.35298532 -0.20326374 -0.11329436 -0.043774545 0.19057585 0.09704921 -0.14755899 -0.031533036
-0.18313429 -0.1765608 -0.30000255 -0.018749569 -0.044973217 -0.073942095 -0.12938067 0.017403256
-0.19012806 -0.105336495 -0.08088591 -0.14850156 -0.21639767 -0.04417522 -0.4029738 -0.10395141

rnn.bias_hh_l0 f4 [384]
00000000: 6aa5 cf3d 0636 c63d 161e b43d abbd bdbd
00000010: 2aba 633d 6d2b 783e 3a33 763e 4403 193e
00000020: be5d cf3c a657 b73d 0119 933e 0992 493e
00000030: 9472 f53d bdb6 8c3d b966 fcba 6931 143e
00000040: 1a91 0e3e 9e67 6f3e 805b f13d 6171 b33e
00000050: 668f c83d fbee 64bd 4c07 97bd f681 9d3e
00000060: 1751 5e3e b7b6 313e da33 993e 591d 723e
00000070: ac84 d43d 188e 933e c929 5f3e f516 06be
00000080: 7251 233e 5b99 9f3e a0d5 593e 5f80 7a3d
00000090: 38e2 e73d f22d ef3d 5345 363d 7d3e a33e
000000a0: b7bf 333d 7d42 3c3e 846d e73c 7011 1a3e
000000b0: 531b 9b3e 645b 0b3e 7014 393e 94f3 d13d
000000c0: 70ad 213c 1fe1 b33d 9d18 6c3e e92d 8f3e
000000d0: 5cba e83d f1d2 453d 4ea3 383d 5316 0cbd
000000e0: 9f89 243e e435 2e3e 4a3b 3b3e e416 123e
000000f0: 9d29 813e a758 35bc c440 b53d 01a1 e93d
00000100: bf92 aa3e adc9 503e f52d 6c3e 0959 a7bc
00000110: eae1 2a3e f819 103e 47dd e33d 4918 c03e
00000120: 8876 cc3d f026 073e 8db8 0c3e 4784 833e
00000130: 0f9f 593d 8797 603d 71e7 f73d ab0b 1c3d
00000140: 717d 8b3e e247 863d bffd 023d 19a9 6c3e
00000150: 9538 6e3e 8940 2fbd 8a44 873e 7aea 9e3d
00000160: b30f 653e 5aa1 3cbd 157d 183e e42c 5f3c
00000170: 0ace 083d 758d d23c 9572 ed3d 57fd 573e
00000180: 1051 f53d 0e9e 68bc ef4d 9a3d 755e 043e
00000190: 91e2 603e 2bbb 5a3e 7dd6 533e c973 3c3c
000001a0: 75bc 893e 6b01 083e e8ee 273e 7ebb 143e
000001b0: c40b 633d c254 b83d f159 693e eb7e 873e
000001c0: 8977 923e 7bd7 803e f612 263e c9de 0c3e
000001d0: 4ae4 db3d 6d08 343e a809 823e 8b73 053e
000001e0: 40ff f53d 4c16 8e3e 241f a2bb 22cf db3c
000001f0: 4e37 f8bd 56be 403e e748 723e 974f 903d
00000200: 41b2 85bd 39ec 00bd 0c4b 03be b93d b4bd
00000210: f0da 92bc 82bd 01be d0ee a7be 3064 1dbd
00000220: fc36 683c 4fa1 e8bc bb52 19be 0ec8 083d
00000230: 5a51 23be 432e 98bd fba8 b2bc 3a10 da3c
00000240: 82ed 02be f632 6bbe 5fd7 57be d28b b53d
00000250: c915 92bd 07f4 953d d3b0 80bd 2ecb 73be
00000260: 1a39 adbd faea a2bc 38ca 87be 3e12 5fbe
00000270: d385 acbd d859 75be da82 d0bd f92c e2bd
00000280: b2cf b5bd beac 8dbd 77c2 b3bd fc57 46be
00000290: 230b 8bbd 88ac 73be 3215 28be 283b f6ba
000002a0: 318a 80be 937a b5be 85cd 2c3e 592f a93c
000002b0: ea31 693d ca49 92bd 5fbe 3dbe 0bdf b4bd
000002c0: 473a 723d a632 e2bd 9538 ffbd 9913 27bd
000002d0: f0e4 48bc 6474 4bbe 72e4 043d acc4 94bd
000002e0: 8868 eebd 3ab4 7ebe 27fc 1f3d f58d f1bd
000002f0: 4c4d d0bd ee72 dabd 2827 c9bd 35ab e2bd
00000300: a3ce 82bd 5095 86be 22a6 433c 51dd 41be
00000310: 3436 abbe 801a 10bd 8a82 153c 8ca0 50be
00000320: 527b ddbd cb9a 61be 1196 48bd edc7 f03d
00000330: c149 ffbd 73e4 2dbe 910c 7fbe 13da 71bd
00000340: 2f1f 80bd a248 a73c 8c61 c73d a615 e6bd
00000350: 0b5f 9dbc 6400 043d a400 dfbd 7d65 2ebe
00000360: 6981 d43c 260a 36bd 60cb 90bd aaa1 15be
00000370: 006b 2bbe 8502 8fbd 0295 6cbd 6a5f 8bbd
00000380: 145f 2dbe a1bd 94bd 291f 8cbd 212e 99bd
00000390: 5571 efbd 9ccd 2dbe 216e 6cbd 840f afbd
000003a0: 4a71 5ebe eb14 1cbe f767 55bd 596d 583d
000003b0: 119b cb3c 73fa dc3d c94e 6dbc 30d7 d0bc
000003c0: 607e 89be 1edc 3bbe 4942 2fbe 00fc 323d
000003d0: 4b80 d6bd 68c7 88bd 18b5 babd e727 b33b
000003e0: 2318 5fbd 9ba6 13be 4bf1 88bd ccf2 07be
000003f0: 9ae5 92bd c4c7 f2bd 4d80 cbbe 024d 8dbd
0.10138972 0.09678273 0.08794801 -0.09264692 0.05559746 0.24235316 0.24042979 0.14942652
0.025313254 0.089522645 0.28730014 0.19684614 0.11984745 0.06870792 -0.0019256688 0.14471973
0.1392254 0.2337937 0.1178503 0.3504744 0.09792976 -0.055891972 -0.07374439 0.30763215
0.21710621 0.17354856 0.29922372 0.23644008 0.10376868 0.28819346 0.21793284 -0.13094695
0.15949038 0.31171688 0.21272898 0.06115758 0.11322445 0.11678685 0.044499706 0.31883612
0.043884005 0.18384738 0.028250463 0.15045714 0.30294284 0.13609082 0.18074203 0.10251537
0.009868011 0.08783173 0.23056264 0.27964714 0.1136367 0.048296873 0.045077614 -0.034200978
0.16068123 0.17012745 0.18284336 0.14266545 0.2522706 -0.0110685 0.08850244 0.11407662
0.33315083 0.20389433 0.23064406 -0.020428197 0.16687742 0.14072406 0.1112619 0.37518528
0.099835455 0.13198447 0.13742276 0.25686857 0.053130206 0.054832008 0.12104691 0.038097065
0.27244142 0.06556679 0.031980272 0.2311138 0.23263772 -0.042786155 0.2641948 0.077595666
0.2236927 -0.046052314 0.14891465 0.013621543 0.03339962 0.025702218 0.115941204 0.21092735
0.11978352 -0.014197839 0.07534396 0.12926657 0.21961428 0.21360461 0.2068729 0.011502215
0.26901594 0.13281791 0.16399729 0.14524648 0.055431142 0.09000541 0.22788216 0.26464018
0.28606823 0.251644 0.1621817 0.13756861 0.10736902 0.17581339 0.25397992 0.13032357
0.12011576 0.27751386 -0.00494756 0.026832167 -0.121199235 0.18822607 0.23660623 0.070464306
-0.0652814 -0.03147528 -0.12821597 -0.08800835 -0.017926663 -0.12669948 -0.32799387 -0.038425624
0.014173266 -0.02839723 -0.14972965 0.033393912 -0.15949002 -0.07430699 -0.021809092 0.026619066
-0.12785915 -0.22968659 -0.21078251 0.08864559 -0.071330614 0.07321935 -0.062837265 -0.23807976
-0.08458157 -0.019887436 -0.26521468 -0.21784303 -0.084239624 -0.23960054 -0.10181208 -0.11043734
-0.08877505 -0.069177136 -0.087773256 -0.19369501 -0.067892335 -0.23796284 -0.16414335 -0.001878594
-0.25105432 -0.3544508 0.16875274 0.02065246 0.056932367 -0.071429804 -0.18529652 -0.088316046
0.05913761 -0.11044817 -0.12461964 -0.040790174 -0.012261614 -0.19868618 0.032444425 -0.07264075
-0.116410315 -0.24873438 0.03905883 -0.11794654 -0.10170993 -0.10666452 -0.098219216 -0.110678114
-0.06387069 -0.2628579 0.011941465 -0.18932082 -0.3343979 -0.035181522 0.009125361 -0.20373744
-0.10814537 -0.22031705 -0.04897124 0.11756883 -0.12465239 -0.16981678 -0.24907137 -0.059045862
-0.06255948 0.020420376 0.097354025 -0.11234598 -0.01921036 0.032226935 -0.10888794 -0.17030902
0.025940614 -0.044443272 -0.07070041 -0.14612451 -0.16740036 -0.069829024 -0.057759292 -0.06805308
-0.169308 -0.07262731 -0.06841881 -0.074795015 -0.11691538 -0.16972965 -0.057722215 -0.08547881
-0.21722904 -0.15242355 -0.0521011 0.052838657 0.024854215 0.10789957 -0.014484116 -0.025493234
-0.2685423 -0.18345687 -0.1711513 0.043697357 -0.10473689 -0.06678659 -0.09116572 0.005467403
-0.054466378 -0.14419024 -0.06686648 -0.13276213 -0.07172699 -0.118545085 -0.39746323 -0.06899454

rnn.weight_ih_l0_reverse f4 [384, 128]
00000000: 56c1 d13c 045d 2abc d05f 1e3d 2811 a83b
00000010: 06e4 c9bd 13bc f13c 9f6f 933b ed70 123d
00000020: 5be3 89bd 6de4 54bd a688 9a3d 6f9b 823c
00000030: 6df4 6d3d 98cb 8bbb 0606 b53c 8618 bcbd
00000040: 7747 a1bd faeb 59bc 69fb 713c df57 bdbb
00000050: 819c f238 7a4a 91bd 2e20 ef3c 2eb4 c4bd
00000060: 1744 0bbd 5543 82bd ccc5 05be f044 bebb
00000070: 60cd ddbc d8e7 d9bc 35a5 9e3c b2ff d1bc
00000080: d494 9139 a628 ee3b fc70 35be c579 bb3d
00000090: ea5a 01be 5b19 4dbd 06eb fbbd aea8 54bd
000000a0: 1ab1 90bd 4582 32bb 4642 713d 9748 95bd
000000b0: 5f7d 633b 1bd4 c4bd bf85 49bc 50de 6cbd
000000c0: cddf 1ebe 1ab4 c4ba 4d13 663d 9dcd e2bd
000000d0: 14c8 3e3c cdab e1bd 54b3 8c3d ffed 82bc
000000e0: ba52 9abd 734f d5bc 93d1 1dbb b762 833d
000000f0: 29af 6e3d 0cf2 1a3d 68f3 a7bd 3208 f73c
00000100: 9bf6 6fbc a4dd 513d 3882 003b aea0 3fbd
00000110: 2ab9 81bd f283 cdbc dcfa c9bc 96c1 f73b
00000120: b6da 0cbd e5b4 8ebc f692 21bd 1557 a3bd
00000130: a3c3 9dbd 0ad6 043e 1692 173b 16b2 c63d
00000140: a438 abbd b451 253e 2b71 ab3c ed89 763c
00000150: 2069 533c f84d f03d 28a7 40bc 84ef 853d
00000160: 3bc1 0abd 15a5 d83c 3963 f4bd 2866 c1bd
00000170: a5f0 893d 2e54 c23d 6b0c 52bd eb09 333d
00000180: 911c 193d 1ab5 cd3d 813c 143c 35ca 84bd
00000190: f431 a7bd b9c0 f5bd 9ac0 23bd db23 293d
000001a0: f279 08bd 48e8 ce3d 485e c1bd 9b03 b4bc
000001b0: 6cc4 c13d 4ea0 3cbd 900e b23c edd5 9f3c
000001c0: 93b0 703d d423 593d 9caa b0bd 376c 6fbc
000001d0: 69ec bc3c 31dd e3ba 56b9 b0bd 44a2 003e
000001e0: 6713 77bd 3ffe f83d f157 6c3d 5991 bfbd
000001f0: ec43 83bd c4d3 213c 8402 36ba e91e 72bd
00000200: d7f7 833d f71c 2a3c 0720 ebba 98a5 103c
00000210: 4e15 27be a733 333d 8617 b3bb db57 8d3d
00000220: 38b4 d6bc 9d92 8a3d 49e6 adbd d09d 99bd
00000230: b687 1e3e 2e0e 633d eaf1 453d 2ab6 d33d
00000240: 332a fbbc b750 613d c01b a53d 7166 f6bc
00000250: f765 d1bc 5795 1cbd e066 75bc 2d91 663c
00000260: 1eed 35be f062 ecbd fe64 d9bd a0b3 8fbd
00000270: 789d 373d ea7f 02bc 85cc d13d 36f8 cebb
00000280: b2d1 ac3d c582 2d3d 0fdd 9ebb ad22 92bd
00000290: 3fab 09bd 828b acbd abfa e53d 68aa 02bd
000002a0: 000f ec3c 526f 75bb ed47 86bd ecc6 103e
000002b0: da58 a7bd ad65 d9bc 086e 193d 3470 71bc
000002c0: 579f 1d3d f663 9d3d 2706 493d 2b0c 393d
000002d0: cd01 803b f84f 2fbc 720b aa3d cf02 1ebd
000002e0: 8afa 38bd 2394 6bbc bab8 a43d 84b6 bcbd
000002f0: a976 033d e03a bbbd 6c12 ea3d dfab 8a3d
00000300: 29c8 2fbd 1b52 6e3d 3d64 28bd 9f0a 67bc
00000310: 0e1d 1d3d a215 33be 800e ec3d 52ab 91bd
00000320: 210c d0bd 7373 ca3d f9e4 303b 7d14 c8bd
00000330: 8b64 823d c501 ce3c 84dd 42be e310 a03c
00000340: 9de3 8ebd c143 86bd 10b5 7a3d 6b4f 9fbd
00000350: af73 8abd 472f 4c3c 35de 10bd acaa 2dbe
00000360: ef9d 963c 1f64 563d e407 ea3d 8955 d0bc
00000370: 4152 113e 0e34 aa3d 32e1 12bd eedd 923d
00000380: 9fdf d23d 3c0b 5b3d 965a e73d fa15 d13d
00000390: 5bd6 dcba cec2 11be eed0 3ebd a178 63bc
000003a0: b9a1 9f3c eb9e 44bc ada0 7b3d b458 8c3b
000003b0: aa66 abbc 29d3 43be 51dc 043e 6e92 523c
000003c0: 5548 23bd 52b5 183e cfc4 2c3d cc7d 55bd
000003d0: a040 abbd 873b 2b3d b434 0d3d f77b 0dbe
000003e0: 7da4 0e3e 9eff 3abd ac7f 9abc 30bc abbd
000003f0: ae9a 8cbd 6677 7f3d 5645 593d ffff cfbd
0.025604885 -0.010398153 0.038665593 0.0051289983 -0.09857945 0.029508626 0.0044993903 0.035752226
-0.06732818 -0.051975656 0.07545595 0.015943257 0.05809443 -0.0042662136 0.022097599 -0.09184365
-0.07874959 -0.01330089 0.0147694135 -0.0057782973 0.0001156861 -0.070942834 0.02919015 -0.09604679
-0.034000482 -0.06360499 -0.13063735 -0.005806558 -0.02707547 -0.02659981 0.019365886 -0.02563462
0.0002776744 0.0072680293 -0.17718881 0.09154085 -0.12632337 -0.05007301 -0.123006865 -0.051918678
-0.070650294 -0.0027238291 0.058901094 -0.07289236 0.0034712178 -0.096107684 -0.012299954 -0.0578292
-0.1551506 -0.0015007288 0.05617075 -0.11074374 0.011644382 -0.110190965 0.068701416 -0.015982626
-0.0753531 -0.02603886 -0.0024081215 0.06415313 0.058272514 0.03782849 -0.08200723 0.030155275
-0.014646198 0.051236764 0.0019608866 -0.046784095 -0.06334145 -0.02508733 -0.024655752 0.007560919
-0.034388267 -0.017420242 -0.039446793 -0.07975594 -0.0770333 0.12972274 0.0023127845 0.09701936
-0.08360413 0.16144449 0.020927986 0.0150475325 0.012903482 0.11733621 -0.011758603 0.065398246
-0.033875685 0.026445905 -0.11932988 -0.09443313 0.067353524 0.09488712 -0.051281374 0.04371063
0.03738076 0.10044308 0.009047628 -0.064838804 -0.08163825 -0.119996496 -0.0399786 0.04129396
-0.03331942 0.10102898 -0.09441811 -0.021974375 0.094612926 -0.046051316 0.02173546 0.019511187
0.058762144 0.053012684 -0.08626291 -0.014613203 0.023061948 -0.0017384646 -0.086291 0.125619
-0.060321238 0.121578686 0.057701055 -0.09353895 -0.064094394 0.009877149 -0.0006943124 -0.05911151
0.06443756 0.010382882 -0.0017938622 0.008828543 -0.16316721 0.04375043 -0.0054654507 0.06901523
-0.026208982 0.067662455 -0.08491189 -0.075008035 0.15481457 0.055433445 0.04832641 0.103374794
-0.03065977 0.055008616 0.080619335 -0.030078145 -0.025561316 -0.03822836 -0.014978141 0.014072699
-0.17766234 -0.11542308 -0.10614966 -0.070166826 0.04482791 -0.007965067 0.10244087 -0.00631621
0.08438434 0.04236104 -0.0048481296 -0.0713552 -0.03361058 -0.084250465 0.11229452 -0.031900793
0.028815746 -0.0037450385 -0.065566875 0.14138383 -0.08171244 -0.02653774 0.03745845 -0.014736224
0.038482036 0.07685082 0.049078133 0.04517762 0.0039064647 -0.010700218 0.08302964 -0.038576897
-0.045160808 -0.01437858 0.08043046 -0.092144996 0.032095585 -0.09142089 0.11429295 0.06771063
-0.042915497 0.05818377 -0.04111122 -0.014101653 0.038357787 -0.17488721 0.11526203 -0.07112755
-0.101585634 0.098853014 0.0026991947 -0.09769533 0.06366833 0.025147328 -0.19029814 0.019539302
-0.069770075 -0.06555892 0.06120783 -0.0777882 -0.06760346 0.012462444 -0.035368163 -0.16959637
0.018385855 0.052341577 0.11427286 -0.025431411 0.14191534 0.0831071 -0.035859294 0.07171236
0.102965586 0.05347751 0.11296575 0.1020927 -0.0016848551 -0.14234468 -0.04658597 -0.013883741
0.019486295 -0.01200078 0.06143253 0.004283035 -0.020922977 -0.1912352 0.12974669 0.012852294
-0.039863903 0.14912918 0.04217988 -0.052121922 -0.083619356 0.041804817 0.03447409 -0.1381682
0.13929935 -0.04565393 -0.018859707 -0.08385503 -0.0686544 0.062369727 0.05304464 -0.10156249

rnn.weight_hh_l0_reverse f4 [384, 128]
00000000: ed25 513d 7e99 95bd 53ae d3bd 8d1b fabd
00000010: cfdb 8e3c b437 f5bc caf8 ce3d 2baf 9eba
00000020: 64a4 b03d de15 e2bd b901 7dbd 27fb d1bd
00000030: c52d 29be b057 8dbb 8c38 bd3d 417d 36bd
00000040: 2b5b d3bd 2aaa 05be 4fde 1e3e ba3b 893e
00000050: f26e 193e 8694 50be 7c12 173e 2795 a6bd
00000060: 92f5 013e ffc4 aa3d fdee c0bd e213 953d
00000070: 116c 61bc c692 07be ae86 e53d ca5a 2fbd
00000080: 402a 72be 0496 963d 2c97 423e c839 43be
00000090: 39a6 98bd 38c5 d9bd 57a7 cb3d f84e 9fbd
000000a0: 5db9 02bd c449 fdbc 2d0f 103c d268 94bd
000000b0: f233 653d 1713 4dbd 3caf b6bc 4e17 a93c
000000c0: c0df f43d aab8 32bd 8f78 7cbd 359c bdbd
000000d0: 297e 083e c911 f23c 75a3 a93a d7ae 6abe
000000e0: 2a43 29bb 609e 433d 78c0 33bd 0e71 673d
000000f0: f7c8 0e3e f234 ddbc 9d35 f73d b64c 9e3e
00000100: 2e76 fd3c c0d7 9dbd 1f90 943d beb7 f33d
00000110: fac6 093d 0fd4 19be fea9 0dbd 258e ab3d
00000120: 3689 11be e03d e33d 068e 273d b511 c9bd
00000130: 7f89 8b3d 1968 843d ce9e 0a3e 12dd 18bd
00000140: bfd5 933d 0f20 8dbd 6090 383d 9517 053e
00000150: 1d3f 26bc d4f5 e3bc 5e66 1f3e e317 e3bd
00000160: 1116 fe3d 895b 1ebd 29d7 c9bd a893 393a
00000170: ab97 493e 53f7 3f3c d198 02bd 07c7 da3c
00000180: b8ba 5c3e f4d3 bebd a91a 19bd 0212 f0bd
00000190: 7886 bcba abb4 eabd 9142 b2bd 6a84 d13d
000001a0: 1502 9cbb ba66 0cbc f41b 43bb ae95 f93d
000001b0: 0d24 ef3a 62bb 023e ed0c ac3b 80ef 0d3d
000001c0: e010 113e e94e a7bd d833 32bd 2212 4dbc
000001d0: 6e57 0b3e e8b0 913d f465 03be ef65 143d
000001e0: b4a8 31bd c0e2 57bd 5cc1 a23d f86d 1c3d
000001f0: 40ab e8bd cae1 fa3c b25d e03d 71d8 c93d
00000200: afa6 fcbb 1854 ca3d b340 c3bd 4895 883d
00000210: 3a22 6abe c44e f4bd c1e5 2fbe 52f7 40bd
00000220: 7509 5ebe 8fa7 623d bee6 3ebe fc85 e73d
00000230: 6091 2b3d 25cc 86bb 9923 a0bd 3ed2 8c3d
00000240: a5d9 983d e7dc 993d afe7 2c3c 5015 53bd
00000250: 2932 7e3c 8057 853e 7f13 fabc 6843 acbd
00000260: c1f5 d6bd 1606 f8bd d831 be3d e564 ebbd
00000270: b204 813d af82 17bb 6e40 1ebe 00b0 a93d
00000280: 94c1 a93d 71a6 c73d d40e cebc 1f52 193b
00000290: f0fd 463c 89a6 da3c 1e5c a23d 81a3 0c3e
000002a0: 38cb b8bd 8ae3 03bd 927a 8abc 71c1 1e3e
000002b0: aea7 be3d 95f2 a13d ea46 8e3d 82b8 9fbc
000002c0: dbf2 4cbe 9de3 8fbd 9e04 1fbd 32b9 553e
000002d0: 6f1d fcbd 5856 dfbd 6d1b 19bd 39a0 84bc
000002e0: 5c09 acbd 5079 303d fa77 8d3d c977 b7bc
000002f0: 213c 0ebe 1abd 0fbc 9f02 a0bd f949 c43c
00000300: d6f0 153e 9813 193e 113b 913d 6a2d 423b
00000310: a715 1ebd c22e 773d 4814 38bd 4ca0 493d
00000320: b5f6 aa3c e795 02bd 06d3 4bbd 5b68 2a3e
00000330: 35a6 233d 2e09 86bc 5e08 e1bd 9a0a 9dbd
00000340: 9aa1 07be 1b8a 97bd 4d8d f7bc 6224 23be
00000350: 57d2 113e 07c1 263e 0add 86bd fc2b 4b3d
00000360: bbcf 1cbe 9379 e13c 914c 8ebd af8d 8abd
00000370: 861b 97bd cb5a 40be 3ae9 01be b18c 6c3e
00000380: 4e6a 0e3d 265b 293e fec3 c23a 650b cc3d
00000390: 34d2 62be 6ca2 fc3c 87e3 5dbd 3eea 573e
000003a0: db86 6e3d f883 783d 0f09 bb3d 2d61 e3bb
000003b0: a678 993d d807 61bd 3465 b03c 9226 c53d
000003c0: f6df edbd e2da b13c a8d8 a63b c6b1 c1bd
000003d0: 86d7 a8bd 9f75 173e 330b 0a3d 4848 54bd
000003e0: 7690 093d ab4a 40bd 7529 64bc 4bd3 13be
000003f0: eeb8 003e 6d80 3c3e 5ea4 49bc 4d1c f63d
0.05106156 -0.07304667 -0.10335984 -0.12212286 0.017438797 -0.029933788 0.101060465 -0.0012106647
0.08625105 -0.11039327 -0.06176922 -0.10252982 -0.16521366 -0.0043134317 0.09239301 -0.044553045
-0.10320123 -0.13053194 0.15514491 0.2680338 0.14983729 -0.20369157 0.14753145 -0.08133917
0.12691334 0.08338355 -0.094205834 0.07279183 -0.013758675 -0.13239583 0.11207329 -0.042811193
-0.2364893 0.07352832 0.1900298 -0.1906501 -0.074535795 -0.106333196 0.09944027 -0.07778734
-0.031915057 -0.030918963 0.008792681 -0.072465554 0.055957742 -0.050067034 -0.022300355 0.020640995
0.119567394 -0.04363314 -0.06163841 -0.0925831 0.13329376 0.029549496 0.0012942391 -0.22918259
-0.0025827386 0.04775846 -0.043884724 0.0565043 0.1394385 -0.027002785 0.12070773 0.309179
0.030940142 -0.07707167 0.072540514 0.119002804 0.033637024 -0.150223 -0.034585945 0.08376721
-0.14212498 0.11095786 0.04090693 -0.098178305 0.06813335 0.064651676 0.13537142 -0.037320204
0.07218503 -0.0689088 0.04505956 0.12997277 -0.010146883 -0.02782718 0.15566394 -0.110885404
0.124065526 -0.038661513 -0.09855492 0.00070791924 0.19686763 0.0117166815 -0.03188402 0.026706232
0.21555603 -0.093177706 -0.03737894 -0.11722185 -0.0014383337 -0.11460241 -0.08704103 0.10230334
-0.0047609904 -0.008569414 -0.00297713 0.12186752 0.0018244997 0.12766793 0.0052505643 0.034652233
0.14166594 -0.08169348 -0.043506473 -0.01251653 0.1360757 0.0711382 -0.12831861 0.036230024
-0.04337378 -0.05270648 0.079470366 0.038190812 -0.11360788 0.030625243 0.10955371 0.09855736
-0.0077103 0.09879321 -0.09533825 0.06669098 -0.22864619 -0.11929086 -0.17177488 -0.047110863
-0.21683295 0.055335578 -0.18642709 0.11304852 0.041886687 -0.0041136914 -0.0781929 0.06876038
0.074633874 0.07512837 0.010553285 -0.051533997 0.015514889 0.2604332 -0.030526875 -0.08411294
-0.104960926 -0.12110536 0.09286851 -0.114938535 0.06299724 -0.0023118665 -0.15454265 0.082855225
0.08288875 0.09748543 -0.025153555 0.0023394895 0.012145504 0.026690738 0.07927726 0.13734247
-0.09023136 -0.03219942 -0.01690415 0.1550348 0.09309326 0.07907597 0.069471195 -0.01949716
-0.20014517 -0.07025836 -0.038822763 0.20871428 -0.123103015 -0.10905141 -0.03737967 -0.016189681
-0.08400223 0.043084443 0.06907649 -0.022395985 -0.13890125 -0.008773113 -0.07813 0.023961054
0.14642653 0.1494888 0.07091344 0.002962912 -0.038594868 0.060347326 -0.044941217 0.049225137
0.020869592 -0.03188124 -0.049761795 0.16641371 0.03995343 -0.0163618 -0.10987924 -0.07668038
-0.1324524 -0.073993884 -0.030218745 -0.15931848 0.14240395 0.16284572 -0.065851286 0.049602494
-0.15313618 0.027523791 -0.06948198 -0.06765305 -0.073782966 -0.18784635 -0.12686625 0.23100545
0.03476935 0.16538677 0.0014859436 0.09963111 -0.22150499 0.030839168 -0.054172065 0.2108545
0.058234077 0.06067273 0.09132587 -0.0069390745 0.07493715 -0.05493912 0.021532632 0.09626497
-0.11614983 0.021710817 0.0050917454 -0.09457736 -0.08244233 0.14790963 0.033702087 -0.051826745
0.033585034 -0.04694621 -0.0139259 -0.1443607 0.12570545 0.18408366 -0.012307255 0.12017117

rnn.bias_ih_l0_reverse f4 [384]
00000000: 56dc 053d 383c 11bc 50f2 dcbc 2aa6 553d
00000010: ad7c dfbc d471 483c 694c 01be 2938 083d
00000020: c681 f0bd febf f83c dda2 b2bb b089 ed3d
00000030: 65a2 773d 403f 803d a0e1 04be 2159 283d
00000040: 5357 563d 1619 99bd 7c59 ed3d e62f 8d3d
00000050: d941 063e bb11 2e3d b225 94bc c9b3 bbbd
00000060: a73f 79bd 7465 cb3d 0481 e63c 1918 b9bc
00000070: 9972 6c3e 6bca c2bc e7cd 8a3d 7f87 653c
00000080: 9550 3e3d 6fe4 9bbd be48 7f3c 6a12 acbc
00000090: 6b28 c43d 8593 e7bc 8337 b63d 8f1a aabb
000000a0: fe3b f3bc 09c7 043d b798 693d a998 723d
000000b0: c050 723d 6f0d c33d 3745 98bd cd92 1cbd
000000c0: 7ee5 e3bd f269 873c 753c 673d 3199 d93d
000000d0: 5434 5a3d 8c6b 7a3a 2515 f23d a37c 753c
000000e0: 08f0 fc3c 8386 cbbd 67a3 8fbd 041a e4bc
000000f0: caf1 4bbc ec23 e8bc 8f8e 283d 435d 8bbd
00000100: 48c8 7fbd 4fed 113d b228 6a3b 0128 8e3b
00000110: 9de1 c5bd 2d4a bb3d ed0d 0b3e c1de 413e
00000120: 6177 103e 20aa 18bb 358a 853d ffa2 303d
00000130: d72f 9fbc ac62 d4bd eb02 bd3c ad4c e2bd
00000140: 6239 593d b38c e03d 410b 1a3d f813 50bd
00000150: 01c7 6f3d c052 253d 01f1 62bd b524 d13c
00000160: 2918 493e 2497 503d fe06 593b 1e52 55bd
00000170: a077 163e 08b5 5abd 8820 953d 952a 1e3b
00000180: 520f febd ad0b ad3d dacf 62bd da2f 843c
00000190: 035b 8e3d 3799 353e a596 1a3d 7f52 063e
000001a0: 1ccc 123e 7d87 853d e7da 563d 7e72 0e3d
000001b0: 0e17 e4bc 0e89 083e 16bd 593e ab73 c8bc
000001c0: 1f8c dabd 96e2 04bb fd76 b0bd fd6b 2f3d
000001d0: 7b1a 323e 5b47 833d 447d 16be b065 93bb
000001e0: 9110 363e 8d04 a53c e33b 143e 5219 adbc
000001f0: 8eb5 a4bc b397 dd3d 5f5b 283d 7583 a23d
00000200: 5399 e1bc 43e9 da3b 2a8f a03c b5e1 91bc
00000210: f95c 9b3d 2c7e 7cbd 81b5 12b8 a521 e13d
00000220: de44 c9bc ccca bcbd 7e50 f6b8 c7e5 853c
00000230: 5d5a 273d 8fbd 79bd fbe3 25bd e44c 24be
00000240: f780 f03d 7de3 ab3d b731 023e b7d3 a2bd
00000250: 6040 fb3c 62b1 2dbd ef54 04be 2e39 16bc
00000260: 3778 cabd 5512 95bd d2bb a73c f55d d1bd
00000270: 3065 07be d81e dbbc cf5f 073e d601 003e
00000280: 7c6d 93bd ecc7 a3bc 87c7 073e 00d1 d7bd
00000290: 0d0c d33d c597 c4bd 8c0c 9cbd 2cf5 c93d
000002a0: ed65 d7bd f910 5fbe f042 363e 6d24 a73d
000002b0: 011a b23c f86a 833c 0eec 893c e66a 1f3b
000002c0: 7127 13bd a644 f8bd 3460 a03d 42fd 103e
000002d0: 0e63 0a3d 23f3 04be c383 2c3e c5fc 6bbe
000002e0: e92a a1bd 483e 8b3d a458 c13c eb7d e33d
000002f0: a702 7ebd b838 7bbd 93a6 033d 572b fabd
00000300: 8513 9b3d 20e4 aebc d9cd d83d c97d 32be
00000310: af83 d4bc 0b25 ed3d 94c7 44be 5601 36be
00000320: bf61 b5bd 126d 38bd 359c 0fbe 96e4 b43d
00000330: 560e 29bd 0c71 81be 155a aebd 3b7c 47bd
00000340: 8c44 03bd ea0c c0bd 4777 213e a83e e33c
00000350: 9b98 ffbc 92f2 2d3e 92d6 dbbc 4077 b73d
00000360: 66a4 cb3d b5c9 653e 0787 cbbc 3383 5fbd
00000370: 26d7 cc3c a017 c4bd 9630 503d 7255 4e3c
00000380: 76e4 18bc ba1f 8bbd 4e19 3cbe 4d9e a53d
00000390: 6eed bf3c e85f 98bd 009f 1b3e 350e 58bd
000003a0: 5808 c13d 3f47 d13c 33f8 8bbd 7d07 dc3d
000003b0: 7168 453b 30ff 44bd cd59 4abd 077e e83d
000003c0: c8c6 aebd b85c 993d 6766 ee39 8c6f 843d
000003d0: b062 933d 3f65 e73c 1630 4b3d 477d cc3d
000003e0: ec22 35bd a62a bc3d 43f3 9ebe 5643 c9bd
000003f0: b84c 91bd dbf2 e53d 6672 4b3d 92a3 f4bd
0.03268083 -0.008864455 -0.026971012 0.05216042 -0.02728113 0.01223417 -0.12626804 0.033256683
-0.11743502 0.030364987 -0.0054515437 0.115985274 0.060457606 0.06262064 -0.12976694 0.041100625
0.052329373 -0.07475488 0.115893334 0.068939015 0.13111056 0.042497378 -0.01808438 -0.09165151
-0.06085172 0.0993146 0.028137691 -0.022594498 0.2309059 -0.023778161 0.06777554 0.014009356
0.046463568 -0.076119296 0.015581308 -0.021004874 0.095780216 -0.028268585 0.08897307 -0.0051911543
-0.029691692 0.032416377 0.057030406 0.05922762 0.05915904 0.09524047 -0.07435077 -0.038225938
-0.111277565 0.01653001 0.05645414 0.10624922 0.05327256 0.0009552769 0.11820439 0.014983329
0.030876175 -0.099377654 -0.070135884 -0.027844436 -0.012447784 -0.028337441 0.04115158 -0.06804898
-0.062446862 0.035626706 0.0035729823 0.004338265 -0.09662173 0.09145007 0.13579531 0.1893263
0.1410804 -0.0023294762 0.065205015 0.043124195 -0.019431992 -0.10370383 0.02307268 -0.11049781
0.05303324 0.10964336 0.03760839 -0.050800294 0.058539394 0.04036212 -0.05540562 0.025530199
0.19638123 0.05092539 0.003311574 -0.052080266 0.14694071 -0.0533953 0.072815955 0.0024134268
-0.12405266 0.084494926 -0.055374004 0.016136099 0.06950953 0.17734228 0.037741322 0.13117407
0.14335674 0.06519983 0.052454855 0.034777157 -0.027843025 0.13333532 0.21263537 -0.024469217
-0.10671257 -0.0020276657 -0.08616445 0.042827595 0.17392914 0.06410094 -0.14696223 -0.004498206
0.17779757 0.020143772 0.1447597 -0.021130238 -0.020106103 0.1081995 0.041102763 0.0793523
-0.027538931 0.006680639 0.019599516 -0.01780782 0.075860925 -0.061643764 -3.497815e-05 0.10992745
-0.024568971 -0.09218368 -0.00011745187 0.016344918 0.04085766 -0.060971793 -0.040500622 -0.16044956
0.11743348 0.08392999 0.12714277 -0.07950538 0.030670345 -0.042405494 -0.12923025 -0.009168906
-0.098862104 -0.07278887 0.020475302 -0.10222999 -0.13222194 -0.026748106 0.13220142 0.125007
-0.07198617 -0.019992791 0.13259707 -0.105379105 0.10305033 -0.0959926 -0.076195806 0.09861216
-0.10517488 -0.21783818 0.17798972 0.081612445 0.021740915 0.016042218 0.016836192 0.002432519
-0.035926286 -0.12122469 0.07830849 0.1415911 0.033785872 -0.12983374 0.16847138 -0.23045643
-0.078695126 0.067989886 0.023601837 0.11108001 -0.06201425 -0.061333388 0.03214128 -0.12215298
0.075720824 -0.021349013 0.10586137 -0.17430796 -0.025941698 0.11579331 -0.19216758 -0.17773947
-0.08856534 -0.045025893 -0.14024432 0.08832662 -0.041273437 -0.2528156 -0.085132755 -0.04870246
-0.032047793 -0.09377463 0.15768157 0.027739838 -0.031200698 0.16987064 -0.026835714 0.08958292
0.09943466 0.22440226 -0.02484466 -0.05456848 0.025004935 -0.095748186 0.050827585 0.012593614
-0.009331813 -0.06793161 -0.18369028 0.08086834 0.023428645 -0.07440168 0.15197372 -0.052747924
0.094254196 0.025546668 -0.068344496 0.10743616 0.0030122066 -0.04809493 -0.049402047 0.11352163
-0.08534008 0.07488388 0.00045471193 0.064665884 0.071965575 0.02824652 0.049606405 0.09984832
-0.044222757 0.09187822 -0.3104497 -0.098272964 -0.07094711 0.11227962 0.049669646 -0.11945261
